saved_models/model_14.pkl (torch_old, 281078 bytes, 7 tensors)

convs.0.weight f4 [128, 20, 5]
-0.12557332 -0.12190216 -0.035025932 0.06938697 -0.2204862 0.16856232 0.20460752 -0.15111943
-0.34996712 -0.0035560858 -0.17057899 -0.09031107 -0.005397088 0.061280385 0.0010921654 -0.10419909
0.12821028 0.13841061 -0.031849395 -0.036751512 0.337496 -0.32209405 -0.26700443 -0.088105775
-0.0020642586 -0.047045168 0.08231123 -0.18202183 -0.18213598 -0.01496054 -0.22965047 0.15485013
0.028230123 -0.1690762 -0.23382688 -0.3239157 0.002404511 0.19299667 0.108629145 -0.40591872
-0.022395074 -0.21165839 -0.23442185 -0.085282184 -0.0498309 -0.13814124 -0.14638385 0.049463883
-0.08069443 -0.17339174 -0.23156823 0.06235146 0.1390693 -0.069000676 -0.18115656 -0.034577876
-0.056190476 0.011055171 -0.017741464 -0.24356364 -0.25310078 0.10984328 -0.049560178 0.055400033
-0.1758012 -0.08689123 -0.07671521 0.08781794 -0.27766496 -0.16001648 0.002866412 -0.1516656
0.22800706 0.14735958 0.18022959 -0.14575218 0.097118504 0.033592734 0.055507593 -0.19439696
-0.19404545 -0.18580951 0.11952711 0.18237641 -0.070041224 0.13478859 0.5128905 0.17944834
-0.2197135 0.048023522 -0.21121116 0.04708423 -0.04476593 -0.03464708 -0.008109806 -0.31206906
0.026164686 0.034998856 -0.17938836 -0.049168818 -0.1156402 0.021803157 0.026159324 0.06197358
0.18021096 -0.17865703 -0.19890936 0.018311722 -0.05680153 -0.11133491 0.023386633 -0.18761359
0.13936801 -0.053130873 -0.062353596 0.09778685 -0.16685256 0.005080462 0.21224755 0.059280284
-0.19764155 0.17844398 0.00728891 -0.011840546 0.110838905 -0.13477142 -0.14042471 -0.13148937
0.07552873 -0.15325 0.007960399 -0.3207786 -0.13435893 0.12298497 0.09707713 -0.10634907
-0.11736328 -0.14157869 -0.14073336 -0.007911905 -0.008904621 -0.022281343 0.12503323 -0.05463157
0.0040110145 -0.05316975 0.13372676 0.07558761 0.1828041 -0.013901841 -0.13666993 0.018693814
0.083381474 0.028488984 -0.14697441 -0.059183955 -0.007794495 -0.12221188 -0.002562854 -0.27811816
-0.09071188 -0.09791313 -0.03113478 0.037593238 -0.16125922 -0.27776763 -0.085141994 -0.101407096
0.16443881 -0.09429449 0.07105476 -0.112292714 0.06965512 -0.096720316 -0.15075958 -0.008916122
-0.11696595 -0.04689832 -0.055858366 0.037754197 -0.12919047 -0.10273664 0.103800915 0.05839719
-0.091009684 -0.24836378 0.01702993 0.08777557 -0.27900875 0.05508794 -0.19079877 0.0064435843
0.043256223 0.03202731 0.124019936 0.051984113 0.111241475 0.17490903 0.0037205196 0.010052913
0.028130235 0.14868878 -0.037319116 -0.043223232 -0.31579083 -0.21566615 -0.08167156 0.12679952
0.11299525 -0.20823245 -0.018819572 -0.33988684 0.06306462 0.10787826 -0.27241245 0.017345248
-0.30943742 0.07830399 0.12205279 -0.4457682 -0.24615443 0.2549971 0.1822722 -0.098084845
-0.26734608 0.033251427 0.1269317 -0.20555179 0.028251173 0.057759173 0.1379416 -0.2168998
-0.2235456 0.06636625 -0.32479978 -0.046585206 -0.022494925 -0.182486 -0.20182559 -0.13642357
-0.04558966 -0.23833069 -0.14298315 -0.11806486 0.06778855 0.01563965 -0.03764256 0.13871808
0.011929899 -0.24438164 0.16664839 -0.07205651 0.111475036 -0.23824376 -0.10525001 0.050213203
00000000: 4b96 00be d7a7 f9bd 5a77 0fbd c11a 8e3d
00000010: 22c7 61be 9a9b 2c3e a284 513e 0dbf 1abe
00000020: e42e b3be 380d 69bb 42ac 2ebe 03f5 b8bd
00000030: 0eda b0bb 2401 7b3d fd26 8f3a 5566 d5bd
00000040: 8e49 033e 83bb 0d3e 8374 02bd c188 16bd
00000050: 47cc ac3e 83e9 a4be ceb4 88be cd70 b4bd
00000060: 8348 07bb 6fb2 40bd ca92 a83d ee63 3abe
00000070: db81 3abe 0e1d 75bc 7e29 6bbe 0891 1e3e
00000080: dc42 e73c 5022 2dbe 5070 6fbe 47d8 a5be
00000090: 0095 1d3b eba0 453e f578 de3d 94d4 cfbe
000000a0: e075 b7bc fabc 58be 480c 70be 6da8 aebd
000000b0: 7c1b 4cbd e674 0dbe a6e5 15be a49a 4a3d
000000c0: 1f43 a5bd 9b8d 31be 3920 6dbe 3f64 7f3d
000000d0: 2f68 0e3e 3a50 8dbd 1b81 39be 88a1 0dbd
000000e0: fc27 66bd bf20 353c 8c56 91bc bf68 79be
000000f0: 6d96 81be 83f5 e03d 9dff 4abd 25eb 623d
00000100: 3b05 34be 07f4 b1bd dd1c 9dbd e4d9 b33d
00000110: 1a2a 8ebe 5cdb 23be 6ada 3b3b 3a4e 1bbe
00000120: af7a 693e 6ee5 163e 1b8e 383e 0f40 15be
00000130: 11e6 c63d 8998 093d ee5b 633d ff0f 47be
00000140: dab3 46be d944 3ebe a1ca f43d e2c0 3a3e
00000150: c671 8fbd 0506 0a3e cb4c 033f 4ec1 373e
00000160: 93fc 60be 50b4 443d bd47 58be 65db 403d
00000170: 7b5c 37bd 19ea 0dbd fede 04bc 84c7 9fbe
00000180: 5357 d63c f65a 0f3d 95b1 37be 3e65 49bd
00000190: c5d4 ecbd 899c b23c 144c d63c 02d8 7d3d
000001a0: 3989 383e def1 36be e5ae 4bbe 7702 963c
000001b0: b9a8 68bd 8f03 e4bd 5395 bf3c c71d 40be
000001c0: 7db6 0e3e c29f 59bd 7c66 7fbd 7944 c83d
000001d0: 66db 2abe 017a a63b 6c57 593e e2cf 723d
000001e0: 8c62 4abe 05ba 363e cfd7 ee3b d9fe 41bc
000001f0: 82ff e23d 8501 0abe 7fcb 0fbe 26a5 06be
00000200: cfae 9a3d 91ed 1cbe 556c 023c 183d a4be
00000210: 6395 09be 8bdf fb3d 60d0 c63d 8bcd d9bd
00000220: 295c f0bd 01fa 10be 681c 10be efa0 01bc
00000230: b0e4 11bc 5d87 b6bc b608 003e 5ac5 5fbd
00000240: d46e 833b 86c8 59bd abef 083e adcd 9a3d
00000250: ff30 3b3e 8cc4 63bc 34f3 0bbe c523 993c
00000260: e8c3 aa3d bb61 e93c 7680 16be e06a 72bd
00000270: f768 ffbb 394a fabd 8ef5 27bb 8165 8ebe
00000280: 26c7 b9bd ae86 c8bd 5e0e ffbc 5efb 193d
00000290: 2321 25be 8f37 8ebe ed5e aebd 86ae cfbd
000002a0: a662 283e 781d c1bd 2885 913d b9f9 e5bd
000002b0: 58a7 8e3d 4d15 c6bd b860 1abe ed14 12bc
000002c0: d88b efbd 7418 40bd becb 64bd 25a4 1a3d
000002d0: 824a 04be 9667 d2bd 9395 d43d e431 6f3d
000002e0: 4963 babd 1353 7ebe 5a82 8b3c aec3 b33d
000002f0: 3cda 8ebe e4a3 613d c160 43be b424 d33b
00000300: 702d 313d 122f 033d 2afe fd3d 4bed 543d
00000310: 92d2 e33d 5a1b 333e f6d3 733b f9b4 243c
00000320: 6171 e63c df41 183e eedb 18bd d80a 31bd
00000330: 56af a1be 96d7 5cbe 6b43 a7bd bcd7 013e
00000340: 0e6a e73d e33a 55be 812b 9abc a605 aebe
00000350: 0628 813d 47ef dc3d a579 8bbe 9f17 8e3c
00000360: 956e 9ebe d85d a03d d0f6 f93d bb3b e4be
00000370: e80f 7cbe fb8e 823e 90a5 3a3e b5e0 c8bd
00000380: 96e1 88be a632 083d 62fa 013e 2b7c 52be
00000390: 016f e73c e294 6c3d 9040 0d3e fb1a 5ebe
000003a0: 23e9 64be 07eb 873d 284c a6be 21d0 3ebd
000003b0: 4747 b8bc 9cdd 3abe 5eab 4ebe 9fb2 0bbe
000003c0: 39bc 3abd f60c 74be 2d6a 12be fdcb f1bd
000003d0: b9d4 8a3d b91e 803c 162f 1abd 1d0c 0e3e
000003e0: a075 433c 2e3f 7abe e0a5 2a3e 5d92 93bd
000003f0: 064d e43d 2cf6 73be 518d d7bd 5cac 4d3d

convs.0.bias f4 [128]
-0.00798339 -0.00017071486 -0.24977072 -0.22889887 -0.006468759 -0.2695895 -0.35600662 -0.38292363
-0.22096378 -0.12034645 -0.13901517 -0.30889806 -0.2271272 -0.14870408 -0.19158374 -0.05753996
-0.11225295 -0.25581256 -0.3312955 -0.060418624 -0.14371449 -0.055240404 -0.2285839 -0.46253347
-0.030283457 -0.35126042 -0.22936454 -0.1686808 -0.28657833 -0.15634629 -0.15614574 -0.0011158985
-0.28642207 -0.22750248 -0.0951409 -0.43627456 -0.312332 -0.21659243 -0.29044577 -0.2959446
-0.3279006 -0.46708843 -0.3226981 -0.2965486 -0.326768 -0.24043804 -0.00054745784 -0.075426154
-0.32389724 -0.040342804 -0.14012866 -0.43398893 -0.24848993 -0.052976295 -0.16643232 -0.30661565
-0.27567968 -0.30959934 -0.25558951 -0.27974424 -0.39166063 -0.11919489 -7.4505566e-05 -0.18422738
-0.093988195 -0.43738437 -0.32042697 -0.1471409 -0.35902235 -0.1944881 -0.34745938 -0.0006549416
-0.3276175 -0.22185275 -0.067494676 -0.27055526 -0.32767656 -0.22934212 -0.027766608 -0.20873393
-0.047371455 -0.21889728 -0.06019583 -0.3111113 -0.12445265 -0.14982624 -0.1913447 -0.09850295
-0.30969536 -0.082797684 -0.0457864 -0.26577777 -0.4348452 -0.11260586 -0.3205031 -0.30850556
-0.26843283 -0.42451438 -0.40750402 -0.31764477 -0.3367067 -0.21750967 -0.30817404 -0.27807835
-0.40978676 -0.22255571 -0.04053773 -0.2923462 -0.15982485 -0.28143802 -0.22778988 -0.3449035
-0.0022739857 -0.23209766 -0.056072183 -0.30805194 -0.30215538 -0.018118799 -0.21453908 -0.35302946
-0.06838155 -0.084190935 -0.42847875 -0.26445144 -0.11114749 -0.14240955 -0.35922945 -0.29655445
00000000: c4cc 02bc ec01 33b9 e5c3 7fbe 7764 6abe
00000010: e2f7 d3bb a307 8abe 8046 b6be 910e c4be
00000020: 5444 62be 3378 f6bd fe59 0ebe e327 9ebe
00000030: 0894 68be e245 18be 872e 44be 05af 6bbd
00000040: e0e4 e5bd ddf9 82be 909f a9be 8579 77bd
00000050: e429 13be c343 62bd e611 6abe 30d1 ecbe
00000060: 0315 f8bc 68d8 b3be 8ade 6abe a9ba 2cbe
00000070: 65ba 92be 3e19 20be abe4 1fbe 5743 92ba
00000080: eaa5 92be 69f6 68be 3bd9 c2bd 615f dfbe
00000090: fbe9 9fbe 68ca 5dbe 4fb5 94be 0d86 97be
000000a0: 96e2 a7be 3726 efbe af38 a5be 38d5 97be
000000b0: 234e a7be 6435 76be 4683 0fba 0779 9abd
000000c0: dcd5 a5be 7f3e 25bd e37d 0fbe cc33 debe
000000d0: 2574 7ebe acfd 58bd 3c6d 2abe bafc 9cbe
000000e0: e325 8dbe ce83 9ebe a1dc 82be a33a 8fbe
000000f0: be87 c8be 731c f4bd df3f 9cb8 1aa6 3cbe
00000100: e27c c0bd d8f0 dfbe 010f a4be 1bac 16be
00000110: c7d1 b7be e327 47be 32e6 b1be 63b0 2bba
00000120: 7bbd a7be 5e2d 63be a63a 8abd 3886 8abe
00000130: 39c5 a7be a9d8 6abe cc76 e3bc 59be 55be
00000140: 9208 42bd 9c26 60be e78f 76bd fb49 9fbe
00000150: 08e1 febd 0d6c 19be ddef 43be eabb c9bd
00000160: 6490 9ebe d591 a9bd 858a 3bbd 0614 88be
00000170: 08a4 debe e79d e6bd fb18 a4be 71f4 9dbe
00000180: 0770 89be f359 d9be 5ea4 d0be 56a2 a2be
00000190: d264 acbe dbba 5ebe fdc8 9dbe 4960 8ebe
000001a0: 92cf d1be a5e5 63be e40a 26bd 67ae 95be
000001b0: 20a9 23be a518 90be c041 69be 3197 b0be
000001c0: 2607 15bb 02ab 6dbe f2ab 65bd fcb8 9dbe
000001d0: 1cb4 9abe e06d 94bc 22b0 5bbe 47c0 b4be
000001e0: a00b 8cbd 4c6c acbd 9161 dbbe 2e66 87be
000001f0: 4ca1 e3bd cfd3 11be ecec b7be fcd5 97be

convs.1.weight f4 [128, 20, 9]
-0.019116526 -0.05131878 -0.13361862 -0.056997888 0.027532302 -0.046729907 -0.0065289927 0.013709973
0.07785069 0.06343668 -0.084619924 -0.01036431 0.004878658 -0.028369095 -0.009302887 -0.12529984
0.0030147368 -0.17799197 -0.22322929 -0.19187649 -0.1940999 -0.10075943 -0.016873471 -0.14460295
-0.17282502 -0.18773338 -0.11775667 -0.22887726 -0.09832 -0.14761843 -0.20435347 0.0127548445
-0.10986624 0.0113312 -0.20390259 -0.09549145 -0.08426909 0.03377186 0.12993102 -0.02399452
0.051974453 -0.0419474 0.0038094132 0.1531338 0.07746198 -0.065395534 -0.08613975 -0.025176782
-0.047690894 -0.10207032 -0.0026047763 -0.11908387 -0.11906801 -0.08163048 -0.085467264 -0.09622779
-0.005006077 0.0015512975 -0.03609914 0.012561128 0.031743802 -0.029650781 -0.11395544 -0.09353188
-0.23951437 -0.23336774 -0.11744021 0.028463235 -0.14482038 -0.12937658 -0.07711872 0.07258348
-0.14775331 -0.11228243 -0.22665921 -0.1473679 -0.12252063 -0.124465376 -0.21378036 -0.21103048
-0.085829005 0.017129926 -0.007938321 0.012528685 0.06558357 -0.00020275243 0.0048691067 0.006270689
-0.011162852 -0.017907944 0.15513329 0.058782324 0.10382241 0.052515596 0.015851758 0.11351502
0.102553494 0.05663537 -0.022252712 -0.07554691 -0.12106965 -0.041674316 -0.09468712 -0.089246996
-0.12970284 -0.115050316 -0.22308983 -0.10428695 0.051578503 0.07292297 0.07361074 0.091557935
0.026571834 0.089742705 0.12400419 -0.07285914 -0.058167763 0.00477744 0.07713019 0.10273945
0.13591158 0.011748246 0.07262951 0.054515366 0.009416837 0.002245719 0.1751913 -0.16812022
0.040925827 0.106670395 0.021794332 -0.11859098 -0.02312523 0.15524131 0.03895975 -0.040065687
-0.17187276 0.099260435 0.031631332 0.0335687 0.04577594 0.065202504 -0.14243509 -0.048715644
-0.02734336 -0.13716114 -0.11906818 -0.01817292 0.05315979 -0.010834812 -0.081041165 0.031288162
0.07087081 0.07828523 0.12739177 0.07572934 0.15451837 0.13976903 0.22740509 0.00028328167
0.024594381 -0.08588661 -0.016292937 0.03801011 0.0873858 0.03586588 -0.01737815 0.011979318
-0.12559837 -0.07126623 -0.0036732221 0.0008716424 0.037683852 -0.0075078346 0.026198769 0.10003862
0.04096607 -0.025908286 0.03795385 0.029312564 0.034083493 -0.05026198 0.0984934 0.008312534
-0.062444597 -0.0017641861 -0.040975 -0.032597717 -0.031949826 0.011327876 0.01366481 0.020755885
-0.0062456992 -0.014292893 -0.08951068 -0.038325228 -0.05571161 -0.04622565 0.04117166 -0.036183905
-0.069858044 -0.0019145994 0.013572297 -0.03340906 -0.024065107 0.0009859154 -0.009918621 0.008038346
0.015301895 -0.04464976 0.008749642 -0.021174004 0.0063635223 -0.0076814513 -0.041954346 0.059516698
0.010148549 0.0037266503 -0.029572196 -0.009118689 0.02022702 -0.052527197 -0.018067084 -0.002048087
0.021694666 0.006113575 -0.07930765 0.02887204 -0.036077037 -0.028857924 0.05173352 -0.031304933
-0.0026128986 0.049889967 -0.073083565 0.050278645 0.028804768 -0.012417988 -0.08618773 -0.023631927
-0.019605603 0.05596226 0.015874602 0.013782999 -0.031504545 0.008282629 -0.063775934 -0.010102284
0.049974345 -0.055119608 0.038584262 0.0061095976 -0.010512969 -0.0014699434 -0.0027654886 -0.01127119
00000000: 439a 9cbc a433 52bd 52d3 08be 9e76 69bd
00000010: 6c8b e13c dc67 3fbd 29f1 d5bb cb9f 603c
00000020: 2f70 9f3d 17eb 813d 364d adbd 11cf 29bc
00000030: 26dd 9f3b 4e66 e8bc 236b 18bc 9a4e 00be
00000040: e492 453b 8743 36be 3896 64be 457b 44be
00000050: 20c2 46be f65a cebd 3c3a 8abc cc12 14be
00000060: 0bf9 30be 2e3d 40be 692a f1bd cd5e 6abe
00000070: ff5b c9bd 4929 17be 0942 51be b2f9 503c
00000080: 8d01 e1bd 7fa6 393c d7cb 50be 0591 c3bd
00000090: 4695 acbd 5d54 0a3d a30c 053e 2890 c4bc
000000a0: 2ae3 543d 09d1 2bbd 59a7 793b 1bcf 1c3e
000000b0: 63a4 9e3d 18ee 85bd 0a6a b0bd 8a3f cebc
000000c0: 8757 43bd 3e0a d1bd e5b4 2abb 3ee2 f3bd
000000d0: eed9 f3bd e22d a7bd 7609 afbd 1313 c5bd
000000e0: 040a a4bb e854 cb3a b1dc 13bd 30cd 4d3c
000000f0: ca05 023d 32e6 f2bc 7861 e9bd a48d bfbd
00000100: 4143 75be f4f7 6ebe 7e84 f0bd bb2b e93c
00000110: cb4b 14be 4b7b 04be 6bf0 9dbd a6a6 943d
00000120: a54c 17be 55f4 e5bd 5a19 68be 9ce7 16be
00000130: 19ec fabd b4e7 febd 3de9 5abe 6018 58be
00000140: 1ec7 afbd 0f54 8c3c bb0f 02bc 1d45 4d3c
00000150: ae50 863d f199 54b9 078d 9f3b 5a7a cd3b
00000160: 65e4 36bc aeb3 92bc 43db 1e3e bcc5 703d
00000170: d8a0 d43d 981a 573d 8cdb 813c 907a e83d
00000180: 9107 d23d 7dfa 673d 524b b6bc 57b8 9abd
00000190: 5df3 f7bd b0b2 2abd 52eb c1bd 21c7 b6bd
000001a0: d2d0 04be 809f ebbd a971 64be 6594 d5bd
000001b0: fb43 533d a358 953d 3ac1 963d ba82 bb3d
000001c0: 2dad d93c 06cb b73d e9f5 fd3d 2c37 95bd
000001d0: 5241 6ebd 128c 9c3b 6ff6 9d3d 1069 d23d
000001e0: 682c 0b3e b77b 403c c8be 943d 814b 5f3d
000001f0: 1449 1a3c ea2c 133b 5965 333e b527 2cbe
00000200: d7a1 273d 0276 da3d 078a b23c d4df f2bd
00000210: 1f71 bdbc 94f7 1e3e 4294 1f3d eb1b 24bd
00000220: 6aff 2fbe 0e49 cb3d db8f 013d 557f 093d
00000230: 8d7f 3b3d e488 853d 81da 11be 0e8a 47bd
00000240: 2fff dfbc f873 0cbe 05da f3bd 60df 94bc
00000250: 14be 593d 7f84 31bc e9f8 a5bd 0428 003d
00000260: b724 913d 0254 a03d fd72 023e fc17 9b3d
00000270: 103a 1e3e 9d1f 0f3e e1dc 683e 6c85 9439
00000280: 287a c93c 52e5 afbd c478 85bc 7db0 1b3d
00000290: 54f7 b23d 1ae8 123d 9f5c 8ebc e744 443c
000002a0: dc9c 00be 07f4 91bd 71ba 70bb ee7e 643a
000002b0: 625a 1a3d 4804 f6bb cd9e d63c 0ce1 cc3d
000002c0: 0acc 273d 9d3d d4bc 7f75 1b3d e720 f03c
000002d0: 229b 0b3d 82df 4dbd e8b6 c93d 4b31 083c
000002e0: e8c5 7fbd 433c e7ba 67d5 27bd 2f85 05bd
000002f0: d2dd 02bd 8e98 393c 5ee2 5f3c 3f08 aa3c
00000300: b9a8 ccbb bd2c 6abc 6051 b7bd eafa 1cbd
00000310: db31 64bd 1b57 3dbd 9da3 283d 9335 14bd
00000320: bc11 8fbd 4cf3 faba 575e 5e3c f0d7 08bd
00000330: 3024 c5bc d539 813a b681 22bc 44b3 033c
00000340: cdb4 7a3c abe2 36bd a95a 0f3c 1b75 adbc
00000350: 1885 d03b afb4 fbbb 52d8 2bbd c8c7 733d
00000360: 1a46 263c d13a 743b 6441 f2bc 8e66 15bc
00000370: 23b3 a53c c226 57bd 6c01 94bc 3339 06bb
00000380: 03b9 b13c 6254 c83b 0d6c a2bd 0e85 ec3c
00000390: 84c5 13bd 7467 ecbc 87e6 533d 9a39 00bd
000003a0: 2a3d 2bbb 6c59 4c3d d6ac 95bd fbf0 4d3d
000003b0: faf7 eb3c d174 4bbc 3183 b0bd be97 c1bc
000003c0: ee9b a0bc af38 653d 740b 823c 16d2 613c
000003d0: e90a 01bd ddb3 073c f59c 82bd 0d84 25bc
000003e0: e6b1 4c3d 19c5 61bd 880a 1e3d 0533 c83b
000003f0: 973e 2cbc 1eab c0ba 333d 35bb ccaa 38bc

convs.1.bias f4 [128]
-0.17355905 -0.42481175 -0.24182336 -0.06781579 -0.23096088 -0.33954132 -0.1134716 -0.20513228
-0.23424666 -0.4038104 -0.25114286 -0.05260079 -0.4005223 -0.46837032 -0.25147462 -0.25839248
-0.0017242352 -0.33995485 -0.16110465 -0.24640937 -0.2361812 -0.24199878 -0.33449367 -0.35842928
-0.30508235 -0.276509 -0.16958255 -0.26165798 -0.23231184 -0.38120446 -0.2702431 -0.21181288
-0.09505176 -0.0073800334 -0.32943922 -0.15813641 -0.10992613 -0.28532952 -0.2732811 -0.15199815
-0.10222789 -0.4057798 -0.16637208 -0.22735174 -0.30613267 -0.2836289 -0.24491887 -0.041356437
-0.116618305 -0.10356129 -0.18764089 -0.23674354 -0.011083079 -0.13732156 -0.2863334 -0.3023322
-0.12558007 -0.28091908 -0.5068726 -0.11569775 -0.33038568 -0.36563686 0.002041016 -0.18535098
-0.00067582994 -0.35625532 -0.023787277 -0.1471558 -0.36569703 -0.06574051 -0.17957811 -0.019718628
-0.11961814 -0.37019828 -0.40622166 -0.24420395 -0.01946351 -0.26667526 -0.1387517 -0.17475179
-0.3639377 -0.25408253 -0.009664221 -0.41034678 -0.33892694 -0.0036383655 -0.24700105 -0.30437505
-0.23496047 -0.23896147 -0.28291136 -0.27927852 -0.23865965 -0.33764616 -0.25191024 -0.35263062
-0.3397406 -0.45583215 -0.21670426 -0.27500743 -0.39127576 -0.28186405 -0.3996039 -0.10709232
-0.05652798 -0.21945451 -0.36215797 -0.2166662 -0.24247006 -0.0530873 -0.4148554 -0.25781816
-0.38158107 -0.28838798 -0.26911724 -0.17228262 -0.0005601713 -0.23024651 -0.26018816 -0.4147717
-0.17277557 -0.108257666 -0.35598183 -0.23676397 -0.17871422 -0.30878487 -0.2536108 -0.016635906
00000000: 77b9 31be ed80 d9be 8ba0 77be 01e3 8abd
00000010: 0281 6cbe 5cd8 adbe cc63 e8bd 320e 52be
00000020: 5bde 6fbe 3dc0 cebe cc95 80be ed73 57bd
00000030: 4211 cdbe 3cce efbe 48c1 80be 054c 84be
00000040: bcff e1ba 900e aebe 9ef8 24be bd52 7cbe
00000050: 7cd9 71be 87ce 77be c142 abbe 0b84 b7be
00000060: c133 9cbe 9692 8dbe 0ca7 2dbe 09f8 85be
00000070: 28e3 6dbe 3b2d c3be 4e5d 8abe 7ae5 58be
00000080: 7faa c2bd 35d4 f1bb 42ac a8be 83ee 21be
00000090: f320 e1bd b616 92be 80eb 8bbe 67a5 1bbe
000000a0: db5c d1bd 5fc2 cfbe 715d 2abe e5ce 68be
000000b0: 6cbd 9cbe cf37 91be 03cc 7abe 5e65 29bd
000000c0: 94d5 eebd f117 d4bd ef24 40be e66c 72be
000000d0: cd95 35bc 069e 0cbe 4b9a 92be 49cb 9abe
000000e0: 1098 00be a0d4 8fbe 67c2 01bf f1f2 ecbd
000000f0: 5028 a9be c134 bbbe 91c2 053b a6cc 3dbe
00000100: 2e2a 31ba 1967 b6be 89dd c2bc 03b0 16be
00000110: a43c bbbe f6a2 86bd 53e3 37be f688 a1bc
00000120: 5bfa f4bd a18a bdbe 49fc cfbe 9a10 7abe
00000130: f071 9fbc a989 88be ed14 0ebe 22f2 32be
00000140: 0b56 babe 1b17 82be ae56 1ebc f918 d2be
00000150: d587 adbe a571 6ebb d8ed 7cbe 0cd7 9bbe
00000160: 7a99 70be 51b2 74be c2d9 90be 98fd 8ebe
00000170: 3263 74be f5df acbe 61fa 80be 008c b4be
00000180: 7bf2 adbe d562 e9be b9e7 5dbe c6cd 8cbe
00000190: 4c55 c8be 7c50 90be e298 ccbe 3853 dbbd
000001a0: e289 67bd afb8 60be c56c b9be bfdd 5dbe
000001b0: 124a 78be 1272 59bd ed67 d4be be00 84be
000001c0: 985e c3be 97a7 93be bcc9 89be db6a 30be
000001d0: 76d8 12ba bec5 6bbe 6237 85be f55c d4be
000001e0: 14ec 30be 32b6 ddbd 4043 b6be 4172 72be
000001f0: dc00 37be 0d19 9ebe 46d9 81be 0648 88bc

convs.2.weight f4 [128, 20, 13]
-0.053868506 -0.06387278 0.29799807 0.08728738 -0.07227635 -0.10154938 -0.07579503 -0.07074652
0.16980883 -0.18191807 0.03284164 -0.24271965 -0.06211669 0.087738566 0.017031988 -0.32493478
0.1464596 0.041874543 0.16422857 0.08341987 -0.014374088 0.05428238 -0.2406952 0.07821331
0.0050607733 0.1934308 0.07656055 -0.09316832 -0.25008172 -0.25126907 0.013574125 0.039952364
-0.016913673 0.13061959 -0.09480738 -0.02468961 -0.11808934 -0.2584385 0.23497404 -0.052792154
-0.33948758 -0.18587056 0.17337188 -0.08239113 0.005076459 0.17685246 0.077316485 -0.016336873
-0.40325728 -0.18408638 -0.031979397 0.09846103 0.46570915 0.050169516 -0.12474508 -0.30509937
-0.23543772 -0.24797733 0.082118094 0.16241732 -0.3050064 0.6817805 -0.44556215 0.43905962
0.030868674 -0.061271112 0.1004065 -0.4295185 -0.15152788 0.0205547 -0.17523248 0.11695807
-0.036931124 -0.23440218 -0.07564245 0.04383286 0.01417684 -0.034369383 -0.029315358 -0.019490661
-0.2608678 -0.19827396 0.030395068 0.06172844 0.15549846 0.051687587 -0.05458976 -0.18266644
-0.09517234 0.035368323 0.08910501 -0.39536747 -0.22409292 0.22019339 -0.1356914 -0.35677773
0.26253873 0.018981267 0.041032344 0.136073 -0.20050004 0.24532853 -0.0021672908 -0.2537413
0.24382554 -0.13380969 -0.35819298 -0.075535186 -0.19183733 0.029703751 0.116770804 -0.12183698
0.17865299 0.079297565 0.017504197 -0.0557483 0.18348579 -0.24345542 -0.040686067 0.0050140764
0.10183239 -0.013421046 0.123509005 -0.09842008 -0.2180279 0.029577408 -0.11402693 0.014878418
-0.23010609 -0.029558146 0.0014737902 -0.15762016 -0.1325569 0.16438606 0.01327151 -0.005147771
-0.15539086 -0.5257567 0.29184416 -0.14911091 -0.28012013 -0.0535924 -0.23264574 -0.11561597
0.14680935 -0.36945528 -0.17853022 -0.065088026 0.06531879 0.075012416 0.0013125536 -0.19486646
-0.21132092 -0.08294716 -0.002411836 0.15259974 -0.27487797 -0.060829863 -0.037116967 -0.070936576
-0.046809 0.04591213 -0.03520546 -0.354026 0.10121574 -0.32135788 -0.17220001 -0.05580761
-0.29877463 0.088552825 -0.26639012 -0.075561166 0.18809034 0.063015 -0.08755322 0.26379517
-0.51254016 -0.06892314 0.07549123 -0.049390845 -0.21466075 0.106509745 -0.11835507 -0.24357706
-0.50294036 -0.09095156 0.0012274785 -0.23614247 0.08885105 -0.32875314 0.35489753 -0.19891192
-0.43486533 -0.21819055 -0.44820216 -0.014855735 -0.08603158 0.1073571 0.04149454 0.20353116
-0.09421445 0.2123901 0.025140688 0.14264765 0.08220239 -0.040571377 -0.05310647 0.12363054
-0.082900055 -0.10321951 0.14297928 0.022330357 0.31072393 -0.12854633 -0.08407251 -0.10483099
0.10756628 -0.012021328 0.060992666 -0.3297453 0.06708995 0.11646113 -0.28158236 -0.22330888
0.22322908 0.107310355 -0.27346578 -0.12144175 -0.37124273 0.17048985 0.13841154 0.38473883
0.07349341 0.20021872 0.06475833 -0.13592896 -0.03497708 0.25570503 -0.21218525 -0.3386864
0.03933385 -0.15610327 0.010644355 0.19925898 -0.057066254 -0.22848214 -0.028742861 -0.1683485
-0.15774922 0.05672915 0.14288092 -0.07225378 0.047630455 -0.10524075 -0.33951908 0.075510435
00000000: 39a5 5cbd bbcf 82bd 3493 983e bac3 b23d
00000010: 9f05 94bd 1ff9 cfbd 6d3a 9bbd 8de3 90bd
00000020: 5ee2 2d3e bb48 3abe f584 063d 808b 78be
00000030: 126e 7ebd 47b0 b33d ab86 8b3c da5d a6be
00000040: 81f9 153e a484 2b3d 892b 283e 09d8 aa3d
00000050: 4b81 6bbc 3357 5e3d cd78 76be 4d2e a03d
00000060: d8d4 a53b b912 463e c7cb 9c3d 08cf bebd
00000070: b60a 80be 57a6 80be 0266 5e3c 17a5 233d
00000080: 8b8e 8abc 24c1 053e 5f2a c2bd dd41 cabc
00000090: d3d8 f1bd 0d52 84be 099d 703e 963c 58bd
000000a0: 51d1 adbe da54 3ebe 6688 313e aebc a8bd
000000b0: 6d58 a63b d018 353e 1b58 9e3d e8d4 85bc
000000c0: bd77 cebe 2481 3cbe d4fc 02bd f0a5 c93d
000000d0: 6e71 ee3e 8d7e 4d3d 597a ffbd fc35 9cbe
000000e0: 9616 71be c5ed 7dbe 882d a83d ba50 263e
000000f0: cd29 9cbe 2b89 2e3f b920 e4be 6ccc e03e
00000100: 4de0 fc3c 6bf7 7abd eca1 cd3d d9e9 dbbe
00000110: 202a 1bbe 5562 a83c 2570 33be b687 ef3d
00000120: 1745 17bd 2007 70be 6eea 9abd 168a 333d
00000130: fa45 683c e9c6 0cbd c326 f0bc e1aa 9fbc
00000140: 7790 85be 5408 4bbe 14ff f83c f6d6 7c3d
00000150: fd3a 1f3e 5db6 533d 8399 5fbd e90c 3bbe
00000160: b7e9 c2bd 60de 103d b07c b63d 9b6d cabe
00000170: 9d78 65be 607a 613e b0f2 0abe 92ab b6be
00000180: 7a6b 863e 9a7e 9b3c 8811 283d b856 0b3e
00000190: e24f 4dbe 6737 7b3e 1b09 0ebb 61ea 81be
000001a0: 67ad 793e 6805 09be 1265 b7be 31b2 9abd
000001b0: 0171 44be 4855 f33c 8825 ef3d ab85 f9bd
000001c0: cff0 363e c366 a23d f664 8f3c 5458 64bd
000001d0: b3e3 3b3e 614c 79be 6fa6 26bd 1f4d a43b
000001e0: 808d d03d f2e3 5bbc 4af2 fc3d 7890 c9bd
000001f0: b542 5fbe 524c f23c f386 e9bd 9cc4 733c
00000200: eea0 6bbe ed23 f2bc 312c c13a 2e67 21be
00000210: ffbc 07be d254 283e bf70 593c a2ae a8bb
00000220: c81e 1fbe fe97 06bf 996c 953e 88b0 18be
00000230: e86b 8fbe b483 5bbd af3a 6ebe 11c8 ecbd
00000240: 3155 163e 3e29 bdbe a0d0 36be df4c 85bd
00000250: dcc5 853d 1ca0 993d fe09 ac3a 138b 47be
00000260: 8364 58be 33e0 a9bd e50f 1ebb 1b43 1c3e
00000270: cebc 8cbe bc28 79bd f607 18bd 3247 91bd
00000280: cbba 3fbd 5c0e 3c3d 9a33 10bd e542 b5be
00000290: 334a cf3d 0589 a4be 3355 30be 8596 64bd
000002a0: fdf8 98be 2f5b b53d 4964 88be d0bf 9abd
000002b0: c19a 403e 020e 813d 1a4f b3bd 2910 873e
000002c0: d535 03bf 9327 8dbd 259b 9a3d 0e4e 4abd
000002d0: 07d0 5bbe c821 da3d 2564 f2bd 446c 79be
000002e0: b3c0 00bf d044 babd 58e3 a03a 55cf 71be
000002f0: 8af7 b53d 5552 a8be 21b5 b53e 91af 4bbe
00000300: aba6 debe 586d 5fbe c17a e5be 7865 73bc
00000310: 5331 b0bd 0ade db3d 2ef6 293d 796a 503e
00000320: 81f3 c0bd ca7c 593e d8f3 cd3c 3a12 123e
00000330: ba59 a83d 2c2e 26bd 2b86 59bd 0232 fd3d
00000340: 81c7 a9bd c064 d3bd 2969 123e 27ee b63c
00000350: 3517 9f3e a6a1 03be 352e acbd a1b1 d6bd
00000360: b64b dc3d 1bf5 44bc 72d3 793d 60d4 a8be
00000370: 7566 893d 2c83 ee3d 902b 90be 15ab 64be
00000380: 2a96 643e 88c5 db3d b503 8cbe 74b6 f8bd
00000390: 8713 bebe e494 2e3e c1bb 0d3e 7dfc c43e
000003a0: b783 963d 2306 4d3e 04a0 843d f630 0bbe
000003b0: 2044 0fbd c5eb 823e 1747 59be 4e68 adbe
000003c0: 881c 213d 89d9 1fbe a965 2e3c 8c0a 4c3e
000003d0: 4ebe 69bd 39f7 69be 2676 ebbc 8d63 2cbe
000003e0: 0389 21be d35c 683d 604f 123e caf9 93bd
000003f0: 2718 433d 7688 d7bd 72d5 adbe 37a5 9a3d

convs.2.bias f4 [128]
-0.0016474648 0.5553917 -0.27330858 -0.2830558 -0.26590157 -0.24622026 -0.4104595 -0.3013341
-0.2011086 -0.034942172 -0.31497878 -0.28976837 -0.04815299 -0.17195559 -0.069840394 -0.18427561
-0.3085273 -0.24101931 -0.108211234 -0.002137953 -0.26171777 -0.2350948 -0.14821878 -0.21514332
-0.07486486 -0.27907956 -0.32135344 -0.33235705 -0.1885944 -0.3430729 -0.3068709 0.03148238
-0.09633618 -0.33302343 -0.382078 0.42590868 -0.0608472 -0.20283929 -0.23005399 -0.30282354
-0.17504385 -0.002468331 -0.14857164 -0.011515257 -0.11361098 -0.37528193 -0.0876323 -0.33711633
-0.0042938422 -0.21273893 -0.12969264 -0.4023047 -0.27899548 -0.30587497 -0.25164083 -0.26836815
-0.0006402081 -0.23784631 -0.25755644 -0.024160488 -0.248691 -0.34455582 -0.20356165 -0.17953165
-0.26780024 -0.30072868 -0.30255857 -0.36943787 -0.24431188 -0.22580115 -0.17989907 -0.3702196
-0.3769242 -0.1756798 -0.30611488 -0.23661737 -0.31002802 -0.0790226 -0.22672534 -0.16122517
-0.14976943 -0.17953129 -0.35279226 -0.29781687 -0.15921707 -0.31550944 -0.2871538 -0.29067782
-0.23486184 -0.029836025 -0.26652128 -0.18391472 -0.21020496 -0.22549029 -0.3841981 -0.14953217
-0.045265835 -0.2568642 -0.15857632 -0.42036694 -0.32668975 -0.34435907 -0.30351174 -0.14654191
-0.21273571 -0.035991814 -0.0008628617 -0.13437884 -0.38653234 -0.33707753 -0.120801724 -0.34975582
-0.40382776 -0.3926265 -0.115625806 -0.0970344 -0.2626567 -0.26114124 -0.29889253 -0.34330615
-0.15755668 -0.28736123 -0.0018438323 -0.00058533816 -0.3604161 -0.27828637 -0.35678902 -0.34475586
00000000: bfef d7ba 272e 0e3f 1aef 8bbe b1ec 90be
00000010: 4024 88be 2a21 7cbe bf27 d2be 7748 9abe
00000020: 6aef 4dbe 861f 0fbd e644 a1be 855c 94be
00000030: 123c 45bd 2015 30be 7b08 8fbd bfb2 3cbe
00000040: 4af7 9dbe c4cd 76be da9d ddbd e61c 0cbb
00000050: dfff 85be b1bc 70be aac6 17be 884e 5cbe
00000060: bf52 99bd 84e3 8ebe 7088 a4be b42a aabe
00000070: e41e 41be 40a7 afbe 2f1e 9dbe abf3 003d
00000080: e74b c5bd 0c82 aabe ba9f c3be b410 da3e
00000090: ea3a 79bd 1ab5 4fbe 4693 6bbe b00b 9bbe
000000a0: b23e 33be b9c3 21bb 2a23 18be 7daa 3cbc
000000b0: e0ac e8bd f424 c0be 9078 b3bd 839a acbe
000000c0: 5cb3 8cbb 3cd8 59be 26ce 04be e2fa cdbe
000000d0: 7fd8 8ebe a59b 9cbe 11d7 80be 8d67 89be
000000e0: a3d3 27ba fc8d 73be 70de 83be 37ec c5bc
000000f0: daa8 7ebe 9f69 b0be 7772 50be 25d7 37be
00000100: 1d1d 89be 1cf9 99be f5e8 9abe f626 bdbe
00000110: e52c 7abe 6b38 67be 7637 38be 6c8d bdbe
00000120: 35fc c0be 68e5 33be 17bb 9cbe d34b 72be
00000130: febb 9ebe 9ad6 a1bd b02a 68be 3618 25be
00000140: 285d 19be 0dd7 37be 30a1 b4be 747b 98be
00000150: cd09 23be 748a a1be d305 93be b9d3 94be
00000160: 9f7f 70be ae6a f4bc 7a75 88be 2454 3cbe
00000170: f83f 57be ede6 66be 9db5 c4be f61e 19be
00000180: ab68 39bd b483 83be d561 22be 563a d7be
00000190: e143 a7be d54f b0be e465 9bbe 150f 16be
000001a0: 64d7 59be 276c 13bd ab31 62ba 9b9a 09be
000001b0: 91e7 c5be 6d95 acbe e566 f7bd 3213 b3be
000001c0: 83c2 cebe 5706 c9be 39cd ecbd f9b9 c6bd
000001d0: f07a 86be 4eb4 85be 7108 99be d3c5 afbe
000001e0: 8a56 21be 0321 93be bfac f1ba 6171 19ba
000001f0: 7688 b8be 8d7b 8ebe 0dad b6be d783 b0be

decoder.0.weight f4 [1, 384]
-0.39623475 0.14891666 0.3722059 -0.67071015 0.35820064 -0.15869853 -0.5485625 0.74977225
-0.42313758 0.20430085 -1.1210674 -0.40707463 -0.04628241 -0.0051217177 1.4250271 0.22638391
0.12691185 0.013998584 -0.0416606 -0.6187085 -0.16280149 0.13816145 -0.46859342 1.6303649
-0.13293825 0.6149116 0.7205243 -0.5258583 0.020959355 -0.09197684 0.4457002 -0.4046589
-0.06212614 -0.009978914 -0.23688456 0.3344339 -0.34630227 -0.5145275 0.018706031 0.011195754
-0.54493964 -0.07205795 -0.43362352 -0.762762 0.32550323 -0.56599396 0.33839586 -0.11335227
-0.67075026 0.1397458 -0.09541294 -0.48358628 1.1266613 0.26572442 0.1554559 -0.79812425
0.10385534 -0.6216549 0.7410875 -0.5061944 -0.22415751 0.43521813 0.11262443 -0.0873098
0.5063785 -0.11285374 -0.105923 -0.35455218 0.42862445 0.7805163 -0.22718334 0.23051752
-0.7451563 -0.06848524 0.24014458 0.44924706 0.6583593 0.48225144 -0.60571057 -0.1321708
0.1648139 0.20561928 0.6936818 0.05000548 0.0634886 -0.190334 -0.080317505 0.6615461
0.18348083 0.89272463 0.08603315 -0.04834979 0.0020049978 -0.12630518 1.1513776 0.0636314
-0.5400423 -0.031262897 0.012801686 0.9758549 0.0010010945 -0.32785186 -0.33657068 -0.3029681
0.05858556 0.029263686 1.1123466 -0.8306292 -0.03413697 -0.6608116 1.1923163 -0.08516325
0.21341237 0.22645302 0.67475563 -0.11293208 0.90894914 0.31668907 0.1803572 0.201949
-0.24294278 0.095097646 0.04855859 0.9418338 0.4848187 0.07532424 0.1314482 -0.46849775
-0.15053245 -0.09944406 -0.2071106 -0.2190009 -0.004134831 0.015416675 1.4719224 -0.8702111
-0.88985497 0.06809205 0.007931035 0.44533005 0.024751004 0.06745204 -0.93248093 -0.47490457
-0.89722496 0.009688742 0.5863426 -0.33013067 -0.35811853 0.7358862 -0.0020818275 0.047362383
0.13472198 0.07232648 -0.33663696 0.006120244 0.5649977 -0.68605065 -0.054300405 -0.005870177
1.4008607 -0.39577296 -0.12870944 -0.26378846 -0.90644306 -0.3178108 0.00068935344 0.3938117
0.16533427 -0.010143493 0.07123011 0.053090926 0.054219417 -0.014070805 -1.0582883 0.5051245
-0.20062299 1.2282174 -0.2305031 -0.93560046 0.5226585 0.1715781 0.08213169 -0.23337957
0.028704641 0.03389513 0.8746888 -0.516397 -0.03278424 -1.2814958 0.5660649 -0.24306358
-0.8948257 -0.017204788 0.5336167 -0.67189157 0.07667525 0.9103044 -0.22879793 0.5190555
-0.23605013 -0.010278757 0.03266486 0.004291498 -0.36459103 0.0031286026 -0.3757354 -0.094680965
-0.1580857 0.11037035 0.6034657 -0.11259311 -0.051870666 -0.1901354 0.063418694 0.25084865
0.020091152 -0.02171674 -0.38542423 0.0006636181 0.016441014 -0.015025742 0.688177 -0.0022068124
0.13998319 0.106654756 -0.06914871 0.37458006 -0.052505378 0.057857614 -0.07732308 0.79905486
0.6918545 -0.07901435 -0.68425757 -0.95567346 -0.37355992 0.043336052 -0.0060108374 -0.10128572
-0.026123052 -0.0066261063 1.0822171 -0.96768725 0.5894856 -0.7942636 0.15504016 -0.052243862
-0.4758116 0.8633137 -0.78387916 0.12105628 -0.1667221 -0.044684462 -0.022767782 -0.2009758
00000000: 48df cabe 9c7d 183e c691 be3e a9b3 2bbf
00000010: 1366 b73e de81 22be 986e 0cbf 13f1 3f3f
00000020: 7da5 d8be 3e34 513e 237f 8fbf 166c d0be
00000030: a092 3dbd 15d4 a7bb 4a67 b63f 2fd1 673e
00000040: 2ef5 013e 515a 653c 4ea4 2abd ae63 1ebf
00000050: 6fb5 26be 327a 0d3e 7aeb efbe ccaf d03f
00000060: f720 08be d96a 1d3f 4874 383f a69e 06bf
00000070: f4b2 ab3c 5a5e bcbd d132 e43e 742f cfbe
00000080: fb77 7ebd 997e 23bc de91 72be ec3a ab3e
00000090: 884e b1be 13b8 03bf 643d 993c 656e 373c
000000a0: 2a81 0bbf 1e93 93bd e703 debe 5f44 43bf
000000b0: 5ca8 a63e fbe4 10bf 3942 ad3e 3c25 e8bd
000000c0: 4ab6 2bbf 8619 0f3e dc67 c3bd 9f98 f7be
000000d0: 7036 903f 080d 883e d52f 1f3e df51 4cbf
000000e0: 1cb2 d43d c724 1fbf e9b7 3d3f f595 01bf
000000f0: 8c89 65be e9d4 de3e a3a7 e63d 7bcf b2bd
00000100: 05a2 013f dd1f e7bd 28ee d8bd dd87 b5be
00000110: aa74 db3e ebcf 473f c0a2 68be c90c 6c3e
00000120: 90c2 3ebf fd41 8cbd 76e8 753e b603 e63e
00000130: 3c8a 283f a9e9 f63e d90f 1bbf c857 07be
00000140: fac4 283e dc8d 523e 2195 313f 8cd2 4c3d
00000150: 5006 823d ebe6 42be 817d a4bd 165b 293f
00000160: 66e2 3b3e 9a89 643f 2632 b03d 6e0a 46bd
00000170: 4866 033b 2556 01be 5760 933f 2e51 823d
00000180: 3640 0abf 860d 00bd 2abe 513c a0d1 793f
00000190: 2837 833a 33dc a7be fe52 acbe a31e 9bbe
000001a0: 6af7 6f3d 66ba ef3c 6061 8e3f 1ea4 54bf
000001b0: 35d3 0bbd f32a 29bf d29d 983f 126a aebd
000001c0: c688 5a3e 4de3 673e c9bc 2c3f ef48 e7bd
000001d0: e4b0 683f 1225 a23e 8faf 383e b8cb 4e3e
000001e0: fec5 78be 8ec2 c23d 5fe5 463d 051c 713f
000001f0: 283a f83e 9843 9a3d 5b9a 063e f0de efbe
00000200: 2e25 1abe 54a9 cbbd cd14 54be c641 60be
00000210: 7a7d 87bb 3996 7c3c f467 bc3f 28c6 5ebf
00000220: 89cd 63bf d873 8b3d 2cf1 013c 4d02 e43e
00000230: 9ec2 ca3c 4c24 8a3d 12b7 6ebf b126 f3be
00000240: 89b0 65bf 88bd 1e3c 8c1a 163f e306 a9be
00000250: 505b b7be 0a63 3c3f 456f 08bb 0fff 413d
00000260: 8ff4 093e e81f 943d ae5b acbe 548c c83b
00000270: b0a3 103f 04a1 2fbf 1a6a 5ebd 9d5a c0bb
00000280: 674f b33f c1a2 cabe 68cc 03be 480f 87be
00000290: a70c 68bf 19b8 a2be bab5 343a b0a1 c93e
000002a0: 634d 293e e530 26bc 18e1 913d df75 593d
000002b0: 2e15 5e3d 3c89 66bc fe75 87bf d74f 013f
000002c0: 1d70 4dbe 3a36 9d3f 0109 6cbe 8383 6fbf
000002d0: f3cc 053f 2bb2 2f3e a934 a83d 0efb 6ebe
000002e0: ff25 eb3c 9fd5 0a3d 9beb 5f3f 9832 04bf
000002f0: c448 06bd 0e08 a4bf a1e9 103f a9e5 78be
00000300: 4c13 65bf 0ef1 8cbc 1b9b 083f 1601 2cbf
00000310: ea07 9d3d b609 693f 014a 6abe d2e0 043f
00000320: 20b7 71be 3b68 28bc 97cb 053d b29f 8c3b
00000330: adab babe 3e09 4d3b 6460 c0be 18e8 c1bd
00000340: 38e1 21be da09 e23d ba7c 1a3f 3797 e6bd
00000350: 5676 54bd dbb2 42be a9e1 813d 3c6f 803e
00000360: 3396 a43c 4ee7 b1bc 5356 c5be a8f6 2d3a
00000370: 4eaf 863c 882e 76bc 5e2c 303f 2ba0 10bb
00000380: c157 0f3e cf6d da3d d79d 8dbd f5c8 bf3e
00000390: e10f 57bd 1bfc 6c3d 905b 9ebd dc8e 4c3f
000003a0: 601d 313f 47d2 a1bd 812b 2fbf 04a7 74bf
000003b0: 3f43 bfbe 2581 313d 8ff6 c4bb e36e cfbd
000003c0: 0300 d6bc cf1f d9bb 1786 8a3f 5aba 77bf
000003d0: 87e8 163f dc54 4bbf d9c2 1e3e a9fd 55bd
000003e0: 949d f3be 2002 5d3f 4eac 48bf 5bec f73d
000003f0: 33b9 2abe 0e07 37bd 8083 babc 9acc 4dbe
