saved_models/model_01.pkl (torch_old, 281078 bytes, 7 tensors)

convs.0.weight f4 [128, 20, 5]
-0.17131744 -0.06494921 0.11857769 0.081708625 -0.042145394 0.068259396 0.01952905 -0.041907214
-0.48262417 0.24820709 -0.13766716 0.04158811 -0.4346778 -0.059857868 -0.195031 -0.11387751
-0.2951635 -0.11313998 0.03646759 -0.01703418 -0.095819406 -0.1586324 -0.23013476 -0.08967118
-0.10066851 -0.30282795 0.09042355 -0.21960893 -0.018994689 0.080091685 -0.13498966 -0.24910097
0.10849765 -0.32073307 0.16983812 0.10805423 0.13564405 0.09781175 0.4867811 -0.018201932
0.086582966 0.029485345 0.34895548 0.27973732 0.20580538 -0.26308998 -0.16154763 0.1810843
-0.5210022 -0.29379636 -0.51116467 -0.19692416 0.021892956 -0.21363959 -0.023074849 -0.03678169
0.16370809 -0.0056873327 -0.20589776 0.104159094 -0.06342283 -0.14744584 -0.14764659 -0.10148691
-0.16312027 -0.26988196 -0.3121774 0.07507133 0.025019167 0.053865194 0.25927982 -0.11030648
0.4175033 -0.3497226 0.05111761 -0.3034038 -0.046172548 0.06313029 -0.10161528 -0.15848137
-0.37387058 -0.20620306 0.16965474 -0.2487857 -0.3340961 -0.49112594 -0.51810926 -0.10847852
-0.20728378 -0.3285934 0.22770853 -0.22662549 -0.14195663 -0.09214382 0.1091599 -0.5462615
-0.36180377 0.23745224 -0.22971989 -0.3703894 -0.062015206 0.042241823 0.042762727 -0.0039279354
0.07050765 -0.1071025 0.045236133 -0.071789324 -0.0045152237 0.04025264 -0.08061225 -0.027726175
0.0025742364 -0.06936099 -0.05872199 -0.029333368 -0.05969761 -0.0020520538 0.004226939 0.13308759
0.06319438 -0.03923275 0.07271685 0.1368703 -0.05721142 -0.10510389 0.023491403 0.040037606
0.061899323 -0.102306746 0.0085314335 -0.055256207 -0.084175676 -0.0981972 -0.043163445 0.036999702
-0.034312807 -0.023302283 0.09777278 0.037721783 -0.10137817 0.010150632 -0.068096705 0.04356904
-0.13932261 -0.007364377 0.00014043493 0.010680408 0.042053703 -0.043776922 -0.026788471 -0.043501783
0.03478978 -0.053655464 0.020447403 0.046417993 -0.097449206 -0.09940539 0.00049311115 -0.03801631
0.031889617 -0.009080346 0.037233643 0.01716982 0.049552795 0.11495899 0.011070937 0.002616381
0.07401544 -9.211202e-05 -0.09302048 0.13182405 0.09391905 0.009584503 -0.021668669 -0.049056977
-0.010149008 -0.048112538 -0.09026225 -0.06107396 -0.05108135 0.025190312 0.106052056 -0.08122859
0.02250126 -0.018110732 0.032453045 0.06871609 0.09938656 -0.11218238 0.017683575 0.021962257
0.062224336 -0.0013457381 0.10133551 -0.06709067 0.0634704 -0.03951527 0.0014954682 0.026072739
-0.070109576 0.056318372 0.039304204 -0.0023296538 -0.039270543 -0.19551809 -0.045059692 0.022236504
-0.15588495 -0.13509017 -0.02330777 0.08901303 -0.02719776 -0.12047247 -0.088142015 0.096813165
0.08617418 -0.01959535 -0.043859143 -0.035732176 -0.14659318 0.048716664 0.091337204 0.027288001
0.00786424 -0.16113803 0.0011096667 0.0062506855 -0.12098928 -0.030581051 0.08773338 0.046567
-0.09832352 0.1910625 -0.0129092615 -0.10260124 -0.09891142 -0.022068035 0.031756986 -0.21280108
0.12920716 0.061203677 0.06490915 -0.01040754 0.018978864 -0.058642942 0.04761069 0.09728113
0.07849456 0.08799883 -0.1417016 -0.067616224 -0.08119775 0.04366342 -0.0013184638 -0.11931678
00000000: d76d 2fbe 1704 85bd dcd8 f23d da56 a73d
00000010: a6a0 2cbd 95cb 8b3d 63fb 9f3c e6a6 2bbd
00000020: 841a f7be 002a 7e3e 9ff8 0cbe 4b58 2a3d
00000030: 178e debe 862d 75bd 35b6 47be 9d38 e9bd
00000040: ac1f 97be efb5 e7bd 0a5f 153d 448b 8bbc
00000050: f73c c4bd 8870 22be 72a8 6bbe 86a5 b7bd
00000060: 4b2b cebd 440c 9bbe fb2f b93d 2ae1 60be
00000070: c09a 9bbc 1c07 a43d bb3a 0abe 5314 7fbe
00000080: 0434 de3d 2037 a4be 0bea 2d3e 894b dd3d
00000090: 46e6 0a3e 8751 c83d 5f3b f93e 381c 95bc
000000a0: 6952 b13d 408b f13c 4baa b23e bb39 8f3e
000000b0: a5be 523e bbb3 86be be6c 25be 2a6e 393e
000000c0: 6660 05bf 7a6c 96be b0db 02bf 7da6 49be
000000d0: db58 b33c 56c4 5abe 7707 bdbc 66a8 16bd
000000e0: 18a3 273e ce5c babb ddd6 52be 5d51 d53d
000000f0: d4e3 81bd 0bfc 16be ab30 17be 5ed8 cfbd
00000100: 0009 27be f82d 8abe b7d5 9fbe ffbe 993d
00000110: fff4 cc3c c0a1 5c3d 53c0 843e 5de8 e1bd
00000120: fec2 d53e d70e b3be b360 513d be57 9bbe
00000130: 6d1f 3dbd 744a 813d ac1b d0bd f148 22be
00000140: f76b bfbe e526 53be f9b9 2d3e aec1 7ebe
00000150: a50e abbe dc74 fbbe cfa2 04bf fc29 debd
00000160: 3342 54be 653d a8be 6d2c 693e 8310 68be
00000170: 145d 11be e6b5 bcbd 3a8f df3d cbd7 0bbf
00000180: 583e b9be ae26 733e b13b 6bbe aea3 bdbe
00000190: a803 7ebd c305 2d3d f827 2f3d e9b5 80bb
000001a0: 5166 903d 8e58 dbbd 8649 393d 4806 93bd
000001b0: 71f4 93bb f4df 243d 0918 a5bd 0122 e3bc
000001c0: 85b4 283b 220d 8ebd 7886 70bd 884c f0bc
000001d0: 7b85 74bd c07b 06bb 2282 8a3b 1d48 083e
000001e0: 0e6c 813d 85b2 20bd 92ec 943d ba27 0c3e
000001f0: 8656 6abd b540 d7bd 0b71 c03c 79fe 233d
00000200: 258a 7d3d 3386 d1bd 6dc7 0b3c 5554 62bd
00000210: 4c64 acbd 9d1b c9bd 27cc 30bd 008d 173d
00000220: 968b 0cbd 6ee4 bebc 183d c83d 2882 1a3d
00000230: 5c9f cfbd d64e 263c 4976 8bbd 7375 323d
00000240: 96aa 0ebe df50 f1bb b741 1339 e1fc 2e3c
00000250: 8140 2c3d 6e4f 33bd 7f73 dbbc ed2e 32bd
00000260: ba7f 0e3d d5c5 5bbd 5081 a73c cb20 3e3d
00000270: 7393 c7bd 0e95 cbbd 2144 013a feb6 1bbd
00000280: b09e 023d bbc5 14bc 4e82 183d b9a7 8c3c
00000290: dff7 4a3d 9e6f eb3d e062 353c 9777 2b3b
000002a0: 6895 973d 442c c1b8 8581 bebd e2fc 063e
000002b0: a258 c03d 5208 1d3c 7e82 b1bc f8ef 48bd
000002c0: 0648 26bc a711 45bd 6adb b8bd b028 7abd
000002d0: ad3a 51bd ea5b ce3c d231 d93d 2d5b a6bd
000002e0: 9054 b83c f55c 94bc 7ced 043d 05bb 8c3d
000002f0: 2e8b cb3d e0bf e5bd 25dd 903c 31ea b33c
00000300: f2de 7e3d 7a63 b0ba fe88 cf3d d566 89bd
00000310: c5fc 813d c4da 21bd 9603 c43a 7f96 d53c
00000320: 9c95 8fbd 18ae 663d 72fd 203d 1bad 18bb
00000330: 26da 20bd e535 48be 8390 38bd 5429 b63c
00000340: 4ea0 1fbe 1455 0abe f0ef bebc 774c b63d
00000350: d6cd debc 45ba f6bd cd83 b4bd fb45 c63d
00000360: 177c b03d 6d86 a0bc a5a5 33bd e75b 12bd
00000370: 861c 16be 208b 473d 000f bb3d 168b df3c
00000380: 03d9 003c 5e01 25be 3c72 913a 8dd2 cc3b
00000390: 3ac9 f7bd 1d85 fabc 8fad b33d 0abd 3e3d
000003a0: d75d c9bd e3a5 433e 5e81 53bc 9920 d2bd
000003b0: 1292 cabd 06c8 b4bc 9d13 023d 87e8 59be
000003c0: e24e 043e b5b0 7a3d 17ef 843d 6384 2abc
000003d0: 9079 9b3c 9533 70bd 6d03 433d 543b c73d
000003e0: c2c1 a03d bb38 b43d 391a 11be 607a 8abd
000003f0: 024b a6bd 6ad8 323d 4ed0 acba 5b5c f4bd

convs.0.bias f4 [128]
-0.00044466494 0.038344856 -0.00353482 -0.0022587022 -0.005333092 -0.07518658 -0.0028262238 0.05478149
-0.02041057 -0.00819131 -0.03676226 -0.09476544 -0.03715051 -0.089615166 -0.05533713 -0.0025018658
0.0025701004 -0.14901169 -0.045485087 0.05210702 0.022608506 0.05572936 -0.008163721 -0.07689732
-0.007271014 -0.087452084 -0.101764716 -0.10533084 -0.089039214 0.03432797 -0.000793596 -0.0003031631
0.016615426 0.023234354 -0.020120667 -0.11376079 -0.000724322 -0.08134429 -0.00029514558 0.023580762
-0.10901242 -0.124992676 -0.015343786 -0.037626334 0.03221943 -0.016457561 -0.0058025066 -0.020083966
-0.009652498 -0.00059292914 0.01732782 -0.04743596 -0.00019813665 -0.011204293 -0.019910304 -0.02359148
-0.0059564766 -0.0033714133 -0.12444981 0.020187043 -0.10302365 0.03194322 -0.004695897 -0.0005622044
-0.068598986 -0.13994114 -0.07058445 -0.037217945 -0.09366006 -0.070085905 0.012311755 -0.093022704
-0.0007766277 -0.08707815 0.042902447 0.028577158 -0.060065154 -0.087378055 -0.0072483527 -0.0007400079
-0.022530284 0.0246441 0.0012420265 -0.018949445 -0.05251924 -0.043438897 0.006042622 -0.0056843646
-0.00017691463 -0.122900635 -0.07012632 -0.000102383834 -0.037059344 0.0247466 -0.00014500879 -0.06786709
-0.05346944 -0.12231102 -0.02705023 -0.0024024036 -0.087893516 0.07378213 -0.024905704 -0.0105270045
-0.0832634 -0.020907002 -7.171933e-05 -0.09123811 -0.018105995 -0.047192074 -0.03301907 -0.0002688458
-0.0005716868 -0.0028447818 -0.12543863 -0.08994122 -0.00453869 0.009864679 -0.0003456946 -0.024314182
-0.017499322 0.04340514 -0.1106732 0.07383364 -0.023904817 0.038815204 -0.069225885 -0.10175904
00000000: eb21 e9b9 7f0f 1d3d 70a8 67bb bc06 14bb
00000010: 38c1 aebb 6cfb 99bd 2b38 39bb 8e62 603d
00000020: 1134 a7bc d834 06bc 0694 16bd 6214 c2bd
00000030: 222b 18bd 2888 b7bd 30a9 62bd 58f6 23bb
00000040: 216f 283b 8596 18be 924e 3abd 2c6e 553d
00000050: 7935 b93c 7844 643d 21c1 05bc 587c 9dbd
00000060: b041 eebb 141a b3bd 056a d0bd b2b7 d7bd
00000070: 315a b6bd 7c9b 0c3d 5309 50ba ddf1 9eb9
00000080: 131d 883c f955 be3c 19d4 a4bc 6bfb e8bd
00000090: 6de0 3dba d697 a6bd c5bd 9ab9 712c c13c
000000a0: e741 dfbd 29fc ffbd 8164 7bbc 121e 1abd
000000b0: 85f8 033d 02d2 86bc f422 bebb 2187 a4bc
000000c0: 8325 1ebc cd6e 1bba 13f3 8d3c 364c 42bd
000000d0: e7c2 4fb9 3692 37bc ef1a a3bc eb42 c1bc
000000e0: 8c2e c3bb eef2 5cbb 8bdf febd 4c5f a53c
000000f0: 10fe d2bd e5d6 023d 0ae0 99bb e660 13ba
00000100: a07d 8cbd bb4c 0fbe 958e 90bd d871 18bd
00000110: d8d0 bfbd 3389 8fbd 3eb7 493c b082 bebd
00000120: 9a96 4bba 0756 b2bd 7aba 2f3d a51a ea3c
00000130: e106 76bd 44f3 b2bd 9783 edbb 17fd 41ba
00000140: 6e91 b8bc 6ce2 c93c 7ecb a23a de3b 9bbc
00000150: 6a1e 57bd fcec 31bd 3001 c63b e843 babb
00000160: 2982 39b9 54b3 fbbd 639e 8fbd e7b6 d6b8
00000170: 8acb 17bd 62b9 ca3c 800d 18b9 e7fd 8abd
00000180: c602 5bbd 337e fabd 7298 ddbc a571 1dbb
00000190: 8401 b4bd 161b 973d 0c07 ccbc 7579 2cbc
000001a0: 0086 aabd 2945 abbc 0668 96b8 0cdb babd
000001b0: 0653 94bc 7a4c 41bd 013f 07bd dff3 8cb9
000001c0: 40dd 15ba 856f 3abb fc72 00be 1a33 b8bd
000001d0: 4bb9 94bb 769f 213c 583e b5b9 892e c7bc
000001e0: bd5a 8fbc 97c9 313d a1a8 e2bd 1736 973d
000001f0: 09d4 c3bc b1fc 1e3d 4dc6 8dbd 0b67 d0bd

convs.1.weight f4 [128, 20, 9]
-0.03885396 -0.044610374 -0.0660194 0.0050178943 0.032266047 -0.015485549 -0.090072885 -0.07787091
0.011046804 -0.07385627 -0.1744241 0.01579081 0.02770007 -0.05899986 0.02378742 -0.048712805
0.0057407287 -0.097588785 0.08981837 0.0028382323 -0.012733838 -0.09784747 -0.06457145 -0.0076700496
-0.03369992 -0.042110953 -0.16394673 0.06916529 -0.16250655 -0.037368875 -0.15746897 -0.03427128
-0.02462287 -0.08148333 -0.055517327 -0.13288282 0.0362443 -0.117495336 0.055096127 -0.01858102
-0.06336199 0.0010436455 0.07382261 -0.08937812 0.015671503 -0.07898681 -0.050169457 0.025924543
-0.05776798 -0.062005542 -0.0015532833 -0.08368019 -0.098316394 -0.09760567 -0.06495287 -0.03559459
-0.0791272 -0.13422194 -0.15738009 -0.044781927 -0.1634251 -0.12345104 -0.114733696 -0.046708353
0.02707509 0.009932517 -0.085727826 0.092709914 -0.096147075 0.05416631 -0.016012087 -0.1256666
-0.0064441566 -0.02449322 0.0019221643 -0.06215704 -0.05337997 -0.012994957 -0.09985616 -0.050230894
-0.12429532 0.08270598 -0.09593288 0.0820443 0.06863475 -0.02965783 0.06142547 -0.02754465
0.008631094 -0.051169507 0.023671137 0.024653153 0.0970284 -0.011172294 -0.029573597 0.09361455
-0.080050446 0.01911454 -0.020972298 -0.04984496 -0.047571182 -0.070593156 -0.035655584 -0.033736426
-0.011152453 -0.08220351 -0.10120142 -0.10523003 0.02555034 -0.08652007 0.020094246 -0.097633384
0.06915459 0.09004558 -0.09340026 0.05318813 -0.082850106 -0.054142427 -0.039051343 0.11218907
-0.09626053 -0.023828983 -0.017575508 0.07382337 0.039091904 -0.10575308 -0.14546108 0.0026132413
0.119496964 -0.035667922 0.0046996204 -0.045863423 0.075397424 -0.16811723 0.079587996 0.008314551
0.061229374 -0.046707094 -0.04231792 -0.072827846 -0.061119903 0.095018685 0.0077860574 -0.003235794
0.059439797 0.057103477 -0.019994339 -0.0013962613 -0.1511582 0.014269713 -0.028410478 -0.010575966
0.05317853 -0.15276836 -0.11356494 0.11254085 -0.06047606 0.00046407123 0.13759302 0.10208242
0.0015951366 -0.025189502 0.004113878 -0.019922812 0.10549432 0.053896755 -0.030140877 -0.083040684
-0.029174242 0.008891756 -0.17434944 0.122181356 -0.036741607 0.06365973 0.027998086 -0.060915466
-0.0010353219 -0.045042645 -0.07157929 0.014846964 0.01769929 -0.14911892 0.06770938 -0.13842268
0.01429692 -0.024192045 -0.22298661 -0.016341671 -0.12258874 0.047104724 -0.004479571 -0.027473418
-0.17868334 0.11386269 -0.034002326 -0.13693766 0.24194503 0.060945854 -0.15375867 -0.16324136
-0.063004635 -0.06066099 0.159049 0.019835489 -0.036461268 0.1528299 0.06627904 -0.11874437
-0.09426832 -0.017596161 -0.09580081 0.21859491 -0.047415394 0.073282465 0.0246329 0.42395642
0.008846283 0.47673333 0.07447069 -0.19081496 0.11749662 0.076868296 -0.4066515 -0.03902874
0.2488831 -0.031496305 0.00463582 0.12603882 0.11115517 -0.12584165 -0.049477734 0.012678729
0.013524727 -0.11400717 -0.108932324 -0.07068776 0.12897673 -0.19200733 -0.018481908 -0.29659858
0.04249439 -0.032707434 -0.060369086 0.16541412 -0.24921864 0.26697212 0.24897411 -0.033276744
0.21326749 0.23405398 0.03917407 -0.25017482 0.0858809 0.057258565 -0.19619237 -0.15838614
00000000: 5425 1fbd 5eb9 36bd 2e35 87bd 266d a43b
00000010: 6729 043d 1ab7 7dbc 2278 b8bd c97a 9fbd
00000020: a7fd 343c f541 97bd 3b9c 32be bb5b 813c
00000030: 42eb e23c d6a9 71bd d6dd c23c 1487 47bd
00000040: b91c bc3b a1dc c7bd b2f2 b73d a301 3a3b
00000050: 96a1 50bc 4164 c8bd 093e 84bd 0a55 fbbb
00000060: ed08 0abd 897c 2cbd a7e1 27be 88a6 8d3d
00000070: 1e68 26be 1b10 19bd 8c3f 21be 0b60 0cbd
00000080: e7b5 c9bc bbe0 a6bd 2366 63bd 6f12 08be
00000090: e774 143d 65a1 f0bd 7aac 613d 3937 98bc
000000a0: eec3 81bd efca 883a 4f30 973d e00b b7bd
000000b0: 8661 803c d6c3 a1bd 7d7e 4dbd b55f d43c
000000c0: 1e9e 6cbd 86f9 7dbd 8a97 cbba 8560 abbd
000000d0: 1b5a c9bd 7be5 c7bd 0306 85bd a2cb 11bd
000000e0: 710d a2bd 7a71 09be 3f28 21be 416d 37bd
000000f0: e958 27be e6d3 fcbd 80f9 eabd 4251 3fbd
00000100: 94cc dd3c ffbb 223c 1292 afbd b2de bd3d
00000110: c2e8 c4bd 7edd 5d3d c82b 83bc bfae 00be
00000120: 8129 d3bb 01a6 c8bc 22f1 fb3a 6198 7ebd
00000130: f5a4 5abd cde8 54bc 6381 ccbd e9be 4dbd
00000140: 8b8e febd c161 a93d 7578 c4bd d806 a83d
00000150: 6090 8c3d faf4 f2bc 4699 7b3d 51a5 e1bc
00000160: 6f69 0d3c 1e97 51bd f9e9 c13c 69f5 c93c
00000170: d3b6 c63d ff0b 37bc 5444 f2bc fcb8 bf3d
00000180: 7df1 a3bd 1996 9c3c 19ce abbc 3b2a 4cbd
00000190: 00da 42bd 2593 90bd 970b 12bd 352f 0abd
000001a0: c7b8 36bc 505a a8bd b142 cfbd d882 d7bd
000001b0: f24e d13c 6f31 b1bd b09c a43c 03f4 c7bd
000001c0: eca0 8d3d d169 b83d a348 bfbd ccdb 593d
000001d0: 51ad a9bd 73c4 5dbd 4df4 1fbd 62c3 e53d
000001e0: 3e24 c5bd 0035 c3bc 83fa 8fbc b530 973d
000001f0: d51e 203d 1295 d8bd c0f3 14be ea42 2b3b
00000200: d3ba f43d 8718 12bd 46ff 993b 49db 3bbd
00000210: f769 9a3d ec26 2cbe 08ff a23d c139 083c
00000220: a7cb 7a3d f04f 3fbd 8e55 2dbd c426 95bd
00000230: dd58 7abd 2899 c23d 2f22 ff3b 9d0f 54bb
00000240: 2577 733d 56e5 693d 2bcb a3bc c102 b7ba
00000250: 37c9 1abe 84cb 693c 17bd e8bc d146 2dbc
00000260: bbd1 593d 4f6f 1cbe bc94 e8bd d17b e63d
00000270: bfb5 77bd 964e f339 2fe5 0c3e 9610 d13d
00000280: e713 d13a 375a cebc b6cd 863b 2a35 a3bc
00000290: 680d d83d d8c2 5c3d 00ea f6bc 3c11 aabd
000002a0: d2fe eebc baae 113c a988 32be 383a fa3d
000002b0: 5e7e 16bd 0860 823d 3e5c e53c 7f82 79bd
000002c0: a3b3 87ba a37e 38bd 2a98 92bd ae40 733c
000002d0: 1afe 903c a1b2 18be 37ab 8a3d adbe 0dbe
000002e0: a13d 6a3c 652e c6bc 9a56 64be f8de 85bc
000002f0: ce0f fbbd e2f0 403d 5dc9 92bb ef0f e1bc
00000300: c4f8 36be d830 e93d 0646 0bbd 6339 0cbe
00000310: 70c0 773e 5ca2 793d ea72 1dbe be28 27be
00000320: 9308 81bd a977 78bd bedd 223e 097e a23c
00000330: 6958 15bd 717f 1c3e 4ebd 873d 4030 f3bd
00000340: c00f c1bd d325 90bc 3733 c4bd 58d7 5f3e
00000350: a536 42bd 1e15 963d efca c93c d110 d93e
00000360: 00f0 103c 6416 f43e 1784 983d ff64 43be
00000370: 11a2 f03d 206d 9d3d a034 d0be 9adc 1fbd
00000380: 36db 7e3e 4502 01bd 14e8 973b 5210 013e
00000390: 52a5 e33d a2dc 00be 2aa9 4abd 72ba 4f3c
000003a0: d196 5d3c 977c e9bd e917 dfbd bfc4 90bd
000003b0: 7a12 043e 929d 44be 5f67 97bc c5db 97be
000003c0: 990e 2e3d 3bf8 05bd 9345 77bd 5262 293e
000003d0: 2c33 7fbe 92b0 883e 12f3 7e3e 324d 08bd
000003e0: cb62 5a3e d9ab 6f3e fd74 203d ea16 80be
000003f0: 53e2 af3d f587 6a3d a7e6 48be fa2f 22be

convs.1.bias f4 [128]
0.027625635 -0.053548418 -0.030854069 0.0040965476 0.0027335817 -0.0033824095 -0.059902623 0.043250266
-0.0010983438 -0.008639855 -0.05189655 -0.033294752 -0.00034837518 -0.067585796 -0.00024386692 -0.059085216
-0.0016778647 -0.0863194 -0.038142327 0.022436451 0.025157312 0.014438504 -0.19586304 -0.0034168712
-0.050782427 -0.06044924 -0.0050685443 0.0020974965 -0.09849552 -0.04698125 -0.06345788 -0.06625288
0.029063065 0.02938848 -0.0010531431 0.01951666 -0.0009785632 -0.056509133 -0.12792954 -0.0126987565
-0.05227072 -0.050265446 -0.046509184 -0.025188105 -0.0002642371 -0.09210536 -0.00022436933 -0.00014517303
-0.055731002 0.041948825 0.031532016 -0.026884396 -0.0200154 -0.0889877 -0.085271075 -0.043309152
-0.039132856 -0.061358728 -0.056725804 -0.064741775 -0.032962684 -0.030577138 0.062280722 -0.0010503287
-0.09282176 -0.0012621038 -0.052841432 0.008327633 -0.07472089 -0.021114644 -0.10200862 0.020919241
-0.00077509304 -0.024600323 -0.120712064 -0.105931066 -0.05350268 -0.016268581 -0.058236238 -0.004167574
-0.0051634903 -0.0080796955 -0.055432275 -0.080126055 -0.0685716 0.028116044 -0.11223807 -0.13627654
-0.019625409 0.018435406 -0.06840354 -0.0007681241 -0.08837446 0.0065817195 -0.06333639 -0.13288221
-0.01303251 -0.061258115 -0.042219047 -0.0014381993 -0.091571435 -0.028225018 -0.06609646 0.033225782
-0.008155331 0.048967652 -0.059315473 -0.020740537 0.006446467 -0.0022891888 -0.044067193 0.015155076
-0.07742569 0.010879731 -0.006710911 0.012271129 -0.0026736835 -0.03954938 -0.062849574 -0.10117815
-0.008636936 -0.06644102 -0.07940334 -0.028591739 0.013479499 0.03537531 0.0029058964 -0.0099983215
00000000: 284f e23c 9655 5bbd acc1 fcbc 553c 863b
00000010: e425 333b 6aab 5dbb 745c 75bd 3127 313d
00000020: 4df6 8fba 2e8e 0dbc 7a91 54bd 1460 08bd
00000030: 20a6 b6b9 6c6a 8abd 87b6 7fb9 5703 72bd
00000040: cceb dbba 3ac8 b0bd 213b 1cbd a6cc b73c
00000050: b516 ce3c 7a8f 6c3c 5290 48be 96ed 5fbb
00000060: 3c01 50bd 9f99 77bd 0816 a6bb 2776 093b
00000070: 05b8 c9bd 696f 40bd 34f6 81bd 97af 87bd
00000080: aa15 ee3c 1cc0 f03c 9e09 8aba 67e1 9f3c
00000090: 2243 80ba 1f76 67bd f6ff 02be 720e 50bc
000000a0: d319 56bd 24e3 4dbd 6a80 3ebd 4957 cebc
000000b0: 4e89 8ab9 bca1 bcbd af44 6bb9 9739 18b9
000000c0: 3146 64bd 88d2 2b3d b727 013d aa3c dcbc
000000d0: 56f7 a3bc 2f3f b6bd 9aa2 aebd f064 31bd
000000e0: c649 20bd 4a53 7bbd 5159 68bd 5697 84bd
000000f0: e103 07bd e87c fabc 121a 7f3d 2fab 89ba
00000100: 5619 bebd 2d6d a5ba 4270 58bd a070 083c
00000110: 4407 99bd 9ef8 acbc e5e9 d0bd d45e ab3c
00000120: 9d2f 4bba 9e86 c9bc e337 f7bd 63f2 d8bd
00000130: a025 5bbd b045 85bc 1f89 6ebd 2590 88bb
00000140: 7f32 a9bb b360 04bc f40c 63bd 2119 a4bd
00000150: 446f 8cbd 9e53 e63c 13dd e5bd 148c 0bbe
00000160: 77c5 a0bc d905 973c 2817 8cbd f05b 49ba
00000170: abfd b4bd 77ab d73b 82b6 81bd 4612 08be
00000180: 4f86 55bc cae9 7abd e1ed 2cbd f681 bcba
00000190: ce89 bbbd 2738 e7bc 955d 87bd c217 083d
000001a0: f09d 05bc 4e92 483d c8f4 72bd 0fe8 a9bc
000001b0: e23c d33b 3706 16bb cd7f 34bd ff4c 783c
000001c0: 5c91 9ebd e640 323c 34e7 dbbb d80c 493c
000001d0: f738 2fbb 88fe 21bd 47b7 80bd 7d36 cfbd
000001e0: ef81 0dbc 3b12 88bd 389e a2bd 3939 eabc
000001f0: 1ed9 5c3c b3e5 103d da70 3e3b 00d0 23bc

convs.2.weight f4 [128, 20, 13]
-0.18845332 -0.096464336 0.021732925 -0.062006533 -0.08011396 -0.07486353 -0.017867608 -0.088504404
-0.0765523 -0.022794237 0.10698122 0.14730753 -0.22735369 -0.16686097 -0.12943786 0.024984458
-0.071199976 0.09074534 -0.051683433 0.08048814 0.16077864 0.039303716 0.033819452 0.013832509
-0.13171601 0.11189801 -0.2322272 -0.12819298 0.00077795686 -0.07688954 -0.02387224 0.21546973
-0.039873797 -0.009507116 0.18783064 -0.024264887 0.0021377201 0.055007856 0.0755265 -0.16770242
0.12465336 -0.179753 -0.08050082 -0.14444038 -0.020306814 -0.03258646 -0.07884276 -0.1070382
-0.159089 -0.35350496 -0.10033063 0.15885942 -0.10233771 -0.08133053 -0.09698295 -0.07612826
-0.031914797 0.29524848 0.19544823 -0.24569356 0.11247551 -0.19777226 0.038539145 0.29220003
0.022321042 -0.017367158 0.10775025 -0.112420976 -0.10376392 -0.18325993 -0.04258689 0.06306385
0.09367175 -0.034495417 8.4980384e-05 0.1829723 0.031133635 -0.07136152 0.016376276 0.07616733
-0.28568637 -0.054196104 -0.36568004 -0.06516992 0.09899037 -0.028079126 -0.1729366 -0.0020549486
-0.022046011 -0.120690554 -0.015671294 -0.2079235 0.041216705 -0.37398127 0.1336346 0.12667298
-0.13303432 0.07929047 -0.10746926 -0.005543247 0.032547522 -0.020176856 0.126717 -0.030457398
-0.06477548 -0.14823163 0.24400587 -0.026004193 -0.22799973 -0.06659918 0.06524719 0.007924478
0.11017379 -0.16500117 0.1809898 0.11290676 -0.14867854 0.11424482 0.05924635 -0.13029549
-0.2645801 -0.030508054 0.029713562 0.021854322 -0.14467324 0.003409543 0.080470935 0.20310257
-0.08161802 -0.402466 0.06813362 -0.03482152 -0.07413022 -0.13277839 -0.15671419 0.21868806
-0.18485966 0.043727107 0.13803975 0.007408167 0.1722983 0.03236575 -0.17927982 -0.05653936
0.07303792 0.04273202 0.1033911 -0.035479777 -0.09251296 -0.026281683 0.09199273 -0.1664679
-0.06274392 -0.038166508 -0.108807035 0.022716181 -0.08900923 -0.08811154 -0.19411764 -0.043455113
-0.17598347 0.08329889 0.04225017 0.032779343 0.13040696 0.09804419 0.08668566 0.05601036
-0.26398858 -0.15083535 0.0190704 0.055760026 -0.09394156 -0.17970452 0.032552242 0.01647975
-0.04149701 0.17569113 -0.18230878 0.1419079 -0.11228338 -0.32486197 0.05159599 -0.25616148
0.08784631 0.09928221 -0.20837425 -0.038828768 0.01837894 -0.2665545 0.07575622 0.116168804
-0.28244007 -0.043018077 0.15635909 -0.07498724 0.045030206 -0.13127063 -0.086890355 0.011247909
-0.087594524 0.101804204 -0.16354364 0.13523881 0.0160561 -0.06669568 0.11722103 -0.19980025
0.011535799 0.034087185 -0.16608663 -0.05068502 0.14792724 0.14826174 -0.03327195 -0.043751407
0.06276773 -0.026366452 -0.088387005 -0.11862346 -0.15554412 0.12061985 -0.15945482 0.07402643
-0.119316906 -0.18541686 -0.09769972 -0.37914622 -0.19376668 0.057788063 0.1160271 0.19722389
-0.11921181 -0.0580536 -0.18206055 -0.17582862 0.15004818 -0.11277322 -0.2981761 0.061377216
-0.25475737 -0.10956292 0.13099048 -0.057571102 0.107378244 -0.057424378 -0.1835314 0.1723091
0.025752077 -0.0800002 -0.23260286 -0.10378145 0.13094693 0.0641533 -0.2682015 0.09150733
00000000: e8f9 40be 188f c5bd 3f09 b23c 90fa 7dbd
00000010: ca12 a4bd 0d52 99bd 175f 92bc cc41 b5bd
00000020: 74c7 9cbd fbba babc f818 db3d c9d7 163e
00000030: 68cf 68be 9add 2abe 5c8b 04be 35ac cc3c
00000040: 4bd1 91bd b1d8 b93d 02b2 53bd f7d6 a43d
00000050: 28a3 243e effc 203d 4486 0a3d bfa1 623c
00000060: 90e0 06be c92a e53d f8cc 6dbe 0545 03be
00000070: cdef 4b3a 4378 9dbd b78f c3bc 19a4 5c3e
00000080: b552 23bd bcc3 1bbc ad56 403e 28c7 c6bc
00000090: fe18 0c3b eb4f 613d a3ad 9a3d 2fba 2bbe
000000a0: 434a ff3d 2c11 38be 9ddd a4bd 2ee8 13be
000000b0: 7a5a a6bc 6179 05bd 5078 a1bd d836 dbbd
000000c0: 3ae8 22be 9afe b4be 257a cdbd 0bac 223e
000000d0: 6f96 d1bd 9f90 a6bd ff9e c6bd 22e9 9bbd
000000e0: 17b9 02bd cf2a 973e 9523 483e 1897 7bbe
000000f0: 8f59 e63d d084 4abe 39db 1d3d 3e9b 953e
00000100: 9eda b63c 9245 8ebc 2aac dc3d f83c e6bd
00000110: 2e82 d4bd 7ea8 3bbe 976f 2ebd 9f27 813d
00000120: f9d6 bf3d 114b 0dbd 7f37 b238 175d 3b3e
00000130: f70b ff3c fd25 92bd 8a27 863c 9efd 9b3d
00000140: 7c45 92be bcfc 5dbd 6a3a bbbe cf77 85bd
00000150: 77bb ca3d 3206 e6bc 4b16 31be 51ac 06bb
00000160: d699 b4bc 9c2c f7bd 1661 80bc e6e9 54be
00000170: d9d2 283d 797a bfbe 82d7 083e 90b6 013e
00000180: 263a 08be 0b63 a23d d818 dcbd 20a4 b5bb
00000190: 8d50 053d ef49 a5bc 1ac2 013e cb81 f9bc
000001a0: 02a9 84bd 08ca 17be addc 793e bf06 d5bc
000001b0: c378 69be 2765 88bd 52a0 853d abd5 013c
000001c0: cca2 e13d 11f6 28be 6455 393e a93b e73d
000001d0: 303f 18be 30f9 e93d 4dac 723d 2e6c 05be
000001e0: 0b77 87be 07ec f9bc db69 f33c d607 b33c
000001f0: 3925 14be a472 5f3b f2cd a43d 1ffa 4f3e
00000200: 5927 a7bd 0610 cebe a489 8b3d 03a1 0ebd
00000210: 96d1 97bd 0ff7 07be af79 20be c3ef 5f3e
00000220: da4b 3dbe 321b 333d 4b5a 0d3e 35c0 f23b
00000230: f76e 303e f391 043d 2195 37be d195 67bd
00000240: e894 953d c507 2f3d b7be d33d 3e53 11bd
00000250: 6f77 bdbd af4c d7bc af66 bc3d 9076 2abe
00000260: e27f 80bd 7c54 1cbd 39d6 debd 4917 ba3c
00000270: 794a b6bd d373 b4bd c6c6 46be fdfd 31bd
00000280: 0335 34be 9c98 aa3d 840e 2d3d a243 063d
00000290: 6789 053e 64cb c83d 4088 b13d 1f6b 653d
000002a0: 8329 87be 9574 1abe 8739 9c3c a064 643d
000002b0: 6f64 c0bd 7604 38be 8055 053d 8a00 873c
000002c0: c5f8 29bd 60e8 333e 27af 3abe 4e50 113e
000002d0: d4f4 e5bd 4f54 a6be 5156 533d 9927 83be
000002e0: c4e8 b33d 7954 cb3d 0f60 55be ea0a 1fbd
000002f0: 6e8f 963c d579 88be 1426 9b3d e9e9 ed3d
00000300: fc9b 90be b933 30bd 991c 203e e992 99bd
00000310: 9871 383d cf6b 06be 92f3 b1bd 2649 383c
00000320: c264 b3bd b97e d03d fc77 27be 0b7c 0a3e
00000330: 1588 833c bf97 88bd 9411 f03d 7098 4cbe
00000340: a600 3d3c 019f 0b3d 9d12 2abe 189b 4fbd
00000350: 3d7a 173e edd1 173e 2b48 08bd ad34 33bd
00000360: 5e8c 803d 75fe d7bc 3f04 b5bd dbf0 f2bd
00000370: f546 1fbe 8a07 f73d 2048 23be 2b9b 973d
00000380: 6c5c f4bd ebdd 3dbe ca16 c8bd 741f c2be
00000390: c66a 46be 2db3 6c3d 9e9f ed3d 0ff5 493e
000003a0: 5225 f4bd 9dc9 6dbd 156e 3abe 6b0c 34be
000003b0: 3ba6 193e a5f5 e6bd 8aaa 98be ad66 7b3d
000003c0: 8f6f 82be 8662 e0bd 5e22 063e adcf 6bbd
000003d0: 20e9 db3d d335 6bbd a8ef 3bbe cc71 303e
000003e0: 05f6 d23c 25d7 a3bd 722f 6ebe 5e8b d4bd
000003f0: f416 063e ce62 833d b551 89be 3268 bb3d

convs.2.bias f4 [128]
-0.027610699 0.020899877 0.007778948 0.03654758 -0.0014665882 -0.033186372 -0.08105733 -0.047516216
-0.03349917 -0.023989268 -0.0718848 -0.0054350286 -0.0059381784 0.020797946 0.040926434 0.033655446
-0.07042401 0.020917274 0.05930527 -0.0019187136 -0.08742878 -0.00072846614 -0.0044389386 -0.027499784
-0.0005319347 -0.001986202 -0.18707834 -0.02329324 -0.072546855 -0.030234216 -0.00012695778 -0.025858572
-0.013892506 -0.00043009073 -0.17101587 0.0038860536 -0.003520559 -0.044636015 -0.00599971 -0.085112154
-0.014435353 -0.0011325532 -0.0058348356 -0.013628413 -0.03560303 -0.19955909 -0.02131969 -0.064174354
0.02935697 -0.0044121686 0.005343696 -0.0005187968 -0.07720894 -0.065289475 0.017995724 -0.006396456
-0.0009596863 -0.050134458 0.009735311 -0.006819093 -0.04849392 -0.036306575 -0.07927041 0.014727133
-0.023495447 -0.040161207 -0.052100632 -0.10545728 -0.009427746 0.036756374 0.014347637 -0.07403933
-0.050768036 -0.0039705876 -0.012755774 -0.016934803 -0.06813911 -0.0007535298 -0.038507175 -0.06395898
-0.038248144 -0.0065829433 0.0043174494 -0.008558233 -0.019807708 -0.0008425196 -0.0055807694 0.04293
0.039303012 -0.005122139 -0.049097206 -0.0040736087 -0.06825572 -0.07009275 -0.04854693 -0.001030867
-0.0062828744 -0.02362451 0.00467918 -0.04266614 -0.00045943572 0.0209014 -0.014257407 0.024781356
-0.0068755173 0.022903204 0.06742008 -0.013095134 -0.06275357 -0.05389171 -0.07460976 -0.050566815
-0.10045417 -0.10005325 -0.004928584 0.004655298 -0.00017637048 -0.0017507062 -0.033875015 -0.05155061
0.011943939 -0.048515484 0.020307185 -0.0035897647 -0.061769843 -0.0066849506 0.013924872 -0.00302695
00000000: d52f e2bc 3836 ab3c 8ce6 fe3b eab2 153d
00000010: 893a c0ba 6fee 07bd 6301 a6bd 5da0 42bd
00000020: 6d36 09bd 2485 c4bc 5738 93bd 5318 b2bb
00000030: 0d95 c2bb 7460 aa3c 7aa2 273d 4bda 093d
00000040: 773a 90bd b45a ab3c 15ea 723d 587d fbba
00000050: dc0d b3bd 89f6 3eba 8474 91bb 3a47 e1bc
00000060: 8971 0bba f12a 02bb 7791 3fbe 77d1 bebc
00000070: 7293 94bd bfad f7bc f81f 05b9 5bd5 d3bc
00000080: 659d 63bc cd7d e1b9 c91e 2fbe 29ad 7e3b
00000090: 2eb9 66bb 41d4 36bd 3799 c4bb 484f aebd
000000a0: 4282 6cbc 2e72 94ba 2632 bfbb b549 5fbc
000000b0: 7cd4 11bd 3859 4cbe a1a6 aebc d86d 83bd
000000c0: 077e f03c f493 90bb 2c1a af3b ddff 07ba
000000d0: b91f 9ebd 7db6 85bd c56b 933c 5d99 d1bb
000000e0: 7593 7bba ca59 4dbd db80 1f3c b372 dfbb
000000f0: 90a1 46bd 34b6 14bd 8658 a2bd 134a 713c
00000100: 8679 c0bc 1480 24bd 7967 55bd fdf9 d7bd
00000110: d576 1abc da8d 163d 5a12 6b3c efa1 97bd
00000120: 25f2 4fbd b41b 82bb 98fd 50bc dbba 8abc
00000130: 858c 8bbd 8788 45ba b3b9 1dbd edfc 82bd
00000140: 16aa 1cbd bbb5 d7bb 6479 8d3b d537 0cbc
00000150: c643 a2bc 89dc 5cba e3de b6bb 5ed7 2f3d
00000160: 32fc 203d 9ed7 a7bb 271a 49bd e87b 85bb
00000170: a8c9 8bbd ca8c 8fbd 25d9 46bd 281e 87ba
00000180: 92e0 cdbb 3088 c1bc cf53 993b b1c2 2ebd
00000190: 6be0 f0b9 6a39 ab3c e697 69bc 4502 cb3c
000001a0: 054c e1bb 809f bb3c 8a13 8a3d f98c 56bc
000001b0: f284 80bd 8ebd 5cbd 00cd 98bd 261f 4fbd
000001c0: eaba cdbd b8e8 ccbd f67f a1bb 788b 983b
000001d0: 17f0 38b9 f477 e5ba 87c0 0abd bc26 53bd
000001e0: 83b0 433c 2cb8 46bd 415b a63c 4242 6bbb
000001f0: 6002 7dbd 6e0d dbbb 2525 643c cb5f 46bb

decoder.0.weight f4 [1, 384]
0.64650637 -0.028066332 0.048931353 -0.057588626 1.3776662 -0.033543255 0.090155035 -0.12255261
-0.99087197 -0.04076402 0.10585126 0.8856665 -0.37785783 -0.40625453 0.42586115 0.37376595
-0.09140934 -0.08746393 -0.28497738 0.1578636 -0.09189718 0.17512143 -0.08678376 -0.08276383
0.07207692 -0.2915667 -0.3484676 -0.30531168 -0.29128715 -0.32448274 0.2957234 0.4336458
-0.057660975 0.058177285 0.1878605 -0.52973 0.2155106 -0.107039295 0.16496694 0.104654856
-0.14057057 -0.25361294 -0.0865739 0.15875785 -0.21480188 -0.14482841 0.5674831 -0.054040752
0.5400641 0.6711705 0.10132117 -0.14794935 0.5621522 -0.68927366 0.8038825 0.33751637
0.10180573 0.66565275 -0.73318547 -0.09467435 -0.19851209 -0.10681558 0.70898193 0.30371904
0.52509737 0.06513209 0.2863207 0.15402912 0.22990938 0.074089214 -0.27719223 -0.74202865
-0.2635491 0.20821153 0.041145045 0.121861175 0.08910413 -0.1579527 -0.09215305 -0.09897502
0.065276206 0.31828755 0.28377277 -0.10661024 0.13345301 0.15239911 -0.13757399 0.1304135
0.1371899 -0.29701713 -0.0805759 0.23800072 0.11891249 0.08089887 0.1579695 0.12052109
0.26829487 0.24834096 0.20748658 -0.06605426 0.055482782 0.11967108 -0.07455808 0.03121846
-0.13519725 0.096880555 0.2437744 -0.15946437 -0.4512057 -0.13072522 0.15422986 0.4763288
0.499665 -0.042508904 0.61574167 0.4938229 -0.1420473 0.06998758 0.21229121 0.07056937
-0.07609901 -0.059872814 -0.17353955 0.1908941 0.41879883 0.095017985 0.3097488 0.07887159
-0.07891186 -0.35293192 0.3580353 -0.17860357 -0.20318313 0.13530733 0.10214734 0.31274045
0.4504308 0.53608614 -0.19975917 0.26614308 0.21367882 -0.0050546736 1.1003488 -0.26842585
0.22577071 0.07284864 -0.74416804 0.16033518 -0.44700778 -0.2598619 -0.18127415 0.24513057
0.14234644 0.14177741 -0.09518849 -0.11382251 0.2793849 0.24333811 0.39256066 -0.604773
-0.6211226 -0.1487731 -0.4828781 0.23975036 0.23095141 0.46294168 -0.08878772 0.22679208
-0.3129933 0.22253622 0.16550803 -0.8005623 -0.0008981916 -0.12604205 -0.012300079 0.09248709
0.588767 -0.17688066 -0.15580261 -0.14227465 -0.14431453 0.20129703 -0.11759849 -0.054982405
-0.12789199 0.0063379533 0.5414625 -0.8090312 -0.1880016 -0.7639141 -0.22542633 -0.18972768
-0.25735608 -0.6407179 0.32271957 -0.58272266 -0.59888303 -0.77662873 0.21078849 -0.42774242
-0.36129364 -0.8880137 -0.15947127 -0.10605363 0.40084898 0.5252232 -0.009249956 -0.09176452
-0.41767278 0.121105365 -0.3464276 0.6875075 0.00095525454 0.13821593 -0.1227747 -0.6941115
-0.42808992 -0.24663694 -0.855347 0.35542437 -0.16517474 -0.21794513 0.22442022 -0.91290647
0.41277215 -0.6548065 0.5252877 0.092586786 -0.22879744 -0.26009694 1.0724902 0.08157233
0.64747053 0.21125372 0.078682445 0.62821996 -0.10255838 0.34443218 -0.5555475 -0.25511265
-0.22979648 0.11724154 0.04170691 0.21556197 -0.3142742 -0.33343932 -0.03203514 -0.65668225
0.08423793 -0.7209674 -0.708761 -0.8196578 -0.1893401 -0.27958652 0.4781556 0.31332237
00000000: 7181 253f 5deb e5bc 3e6c 483d 0de2 6bbd
00000010: 5e57 b03f a764 09bd 34a3 b83d ddfc fabd
00000020: c9a9 7dbf 2cf8 26bd 8cc8 d83d 0abb 623f
00000030: 9576 c1be 9800 d0be 790a da3e 405e bf3e
00000040: d234 bbbd 4a20 b3bd 8ee8 91be ffa6 213e
00000050: 9734 bcbd 0853 333e afbb b1bd 1580 a9bd
00000060: 109d 933d 3b48 95be 586a b2be d051 9cbe
00000070: 9723 95be 9a22 a6be 0f69 973e d306 de3e
00000080: ea2d 6cbd 4e4b 6e3d 815e 403e 639c 07bf
00000090: d0ae 5c3e 6b37 dbbd 18ed 283e 4955 d63d
000000a0: bbf1 0fbe 8ed9 81be a84d b1bd 6b91 223e
000000b0: 06f5 5bbe e64d 14be 9346 113f d659 5dbd
000000c0: a441 0a3f d4d1 2b3f 7981 cf3d 0980 17be
000000d0: 35e9 0f3f 3d74 30bf 3ecb 4d3f f2ce ac3e
000000e0: 867f d03d 3868 2a3f 0bb2 3bbf a0e4 c1bd
000000f0: c146 4bbe 20c2 dabd d77f 353f 1081 9b3e
00000100: c86c 063f f963 853d a098 923e cfb9 1d3e
00000110: 5d6d 6b3e 16bc 973d 24ec 8dbe 97f5 3dbf
00000120: e8ef 86be 6735 553e b587 283d 5a92 f93d
00000130: 3a7c b63d 5abe 21be bdba bcbd 6ab3 cabd
00000140: 88af 853d 96f6 a23e aa4a 913e 7856 dabd
00000150: e8a7 083e 830e 1c3e 32e0 0cbe 1e8b 053e
00000160: 827b 0c3e a112 98be fa04 a5bd 76b6 733e
00000170: 6488 f33d 4fae a53d c2c2 213e c3d3 f63d
00000180: f25d 893e 184d 7e3e 5d77 543e 7547 87bd
00000190: ea41 633d 1c16 f53d e8b1 98bd dbbd ff3c
000001a0: 2671 0abe 5069 c63d ff9f 793e a14a 23be
000001b0: 6f04 e7be d5dc 05be 6fee 1d3e 5ee1 f33e
000001c0: 17d4 ff3e d11d 2ebd 3fa1 1d3f 5bd6 fc3e
000001d0: d974 11be a655 8f3d de62 593e ad86 903d
000001e0: ccd9 9bbd 323d 75bd 5ab4 31be be79 433e
000001f0: cd6c d63e ca98 c23d 6597 9e3e 6e87 a13d
00000200: 8b9c a1bd 7eb3 b4be 6750 b73e dbe3 36be
00000210: 3d0f 50be 018e 0a3e a032 d13d 841f a03e
00000220: de9e e63e f13c 093f ab8d 4cbe e843 883e
00000230: 9fce 5a3e ada1 a5bb 3bd8 8c3f 1d6f 89be
00000240: 7030 673e ab31 953d cc81 3ebf e82e 243e
00000250: 34de e4be 9e0c 85be ee9f 39be 8203 7b3e
00000260: 44c3 113e 192e 113e 2ff2 c2bd c71b e9bd
00000270: 8a0b 8f3e a02d 793e b6fd c83e 67d2 1abf
00000280: e401 1fbf fa57 18be cc3b f7be 1e81 753e
00000290: 877e 6c3e b106 ed3e 56d6 b5bd 2f3c 683e
000002a0: a840 a0be 89e0 633e f07a 293e a7f1 4cbf
000002b0: 9e74 6bba 2b11 01be 4586 49bc df69 bd3d
000002c0: 6fb9 163f 3420 35be b88a 1fbe 72b0 11be
000002d0: 30c7 13be cf20 4e3e 7ad7 f0bd 3b35 61bd
000002e0: 1ef6 02be 9bae cf3b 499d 0a3f ab1c 4fbf
000002f0: 7e83 40be e08f 43bf 29d6 66be f947 42be
00000300: 2dc4 83be 1706 24bf 803b a53e 502d 15bf
00000310: 6650 19bf 24d1 46bf f0d8 573e 0e01 dbbe
00000320: 7bfb b8be de54 63bf 704c 23be a532 d9bd
00000330: 143c cd3e 0775 063f 218d 17bc 09ef bbbd
00000340: 35d9 d5be 1706 f83d f55e b1be 7e00 303f
00000350: 0c6a 7a3a 7a88 0d3e 4d71 fbbd 4bb1 31bf
00000360: 9a2e dbbe 658e 7cbe 05f8 5abf 2ffa b53e
00000370: 9123 29be 022d 5fbe 6ace 653e 3db4 69bf
00000380: df56 d33e 66a1 27bf 4179 063f 249e bd3d
00000390: e049 6abe 6d2b 85be 5c47 893f 650f a73d
000003a0: a1c0 253f e552 583e 4324 a13d 06d3 203f
000003b0: 210a d2bd 6a59 b03e 5c38 0ebf 209e 82be
000003c0: c54f 6bbe 551c f03d ddd4 2a3d 47bc 5c3e
000003d0: 8ce8 a0be 8fb8 aabe 4737 03bd 541c 28bf
000003e0: f084 ac3d 5291 38bf 5c71 35bf 18d5 51bf
000003f0: 5fe2 41be f725 8fbe d0d0 f43e ca6b a03e
