saved_models/model_05.pkl (torch_old, 281078 bytes, 7 tensors)

convs.0.weight f4 [128, 20, 5]
-0.20301512 -0.5135913 0.052169546 -0.07971233 0.2460916 -0.17165439 0.2519485 0.016756175
-0.20303747 -0.3272867 -0.16104129 0.11439363 -0.20060486 0.27795213 -0.003004463 0.17854197
0.0036071176 -0.41776222 -0.07692431 -0.40533674 -0.080394104 -0.051797256 0.42995435 -0.047360584
0.21880935 -0.16399972 -0.15800232 -0.009303033 -0.07562989 0.10485413 0.18070024 -0.20501386
-0.3204098 -0.17169438 -0.14190349 -0.3800874 -0.2562539 -0.18983118 -0.083532356 0.38117668
-0.07341866 -0.016660003 0.094317526 -0.21873006 -0.049508415 -0.22661005 -0.32855907 0.040622614
0.15938783 0.06609585 -0.12102855 0.0869802 0.034916688 0.0784125 -0.22329643 -0.15593821
0.15254855 0.023309153 -0.21977474 -0.07184986 -0.05267685 0.036237925 -0.12182346 0.15265402
-0.16099517 0.18041399 -0.3076774 -0.16178496 0.03499335 -0.33018297 0.15843615 0.1504321
-0.11267004 -0.10611891 -0.33497098 0.05893086 -0.16119362 -0.116104476 -0.0006056313 0.13114437
-0.22995886 -0.25314438 -0.010119997 -0.13039602 0.00027416492 -0.08688658 -0.36906657 -0.5785664
-0.1581955 -0.20833763 0.082267076 -0.09095704 0.017703457 -0.055493224 -0.07312522 -0.22759865
-0.3756087 0.026032189 0.04289795 -0.068051636 -0.05396745 0.14681593 0.11783056 0.06962873
-0.02105497 0.14519678 0.10591661 0.035197906 0.03972953 0.23449224 -0.1659199 0.021843748
0.1210142 -0.14347745 -0.03674077 0.144115 -0.09538387 0.020181915 -0.25787103 -0.10123867
0.10491099 0.10142821 0.064579464 -0.056857675 -0.13222247 -0.2432714 0.083576575 -0.04017454
-0.099233225 -0.06723741 -0.06876306 -0.11421381 -0.0060133627 -0.020716077 -0.011957901 -0.16877179
0.05610393 0.043890864 -0.115432054 -0.18415752 -0.2270512 0.060748175 0.08907334 0.020514889
-0.15067378 -0.33336455 -0.11671271 0.08467211 0.035996005 -0.16235328 -0.023407796 -0.1890927
0.10271726 -0.063069426 0.009029958 -0.13603067 0.041150562 -0.09186141 0.034644704 0.117433086
-0.0639018 0.081254765 0.063042715 -0.012888203 0.07704893 -0.19530673 -0.07381553 -0.12536564
-0.1761627 -0.040478773 -0.0668127 0.024744844 -0.16156757 -0.22557783 -0.39330804 -0.19122104
0.13611922 0.1340301 0.018863926 -0.2198977 0.024037192 0.07519436 0.035526868 0.0070181927
-0.1710961 -0.07226571 -0.15252163 0.05749445 -0.13927607 -0.24439038 -0.22548258 -0.17426766
-0.12885769 -0.21083888 -0.07952022 -0.3075555 -0.0030875262 -0.019012969 -0.0013276389 -0.19671461
-0.07273461 0.02040448 -0.044738762 -0.06049492 0.033542965 0.075173974 -0.06676786 0.16268948
-0.007566413 0.060702175 -0.15111415 0.0017137667 0.06736243 -0.06435648 -0.11000915 -0.15606926
-0.060522158 0.081768535 -0.123412296 -0.07951167 0.21045285 -0.18403088 0.023127882 -0.12850901
0.09633154 -0.065409206 -0.026025772 -0.0045219236 -0.14609899 0.009215502 -0.04092602 -0.03854234
0.058051314 -0.08073395 -0.09873376 -0.21950841 0.012844068 0.016744874 -0.07812293 -0.07033866
0.09343377 -0.09052423 -0.009245924 -0.10220993 0.018030968 -0.07940282 -0.16768008 -0.15853159
-0.12605838 -0.027200038 -0.090212084 -0.0027621107 -0.1476806 -0.07062455 0.03299177 -0.13195086
00000000: 32e3 4fbe b87a 03bf bcaf 553d 3840 a3bd
00000010: 70ff 7b3e 2bc6 2fbe 65ff 803e 3f44 893c
00000020: 0ee9 4fbe 1f92 a7be 02e8 24be 3547 ea3d
00000030: 5c6b 4dbe be4f 8e3e 86e6 44bb b5d3 363e
00000040: 6465 6c3b eee4 d5be 7e8a 9dbd 4c88 cfbe
00000050: aaa5 a4bd 5c29 54bd fa22 dc3e 2cfd 41bd
00000060: 8f0f 603e 8bef 27be 5ccb 21be c06b 18bc
00000070: d8e3 9abd c3bd d63d 7c09 393e 27ef 51be
00000080: c10c a4be a7d0 2fbe 264f 11be d19a c2be
00000090: b633 83be 1b63 42be 0313 abbd 9729 c33e
000000a0: 865c 96bd 8f7a 88bc 8c29 c13d c6fa 5fbe
000000b0: 56c9 4abd 770c 68be e538 a8be e663 263d
000000c0: 9036 233e 435d 873d d1dd f7bd ad22 b23d
000000d0: cd04 0f3d bc96 a03d d2a7 64be 44ae 1fbe
000000e0: b035 1c3e d6f2 be3c a10c 61be 0526 93bd
000000f0: aec3 57bd 386e 143d 947e f9bd 5651 1c3e
00000100: ebdb 24be 72be 383e e487 9dbe f5aa 25be
00000110: 3055 0f3d be0d a9be 163d 223e df0a 1a3e
00000120: 8dbf e6bd df54 d9bd 5181 abbe 7c61 713d
00000130: f10f 25be 2fc8 edbd 3bc3 1eba b64a 063e
00000140: 567a 6bbe 249c 81be 58ce 25bc 8986 05be
00000150: cbbd 8f39 97f1 b1bd 4bf6 bcbe ed1c 14bf
00000160: 00fe 21be 7656 55be a47b a83d af47 babd
00000170: d706 913c dd4c 63bd adc2 95bd 9f0f 69be
00000180: c94f c0be 7541 d53c c3b5 2f3d a85e 8bbd
00000190: f90c 5dbd ea56 163e 2651 f13d 8299 8e3d
000001a0: 797b acbc 77ae 143e cfea d83d ae2b 103d
000001b0: 6fbb 223d bc1e 703e e8e6 29be a9f1 b23c
000001c0: 4bd6 f73d c1eb 12be 7d7d 16bd e292 133e
000001d0: 9e58 c3bd 8b54 a53c ac07 84be 3856 cfbd
000001e0: 93db d63d 98b9 cf3d 3d42 843d 98e3 68bd
000001f0: 5465 07be 231c 79be 322a ab3d 0f8e 24bd
00000200: ca3a cbbd c4b3 89bd a6d3 8cbd eee8 e9bd
00000210: be0b c5bb c3b4 a9bc 12eb 43bc 83d2 2cbe
00000220: 3ccd 653d e8c6 333d a467 ecbd ca93 3cbe
00000230: 1c80 68be 14d3 783d 156c b63d d70e a83c
00000240: 3a4a 1abe c2ae aabe 1307 efbd 9268 ad3d
00000250: 8c70 133d f03f 26be b5c1 bfbc 84a1 41be
00000260: 6d5d d23d 8b2a 81bd 64f2 133c a04b 0bbe
00000270: 7e8d 283d d621 bcbd 9be7 0d3d c280 f03d
00000280: f2de 82bd e668 a63d 8a1c 813d 0b29 53bc
00000290: d4cb 9d3d 7dfe 47be 992c 97bd da5f 00be
000002a0: ff63 34be 12cd 25bd 19d5 88bd b3b5 ca3c
000002b0: f871 25be e0fd 66be ac5f c9be 73cf 43be
000002c0: d662 0b3e 303f 093e 8588 9a3c dd2c 61be
000002d0: a5e9 c43c 80ff 993d 9f84 113d def8 e53b
000002e0: d133 2fbe 0b00 94bd a12e 1cbe 4d7f 6b3d
000002f0: 639e 0ebe 7941 7abe e8e4 66be 3973 32be
00000300: 45f3 03be 26e6 57be 7fdb a2bd ea77 9dbe
00000310: 1858 4abb 16c1 9bbc 2b04 aeba 8e6f 49be
00000320: e2f5 94bd 4c27 a73c fe3f 37bd 85c9 77bd
00000330: 5964 093d d0f4 993d 96bd 88bd 1298 263e
00000340: acef f7bb d8a2 783d abbd 1abe 78a0 e03a
00000350: 50f5 893d 55cd 83bd 7a4c e1bd 9fd0 1fbe
00000360: 15e6 77bd 4376 a73d 96bf fcbd 04d7 a2bd
00000370: f480 573e 9772 3cbe af76 bd3c de97 03be
00000380: 7849 c53d 43f5 85bd 0034 d5bc a52c 94bb
00000390: f99a 15be 9efc 163c 0ba2 27bd 93de 1dbd
000003a0: 37c7 6d3d d757 a5bd ed34 cabd d0c6 60be
000003b0: ed6f 523c 8c2c 893c eafe 9fbd b70d 90bd
000003c0: 345a bf3d c464 b9bd 377c 17bc 7153 d1bd
000003d0: aeb5 933c f29d a2bd 54b4 2bbe 1b56 22be
000003e0: 7315 01be 9dd2 debc 1dc1 b8bd 8704 35bb
000003f0: 9539 17be 9ba3 90bd 6122 073d 201e 07be

convs.0.bias f4 [128]
-0.03758619 -0.05095309 -0.07622529 -0.07861479 -0.00050584675 -0.114832066 -0.06532937 -0.08163603
-0.15831731 -0.07404598 -0.13408041 -0.12844156 -0.11336353 -0.14187199 -0.040849674 -0.1070004
-0.04508588 -0.11152059 -0.13330922 -0.04047633 -0.062200136 -0.032293204 -0.049854655 -0.13818793
-0.041066628 -0.15003315 -0.12428217 -0.17981122 -0.073000506 -0.09280637 -0.10132092 -0.0008645228
-0.039472185 -0.05009721 -0.06757869 -0.16415225 -0.07930779 -0.110234655 -0.07407341 -5.7335936e-05
-0.22598721 -0.23984112 -0.082929015 -0.07242923 -0.12901863 -0.08061161 -0.00021235958 -0.077237114
-0.1387469 -0.03732635 -0.101043716 -0.040708806 -0.1644544 -0.009487301 -0.018062266 -0.017878795
-0.10073957 -0.045443445 -0.1627537 -0.07811085 -0.2881383 -0.019619094 -0.026349641 -0.09009403
-0.08217071 -0.26144412 -0.16703151 -0.0022888023 -0.079363294 -0.06997599 -0.09941291 -0.0421099
-0.036183838 -0.1812313 -0.038013205 -0.01343929 -0.122084945 -0.0751182 -0.009179497 -0.028152412
-0.021923378 -0.07723526 -0.044088442 -0.12956949 -0.0021945303 -0.08184533 -0.054911308 -0.054133233
-0.15484121 -0.22204731 -0.057747837 -0.09671364 -0.14471407 -0.08105376 -0.116448715 -0.09415553
-0.11926932 -0.19502836 -0.14172263 -0.18273191 -0.14704701 -0.11153194 -0.086997174 -0.19184563
-0.17651148 -0.090997376 -0.010102996 -0.08022521 -0.037568502 -0.14644574 -0.090331495 -0.008595456
-0.037730575 -0.05215928 -0.10047306 -0.18350539 -0.06272192 -0.012115345 -0.05712931 -0.07754749
-0.06740914 -0.054036494 -0.1953038 -0.054740787 -0.06382985 -0.103827365 -0.12587027 -0.117039055
00000000: faf3 19bd 30b4 50bd 011c 9cbd cb00 a1bd
00000010: cd9a 04ba 132d ebbd 68cb 85bd ca30 a7bd
00000020: ef1d 22be 6ba5 97bd 604c 09be 2f86 03be
00000030: 232b e8bd e446 11be fd51 27bd 0723 dbbd
00000040: f9ab 38bd e864 e4bd 3682 08be 82ca 25bd
00000050: 92c5 7ebd e145 04bd 6534 4cbd 2381 0dbe
00000060: 7b35 28bd 4aa2 19be a687 febd 6f20 38be
00000070: 4a81 95bd 4411 bebd 5881 cfbd 25a1 62ba
00000080: 96ad 21bd bb32 4dbd b266 8abd 8717 28be
00000090: 1f6c a2bd b5c2 e1bd cdb3 97bd fe7b 70b8
000000a0: 3169 67be e998 75be b0d6 a9bd c755 94bd
000000b0: 761d 04be b317 a5bd d7ac 5eb9 7e2e 9ebd
000000c0: ab13 0ebe 84e3 18bd 02f0 cebd 47be 26bd
000000d0: bc66 28be a070 1bbc 51f7 93bc 8d76 92bc
000000e0: 8c50 cebd e822 3abd e8a8 26be 95f8 9fbd
000000f0: dd86 93be 39b8 a0bc 34db d7bc 3883 b8bd
00000100: 1e49 a8bd 01dc 85be 4f0a 2bbe bbff 15bb
00000110: 3989 a2bd 924f 8fbd ff98 cbbd 6e7b 2cbd
00000120: 8135 14bd b394 39be bcb3 1bbd 7830 5cbc
00000130: ac07 fabd 92d7 99bd 9a65 16bc e39f e6bc
00000140: a898 b3bc 852d 9ebd 1596 34bd ddad 04be
00000150: 1cd2 0fbb 869e a7bd aeea 60bd cfba 5dbd
00000160: b28e 1ebe 5f60 63be ff88 6cbd cd11 c6bd
00000170: ed2f 14be 84ff a5bd aa7c eebd 9dd4 c0bd
00000180: 7943 f4bd 84b5 47be bd1f 11be 131e 3bbe
00000190: 7e93 16be dc6a e4bd 932b b2bd 2e73 44be
000001a0: 6dbf 34be d55c babd 0987 25bc 1d4d a4bd
000001b0: 6ee1 19bd dff5 15be b8ff b8bd f5d3 0cbc
000001c0: 608b 1abd f8a4 55bd d2c4 cdbd d6e8 3bbe
000001d0: 5a74 80bd 717f 46bc 6c00 6abd 38d1 9ebd
000001e0: ce0d 8abd 5f55 5dbd b8fd 47be e037 60bd
000001f0: 39b9 82bd 71a3 d4bd 23e4 00be 2cb2 efbd

convs.1.weight f4 [128, 20, 9]
0.04362169 -0.044419616 -0.07566768 0.044041194 -0.07006964 -0.023559492 0.0857842 -0.07753049
-0.071930714 -0.022433145 0.02998476 -0.02058175 -0.009877559 -0.087396026 0.072018564 -0.050719447
0.04956128 -0.05617851 -0.15822856 -0.13423048 -0.07511201 -0.12350626 -0.016267328 -0.06322004
-0.08184832 -0.021867085 -0.17807518 0.0088309385 -0.104862556 0.016367806 -0.026872866 0.022882592
-0.135746 -0.09696508 -0.07208067 -0.04131142 -0.05024324 -0.041682262 0.10844071 0.0074573387
-0.008616183 -0.031853892 -0.1288136 -0.010373739 0.10838282 -5.723067e-05 -0.06803769 -0.07633256
-0.0161337 -0.0012853524 -0.018829083 -0.07438229 -0.11482599 -0.019047547 0.02999924 -0.017068533
-0.020196479 -0.045761906 0.06478482 -0.068380564 -0.028032854 -0.05936537 -0.08620202 0.03544233
-0.063611925 -0.07188555 -0.059914283 0.0121339755 -0.0329157 -0.034870155 -0.039885297 -0.015126038
-0.022140281 -0.0033894947 -0.12161591 0.07969464 0.050723936 -0.11863667 -0.07179691 0.01979844
-0.044124164 0.023736263 0.019722793 -0.01318471 -0.011901214 0.019573817 0.06280232 -0.00897344
-0.0396783 -0.06516742 0.027413897 0.094673485 0.05821076 0.07072523 0.049244393 0.056624968
0.010175474 0.08284922 -0.043817483 0.011397558 -0.043982815 -0.105529584 -0.08730623 -0.07081834
-0.013795175 -0.09446742 -0.16889006 -0.10072822 0.041183412 0.069835275 0.017878836 0.052159786
-0.059249185 0.08704698 0.12356254 0.0027224668 -0.017575365 -0.038930044 0.0057929982 0.090643615
0.06120004 0.14306119 0.0469209 0.026831433 0.058430195 0.029243438 0.030735245 0.14771682
0.042797446 0.015347153 0.018533733 -0.17254993 -0.027234659 0.060155593 -0.0026082974 -0.023179002
0.01762285 0.07756218 0.0015949078 -0.04500152 -0.060893007 0.046299607 -0.015946764 0.012731972
0.046452872 0.07093913 0.04138076 0.047171574 0.09189832 0.042939488 0.058353018 -0.012836664
-0.100150615 0.19855261 -0.011825823 0.10390045 0.1715739 0.061346192 0.08075915 0.080799185
0.016048502 0.12576371 0.013314249 0.025333466 0.10544958 0.017107707 0.09185385 -0.03252379
0.016638096 0.0043084645 0.023918873 0.057925615 -0.0048790243 0.047794316 0.095183454 0.046874072
-0.00484337 0.045700345 0.03945793 -0.04582902 0.031387966 0.052877706 -0.079615206 0.09241209
0.0052162395 -0.012803467 0.07904115 0.04245522 0.039629642 0.12916818 -0.0034725904 0.10814079
0.02348437 0.14330845 -0.15934086 -0.00019326321 0.05783033 0.11188952 -0.15565243 0.030073373
-0.124370225 -0.14945084 0.20234442 0.07283363 -0.05515613 -0.20794803 -0.019382458 -0.14999053
-0.055303648 -0.02022839 0.015042369 -0.22213538 0.18525699 -0.03572818 -0.061306983 0.08233769
-0.27365664 -0.048854914 0.00560322 0.020151028 -0.019625599 -0.28336543 0.01775992 -0.26362664
0.118315294 -0.09072677 0.03999475 -0.04174228 0.04637619 -0.04058042 0.097220205 0.05239149
-0.1210293 0.03854868 -0.14440933 -0.091847144 -0.07607105 0.06642114 -0.12455263 0.037052434
0.11976181 0.083081834 -0.013232592 0.034861974 0.05363859 -0.05594154 0.041139547 -0.101378575
-0.12420972 -0.03434782 -0.14984438 -0.17210771 -0.059230108 -0.089017585 0.12126756 -0.18392381
00000000: a8ac 323d 58f1 35bd a8f7 9abd 8a64 343d
00000010: ac80 8fbd d6ff c0bc a0af af3d 4ec8 9ebd
00000020: 6950 93bd b7c5 b7bc 99a2 f53c 0f9b a8bc
00000030: 7cd5 21bc b0fc b2bd 787e 933d 32bf 4fbd
00000040: c500 4b3d 701b 66bd ab06 22be b773 09be
00000050: 53d4 99bd daf0 fcbd 0f43 85bc 8279 81bd
00000060: 18a0 a7bd 9a22 b3bc 5759 36be a4af 103c
00000070: 2ec2 d6bd c715 863c 7c24 dcbc 4674 bb3c
00000080: 0001 0bbe a195 c6bd 089f 93bd 2a36 29bd
00000090: dbcb 4dbd 05bb 2abd 2a16 de3d b15c f43b
000000a0: e42a 0dbc 3a79 02bd b6e7 03be 9df6 29bc
000000b0: d0f7 dd3d f70a 70b8 5857 8bbd 3f54 9cbd
000000c0: d22a 84bc 4579 a8ba 733f 9abc be55 98bd
000000d0: e329 ebbd 9a09 9cbc f7c0 f53c 4fd3 8bbc
000000e0: 1673 a5bc d670 3bbd e7ad 843d 1c0b 8cbd
000000f0: 28a5 e5bc 1a29 73bd af8a b0bd fa2b 113d
00000100: f846 82bd bb38 93bd ae68 75bd 95cd 463c
00000110: 9dd2 06bd 02d4 0ebd c45e 23bd 34d3 77bc
00000120: 895f b5bc 4922 5ebb c311 f9bd f236 a33d
00000130: e7c3 4f3d c8f7 f2bd 420a 93bd 5730 a23c
00000140: 8abb 34bd 8d72 c23c b291 a13c af04 58bc
00000150: 4ffd 42bc 4559 a03c 819e 803d 5605 13bc
00000160: b785 22bd 7f76 85bd 1c93 e03c 2ce4 c13d
00000170: 686e 6e3d 64d8 903d 7db4 493d 95ef 673d
00000180: 08b7 263c daac a93d f679 33bd d3bc 3a3c
00000190: 5327 34bd e51f d8bd 9ccd b2bd 3509 91bd
000001a0: 2805 62bc 2278 c1bd 84f1 2cbe 994a cebd
000001b0: f0af 283d cc05 8f3d a376 923c 80a5 553d
000001c0: 46af 72bd b045 b23d 5b0e fd3d 6a6b 323b
000001d0: 36fa 8fbc 1c75 1fbd 31d3 bd3b 5ca3 b93d
000001e0: e5ac 7a3d a27e 123e 2130 403d 98cd db3c
000001f0: 8054 6f3d ef8f ef3c 7bc8 fb3c 1443 173e
00000200: 604c 2f3d a072 7b3c 0ed4 973c eeb0 30be
00000210: 381b dfbc b665 763d f8ef 2abb e4e1 bdbc
00000220: cc5d 903c ecd8 9e3d 3a0c d13a 8453 38bd
00000230: f26a 79bd a8a4 3d3d caa2 82bc c399 503c
00000240: 5e45 3e3d 8948 913d df7e 293d fb36 413d
00000250: 3035 bc3d 51e1 2f3d 9303 6f3d df50 52bc
00000260: c41b cdbd 6051 4b3e 19c1 41bc c2c9 d43d
00000270: 12b1 2f3e 2546 7b3d 0e65 a53d 0b7a a53d
00000280: 2678 833c 34c8 003e 0224 5a3c 2188 cf3c
00000290: f3f5 d73d 7625 8c3c df1d bc3d aa37 05bd
000002a0: 9e4c 883c 052e 8d3b 83f1 c33c 6943 6d3d
000002b0: 39e0 9fbb f9c3 433d 8bef c23d 07ff 3f3d
000002c0: 22b5 9ebb 4930 3b3d a39e 213d 36b7 3bbd
000002d0: ab90 003d 4b96 583d 4c0d a3bd 8d42 bd3d
000002e0: fdec aa3b a2c5 51bc 54e0 a13d 86e5 2d3d
000002f0: b152 223d aa44 043e 6694 63bb eb78 dd3d
00000300: 4b62 c03c 73bf 123e 402a 23be b3a6 4ab9
00000310: 7fdf 6c3d 5526 e53d 5a63 1fbe 6f5c f63c
00000320: d1b5 febd a409 19be 6033 4f3e cc29 953d
00000330: 65eb 61bd 54f0 54be f6c7 9ebc 1e97 19be
00000340: 1486 62bd 02b6 a5bc 4574 763c 7577 63be
00000350: 02b4 3d3e b657 12bd 081d 7bbd aaa0 a83d
00000360: b91c 8cbe 171c 48bd 379b b73b c513 a53c
00000370: ddc5 a0bc 4615 91be 407d 913c 12fa 86be
00000380: 4a4f f23d f5ce b9bd 89d1 233d f4f9 2abd
00000390: f6f4 3d3d a837 26bd 631b c73d 7698 563d
000003a0: 36de f7bd 38e5 1d3d 0ae0 13be 5b1a bcbd
000003b0: 23cb 9bbd cf07 883d 7315 ffbd 4bc4 173d
000003c0: ae45 f53d cf26 aa3d 83cd 58bc 6ecb 0e3d
000003d0: 23b4 5b3d f522 65bd f181 283d 929f cfbd
000003e0: aa61 febd 4db0 0cbd ce70 19be 013d 30be
000003f0: 459b 72bd da4e b6bd 205b f83d 8656 3cbe

convs.1.bias f4 [128]
-0.025778506 -0.1339492 -0.09770342 -0.0013556838 -0.15284136 -0.13935317 -0.033251055 -0.03926865
-0.107655466 -0.06815623 -0.17110465 -0.015432304 -0.15888813 -0.27767155 -0.1445292 -0.15316579
-0.047375415 -0.08199068 -0.05708616 -0.05244688 -0.069901444 -0.0673884 -0.25174263 -0.16381162
-0.1476434 -0.11148671 -0.0282249 -0.028528854 -0.16368891 -0.13268983 -0.10444595 -0.021866173
-0.045367125 -0.00050224754 -0.14396197 -0.0007740101 -0.13889569 -0.21223795 -0.12240631 -0.0009971322
-0.0015842321 -0.27293092 -0.10921193 -0.12478735 -0.09482219 -0.13667293 -0.05752621 -0.016448453
-0.08128602 -0.021818774 -0.053974815 -0.15392268 -0.06344915 -0.028275207 -0.15748633 -0.10016491
-0.09867001 -0.16853896 -0.18129165 -0.0471417 -0.0016225427 -0.14216314 -0.006097897 -0.05299387
-0.06813526 -0.047842342 -0.10973559 -0.052587382 -0.19346648 -0.07329685 -0.14890139 -0.022577826
-0.013289929 -0.07050113 -0.198145 -0.23414472 -0.019081423 -0.085896686 -0.07262878 -0.066049665
-0.063201755 -0.034003578 -0.15635636 -0.20956211 -0.18156809 -0.022412017 -0.122473 -0.222362
-0.029030008 -0.02752193 -0.09191676 -0.02745319 -0.10711187 -0.040187605 -0.0678516 -0.23264635
-0.1328829 -0.21238188 -0.06761549 -0.013601794 -0.15308273 -0.056271084 -0.17916983 -0.09325646
-0.06702492 -0.06487418 -0.16085553 -0.12808117 -0.070014924 -0.016837668 -0.20900737 -0.0074437563
-0.1453945 -0.15650773 -0.113714695 -0.019365842 -0.092229076 -0.05653817 -0.13560306 -0.23657207
-0.13102867 -0.036009166 -0.2577289 -0.06367856 -0.02391763 -0.06596822 -0.09326234 -0.007283007
00000000: 722d d3bc fb29 09be bb18 c8bd 33b1 b1ba
00000010: 7282 1cbe 99b2 0ebe 4232 08bd 2ad8 20bd
00000020: 787a dcbd 7e95 8bbd 0f36 2fbe c6d7 7cbc
00000030: 92b3 22be f72a 8ebe 76ff 13be 7ed7 1cbe
00000040: b90c 42bd bbea a7bd 2dd3 69bd 8ad2 56bd
00000050: 7d28 8fbd ee02 8abd 69e4 80be 3cbe 27be
00000060: d52f 17be 2553 e4bd e837 e7bc 58b5 e9bc
00000070: 119e 27be d8df 07be c2e7 d5bd b020 b3bc
00000080: e1d2 39bd 43a9 03ba c46a 13be f0e6 4aba
00000090: ac3a 0ebe e854 59be 29b0 fabd 34b2 82ba
000000a0: 02a6 cfba 9abd 8bbe 81aa dfbd 8390 ffbd
000000b0: 2332 c2bd fdf3 0bbe 9aa0 6bbd e8be 86bc
000000c0: 4979 a6bd 49bd b2bc b214 5dbd e89d 1dbe
000000d0: a1f1 81bd 68a1 e7bc 1944 21be 4323 cdbd
000000e0: 8113 cabd 7a95 2cbe 85a4 39be a817 41bd
000000f0: 80ab d4ba 3793 11be ded0 c7bb 1a10 59bd
00000100: 808a 8bbd 55f6 43bd 0ebd e0bd de65 57bd
00000110: 141c 46be a91c 96bd 9b79 18be 22f5 b8bc
00000120: 01be 59bc e562 90bd 86e6 4abe a2c3 6fbe
00000130: a550 9cbc 9aea afbd 66be 94bd 0c45 87bd
00000140: ec6f 81bd 5647 0bbd e21b 20be 7397 56be
00000150: fcec 39be 6899 b7bc 20d3 fabd ddb2 63be
00000160: 57d0 edbc ac75 e1bc db3e bcbd 83e5 e0bc
00000170: 785d dbbd c29b 24bd c8f5 8abd d83a 6ebe
00000180: 7412 08be a37a 59be fd79 8abd 0fda 5ebc
00000190: b8c1 1cbe 827c 66bd 4c78 37be 3efd bebd
000001a0: 5c44 89bd c1dc 84bd 50b7 24be b627 03be
000001b0: fc63 8fbd 26ef 89bc 0706 56be c1ea f3bb
000001c0: 4ce2 14be 9043 20be 40e3 e8bd 1da5 9ebc
000001d0: 99e2 bcbd 9194 67bd 87db 0abe f33f 72be
000001e0: 612c 06be 597e 13bd 0bf5 83be e869 82bd
000001f0: e8ee c3bc 591a 87bd 5300 bfbd 4aa6 eebb

convs.2.weight f4 [128, 20, 13]
-0.07702526 -0.049269885 0.030383268 -0.03511352 -0.018209565 0.03657666 0.027033083 -0.034192525
0.000758203 -0.033209536 -0.06943628 0.004810768 -0.0048802732 -0.07128596 0.004405225 -0.014214759
-0.095336884 -0.0649892 -0.032216363 -0.058985822 -0.004417602 -0.08363364 -0.08223062 -0.07541937
0.0009812358 -0.039929092 -0.017905299 0.014236003 -0.06730844 -0.014442459 0.022184938 -0.05838546
-0.04873858 -0.04611247 0.03191008 -0.011725936 -0.029296974 0.018208712 -0.05224196 -0.04375735
-0.062067308 0.028182346 -0.0064646862 -0.07795207 -0.05160847 -0.054125797 -0.010655874 -0.061472464
-0.038804412 -0.023905585 -0.052740622 -0.07101536 -0.059950195 -0.042511024 0.05727276 -0.017185729
-0.049839046 -0.047110703 0.023500726 -0.03046765 -0.06270361 -0.02583995 -0.06840967 -0.047088705
0.038777795 -0.045426544 -0.019200189 -0.044092286 -0.037801467 -0.03181195 -0.07364567 0.006196531
-0.03696317 -0.05047072 -0.048105545 -0.046230804 -0.059995588 0.009943989 0.03227748 -0.020401675
-0.07883148 -0.0031277745 -0.050891995 -0.10092567 -0.047748145 -0.06738502 -0.011192314 -0.08549657
-0.14685942 -0.015567605 0.010577438 0.013279529 -0.06151403 -0.003365557 -0.028446779 -0.1015491
-0.07139832 0.0088163195 -0.041241113 0.03951275 0.033731855 0.055172756 0.058370747 0.016475704
0.019487761 -0.046140004 -0.050058194 0.001778176 -0.02305454 -0.023329355 -0.032378677 -0.00075796864
-0.061847914 -0.08829557 -0.07335957 -0.020336073 -0.07442256 -0.061298117 0.03474047 -0.13803335
-0.024824308 0.06319334 -0.046034828 -0.026752187 -0.009689213 -0.028604724 0.025552751 -0.031607933
-0.054316033 -0.050988756 -0.03722322 -0.033026703 -0.058621906 0.008514212 -0.0026252158 -0.053930707
-0.028643487 -0.08987369 -0.021396788 -0.06462843 -0.039126437 -0.11683428 -0.16590723 -0.07600068
-0.040975403 -0.0059101013 -0.08202006 -0.04620174 -0.077930234 -0.011822992 -0.017062549 -0.05497995
-0.06723858 -0.029542899 0.044683367 -0.04969565 -0.057818238 -0.030195223 -0.04919279 -0.04813621
-0.049598847 -0.026679926 -0.03636595 -0.06283802 0.016136216 -0.06477134 -0.032970097 0.00914239
-0.03576139 -0.02249115 -0.049874917 -0.039686378 -0.06034136 -0.016650379 -0.03817427 -0.06865684
0.010872865 -0.03893587 -0.044444602 -0.015880648 -0.017127646 -0.053194392 0.010695608 0.042317227
-0.044525005 0.005163839 -0.08795042 -0.04668679 0.050057042 -0.0628974 -0.0056698136 0.0007402774
-0.038581666 -0.049369372 -0.0099894 -0.05288514 0.014539392 -0.02877487 -0.040875055 -0.0064647337
-0.056944445 -0.028029645 -0.034278177 -0.08183208 0.0050170682 -0.046056274 -0.05743572 -0.05664583
-0.10614016 -0.08550225 -0.06347612 -0.044017226 -0.09182207 -0.11126776 -0.020378467 -0.06342865
-0.109383024 -0.049164474 -0.026310286 0.00021980604 0.0077586025 -0.041464448 -0.032884404 -0.07919293
-0.110883415 0.024007218 -0.09460153 -0.007986053 0.010931893 -0.03895387 -0.12577131 0.017124517
0.021020794 -0.062049046 0.034670673 -0.10793288 -0.019826688 -0.05441414 0.005549981 -0.03571523
-0.044243786 0.05106603 0.07615862 -0.043711197 0.01565719 -0.09316857 -0.10603265 0.0061528855
0.024218302 -0.012956789 0.00044111823 -0.009681756 -0.046920404 -0.0904724 -0.07762574 -0.011979471
00000000: 6bbf 9dbd 38cf 49bd 55e6 f83c 32d3 0fbd
00000010: 3a2c 95bc 68d1 153d 7c74 dd3c 760d 0cbd
00000020: 24c2 463a b906 08bd 9c34 8ebd a6a3 9d3b
00000030: b3ea 9fbb 60fe 91bd b559 903b 05e5 68bc
00000040: fc3f c3bd 0f19 85bd 4ef5 03bd 1e9b 71bd
00000050: 88c1 90bb 1d48 abbd 8768 a8bd 7875 9abd
00000060: cf9c 803a b08c 23bd 22ae 92bc 203e 693c
00000070: 02d9 89bd 10a0 6cbc 30bd b53c 9825 6fbd
00000080: 1ba2 47bd 6ee0 3cbd 25b4 023d 241e 40bc
00000090: 3500 f0bc 702a 953c aafb 55bd e83a 33bd
000000a0: 4a3a 7ebd aade e63c b8d5 d3bb 56a5 9fbd
000000b0: 6763 53bd 03b3 5dbd fa95 2ebc 8dca 7bbd
000000c0: 60f1 1ebd a5d5 c3bc 8d06 58bd 8070 91bd
000000d0: 568e 75bd 0a20 2ebd d796 6a3d 16c9 8cbc
000000e0: 0724 4cbd 27f7 40bd 9884 c03c 4b97 f9bc
000000f0: c06a 80bd 4eae d3bc 5e1a 8cbd 16e0 40bd
00000100: 77d5 1e3d 2f11 3abd b749 9dbc 1d9a 34bd
00000110: b6d5 1abd 3f4d 02bd 8bd3 96bd 450c cb3b
00000120: b166 17bd 63ba 4ebd 520a 45bd 835c 3dbd
00000130: efbd 75bd 1dec 223c 6435 043d 6a21 a7bc
00000140: 6672 a1bd 59fb 4cbb 2074 50bd 1eb2 cebd
00000150: 8f93 43bd 2801 8abd f85f 37bc d318 afbd
00000160: 5162 16be 450f 7fbc fe4c 2d3c 6292 593c
00000170: 23f6 7bbd ad90 5cbb 3809 e9bc f9f8 cfbd
00000180: 4839 92bd 5372 103c 71ec 28bd 1fd8 213d
00000190: 6a2a 0a3d d4fc 613d 2a16 6f3d 0ef8 863c
000001a0: cca4 9f3c 4dfd 3cbd d209 4dbd b011 e93a
000001b0: e0dc bcbc 341d bfbc 819f 04bd 6ab2 46ba
000001c0: 3d54 7dbd 4fd4 b4bd 8b3d 96bd d697 a6bc
000001d0: db6a 98bd bc13 7bbd 064c 0e3d 9d58 0dbe
000001e0: 595c cbbc 836b 813d 048f 3cbd 6727 dbbc
000001f0: 81bf 1ebc 7454 eabc 0154 d13c 5277 01bd
00000200: 7d7a 5ebd 96d9 50bd 6077 18bd 0247 07bd
00000210: 861d 70bd 327f 0b3c d00b 2cbb 72e6 5cbd
00000220: bfa5 eabc b20f b8bd 5148 afbc e95b 84bd
00000230: 0b43 20bd d046 efbd 96e3 29be 3fa6 9bbd
00000240: d3d5 27bd 86a9 c1bb 22fa a7bd 093e 3dbd
00000250: e399 9fbd 39b5 41bc c2c6 8bbc a832 61bd
00000260: 61b4 89bd f303 f2bc e805 373d aa8d 4bbd
00000270: d1d2 6cbd f95b f7bc 617e 49bd 792a 45bd
00000280: 2928 4bbd dc8f dabc 76f4 14bd 38b1 80bd
00000290: 1930 843c d6a6 84bd a70b 07bd f7c9 153c
000002a0: 897a 12bd 5c3f b8bc a449 4cbd 2f8e 22bd
000002b0: 8028 77bd 6066 88bc a05c 1cbd f59b 8cbd
000002c0: 1a24 323c 387b 1fbd 8b0b 36bd 2218 82bc
000002d0: 474f 8cbc 5de2 59bd a23c 2f3c d454 2d3d
000002e0: da5f 36bd 6c35 a93b 5a1f b4bd a63a 3fbd
000002f0: 9d08 4d3d 5ad0 80bd d8c9 b9bb 2d0f 423a
00000300: cf07 1ebd 8a37 4abd 95aa 23bc 179e 58bd
00000310: a136 6e3c 47b9 ebbc 9a6c 27bd 1ed6 d3bb
00000320: 943e 69bd 6d9e e5bc 4667 0cbd 9497 a7bd
00000330: 3866 a43b 81a5 3cbd b841 6bbd 7505 68bd
00000340: 0360 d9bd ce1b afbd c5ff 81bd 684b 34bd
00000350: 360d bcbd 5ae0 e3bd bef0 a6bc e1e6 81bd
00000360: 3504 e0bd b060 49bd ab88 d7bc bc7b 6639
00000370: e03b fe3b a0d6 29bd ccb1 06bd e72f a2bd
00000380: d816 e3bd c9aa c43c 72be c1bd efd7 02bc
00000390: af1b 333c 188e 1fbd 32ca 00be b748 8c3c
000003a0: cd33 ac3c 2427 7ebd d602 0e3d ea0b ddbd
000003b0: 946b a2bc 5ce1 5ebd 9ddc b53b 224a 12bd
000003c0: f938 35bd 9d2a 513d 0df9 9b3d 830a 33bd
000003d0: 8243 803c 2acf bebd a527 d9bd 259e c93b
000003e0: 7665 c63c b648 54bc e345 e739 3aa0 1ebc
000003f0: 9c2f 40bd 9849 b9bd 3efa 9ebd 8b45 44bc

convs.2.bias f4 [128]
-0.10358095 0.12203004 -0.0846536 -0.046500385 -0.20308374 -0.09500711 -0.12461848 -0.20353581
-0.004887367 -0.07153277 -0.11412806 -0.13964659 -0.07693792 -0.0014723798 0.10961129 -0.0048279795
-0.04270589 -0.07600726 -0.03258151 -0.065320395 -0.073855996 -0.008845084 -0.024124322 -0.11142761
-0.017323755 -0.099045075 -0.20997757 -0.2562638 -0.14892754 -0.060022183 -0.16834992 -0.04309349
-0.02810838 -0.12037241 -0.2278581 0.12995768 -0.00079476705 -0.13957658 -0.06394142 -0.16465132
-0.06143987 -0.0020317875 -0.10755439 -0.001281438 -0.062616505 -0.24227373 -0.014453187 -0.15237865
-0.03190618 -0.01668651 -0.002282288 -0.06242706 -0.13082041 -0.21041891 -0.16035338 -0.008906439
-0.045218587 -0.11086265 -0.035754684 -0.06951681 -0.17908353 -0.16530198 -0.14393789 -0.009733023
-0.05027407 -0.085021146 -0.11319221 -0.29512015 -0.13749138 -0.120005965 0.11104589 -0.15416464
-0.17473458 -0.08331538 -0.10693411 -0.09523503 -0.21808149 -0.10511183 -0.10977126 -0.099773385
-0.06861419 -0.03363816 -0.15221013 -0.13724446 -0.0025489419 -0.16841875 -0.1667763 -0.08021068
-0.11202882 -0.049810655 -0.12673905 -0.08571781 -0.14294398 -0.2059609 -0.089044824 -0.040570356
-0.058075245 -0.10596842 -0.029650178 -0.32917276 0.04029802 -0.10970238 -0.024817988 -0.007769316
-0.049927343 -0.0008374424 0.19894412 -0.026440168 -0.17190507 -0.09337034 -0.096728265 -0.24846745
-0.1653905 -0.28966537 -0.017398413 -0.06249977 -0.050277065 -0.12963355 -0.11072165 -0.26675087
-0.026445238 -0.13281927 0.16389342 -0.0013061856 -0.2804793 -0.000992027 -0.110567085 -0.02276665
00000000: 4022 d4bd e3ea f93d de5e adbd 3077 3ebd
00000010: 2ff5 4fbe 1693 c2bd f937 ffbd b16b 50be
00000020: 3526 a0bb c67f 92bd f9bb e9bd 84ff 0ebe
00000030: a191 9dbd defc c0ba e27b e03d 0734 9ebb
00000040: 5fec 2ebd b2a9 9bbd 3074 05bd b3c6 85bd
00000050: d041 97bd f9ea 10bc 5fa0 c5bc 2934 e4bd
00000060: 8cea 8dbc 25d8 cabd 5c04 57be 0235 83be
00000070: 7680 18be d2d9 75bd ec63 2cbe cd82 30bd
00000080: 8c43 e6bc cf85 f6bd a253 69be a013 053e
00000090: ea57 50ba 2aed 0ebe b8f3 82bd 5b9a 28be
000000a0: 60a8 7bbd bd27 05bb 7a45 dcbd edf5 a7ba
000000b0: 153d 80bd 9b16 78be 0fcd 6cbc 2609 1cbe
000000c0: 0eb0 02bd 26b2 88bc 7092 15bb 84b3 7fbd
000000d0: c9f5 05be 0e78 57be ad33 24be 50ec 11bc
000000e0: 2037 39bd f50b e3bd 8173 12bd d45e 8ebd
000000f0: ac61 37be ec44 29be 7464 13be 4277 1fbc
00000100: 2fec 4dbd 911f aebd 51d1 e7bd fd19 97be
00000110: 8aca 0cbe b0c5 f5bd 076c e33d 56dd 1dbe
00000120: 9fed 32be 41a1 aabd 4500 dbbd 950a c3bd
00000130: c150 5fbe df44 d7bd c1cf e0bd fd55 ccbd
00000140: 9985 8cbd 2bc8 09bd f9dc 1bbe d089 0cbe
00000150: 260c 27bb f775 2cbe 68c7 2abe 7f45 a4bd
00000160: 5e6f e5bd 4206 4cbd e2c7 01be d28c afbd
00000170: e85f 12be 6ae7 52be 225d b6bd 1a2d 26bd
00000180: 4fe0 6dbd f905 d9bd eee4 f2bc 5589 a8be
00000190: 890f 253d a4ab e0bd 184f cbbc bf95 febb
000001a0: 9d80 4cbd cf87 5bba 02b8 4b3e 0d99 d8bc
000001b0: e207 30be f338 bfbd 7819 c6bd 406e 7ebe
000001c0: 215c 29be 054f 94be 1e87 8ebc c2ff 7fbd
000001d0: 53ef 4dbd a8be 04be 08c2 e2bd 9293 88be
000001e0: afa3 d8bc c601 08be add3 273e 5134 abba
000001f0: fc9a 8fbe e706 82ba ff70 e2bd 2081 babc

decoder.0.weight f4 [1, 384]
0.41258022 0.3027632 -0.2236725 -0.025301587 0.194047 -0.20650505 -0.11578307 0.12475047
0.11993423 -0.10237977 -0.20423892 -0.08701414 -0.6066388 0.08384307 0.6574705 0.040666945
-0.08912459 0.008025848 0.5986941 1.2430208 -0.22141768 -0.16192569 0.12981848 0.099688485
-0.039844744 0.12034906 0.1645216 0.12751704 0.88391954 0.05048719 -0.07087912 0.51183146
-0.1270626 0.20147555 0.1656314 -0.5197572 -0.031047555 0.07764097 -0.28177112 0.13862458
0.10015292 -0.090703495 0.20012113 0.10607741 -0.11276134 0.66247994 0.25167334 -0.3276517
-0.20710504 -0.26702464 0.5014271 -0.034193896 0.17888129 0.14313643 0.10581698 0.10621677
0.03492922 0.61419713 -0.21937494 0.49609938 -0.15477875 0.00048101548 0.06844513 0.09061427
0.22802682 -0.13284844 -0.79442227 0.2802714 0.33291566 -0.14111337 0.10582142 1.0093044
0.18893771 0.1650956 0.21660598 0.17893787 0.30571398 0.46244258 0.11108754 -0.14521578
-0.18539399 -0.12364218 0.2202005 -0.066985644 0.81341547 -0.09421901 0.17880408 0.11784033
0.009162202 -0.32219467 0.14050436 -0.105967365 -0.045603536 0.09474053 0.009372412 0.2343879
0.13837653 0.14133696 -0.5318665 -0.30025342 0.122320555 -0.27873334 -0.05007363 -0.5898724
-0.3520375 -0.19525017 -0.16872458 0.12738667 0.14246894 0.5045901 0.83854586 0.16389321
-0.45484748 0.13175479 0.047433536 0.33744872 -0.06628157 0.09042482 -0.006180614 0.08522129
0.06730075 0.06742888 -0.011137319 -0.07954328 -0.213856 -0.089054495 0.022042122 -0.4188146
-0.12687118 0.54601514 -0.10729799 -0.21516848 -0.15739825 -1.757489 -0.41526675 0.12708163
-0.42548206 -0.284378 -0.050793353 -0.16552779 -0.114376135 0.1081062 -0.14306454 -0.34748027
-0.35788202 0.59417117 -0.15457529 0.1146752 0.046156645 -0.321946 0.06971528 0.09721057
0.018261528 1.4371611 0.3542219 1.0150988 -0.20303072 -0.11086189 -0.3150163 0.87020427
-0.40402645 -0.3443986 -0.09032043 -0.15916331 0.012862479 -0.757778 0.16847472 0.1973256
-0.55499226 0.36767942 0.25416794 -0.26673284 0.28414604 0.8349251 0.3014026 0.01794164
-0.28164476 0.08817343 0.18404819 0.48697594 -0.5958371 0.2505897 -0.6685069 -0.041242912
-0.29799122 0.16180567 -0.19703421 -0.8403624 -0.26153237 0.11686738 -0.26148924 -0.13056938
-0.110718206 0.21710238 0.06223651 -0.45429298 -0.4048178 -0.1939475 -0.11275883 0.09789464
0.38860044 0.14539959 0.012322517 -0.0063442374 0.27048042 -0.40929773 -0.12465434 -0.08075791
0.12405313 0.6601664 0.24448931 0.39198536 0.27016845 -0.8137461 1.6124582 0.12645185
0.56385535 -0.41595837 -0.8110995 0.15799664 0.038948946 1.0244476 -0.06434688 0.015319209
0.2743345 0.013441018 -0.13436136 -0.5031974 0.627054 -0.16252285 0.018120212 -0.22827926
0.12649064 -0.114886105 -0.41046512 0.069700524 0.3717054 0.14331658 0.10606816 -0.51789474
-0.2592404 -0.1344953 1.0985752 -0.17705832 0.47287104 -0.6505754 0.026209908 -0.07730909
0.19885546 -0.06746669 -0.8815711 -0.3064137 0.4735914 0.3545688 -0.2950762 0.29358545
00000000: b73d d33e c703 9b3e 670a 65be 4645 cfbc
00000010: 42b4 463e 0f76 53be ad1f edbd 2d7d ff3d
00000020: 14a0 f53d 7cac d1bd 0224 51be 7834 b2bd
00000030: ae4c 1bbf eab5 ab3d fd4f 283f 6292 263d
00000040: f486 b6bd d97e 033c 0444 193f 4e1b 9f3f
00000050: 51bb 62be d9cf 25be 23ef 043e 7a29 cc3d
00000060: 3e34 23bd 9179 f63d 5a78 283e d493 023e
00000070: 8d48 623f a8cb 4e3d 1229 91bd 6307 033f
00000080: b31c 02be 9b4f 4e3e 479b 293e cf0e 05bf
00000090: 7157 febc 3b02 9f3d 4e44 90be 9af3 0d3e
000000a0: f91c cd3d c1c2 b9bd 8eec 4c3e 1d3f d93d
000000b0: 6bef e6bd 4998 293f 54db 803e f7c1 a7be
000000c0: 5813 54be 74b7 88be 875d 003f e60e 0cbd
000000d0: a82c 373e 5b92 123e 93b6 d83d 2e88 d93d
000000e0: f111 0f3d 063c 1d3f d3a3 60be bd00 fe3e
000000f0: 527e 1ebe ce30 fc39 f62c 8c3d f993 b93d
00000100: dd7f 693e 6c09 08be 425f 4bbf bc7f 8f3e
00000110: ec73 aa3e 0680 10be e7b8 d83d e330 813f
00000120: e378 413e d20e 293e f5cd 5d3e 7d3b 373e
00000130: 8b86 9c3e 46c5 ec3e dd81 e33d 72b3 14be
00000140: ecd7 3dbe 1c38 fdbd 3d7c 613e c52f 89bd
00000150: ff3b 503f e5f5 c0bd 6b18 373e 4556 f13d
00000160: 0f1d 163c b3f6 a4be 60e0 0f3e 6b05 d9bd
00000170: c6ca 3abd 5307 c23d bf8e 193c 6203 703e
00000180: 94b2 0d3e a3ba 103e 6728 08bf d1ba 99be
00000190: 3383 fa3d 23b6 8ebe 021a 4dbd e101 17bf
000001a0: 423e b4be a9ef 47be 23c6 2cbe a771 023e
000001b0: 61e3 113e d12c 013f f1aa 563f 9fd3 273e
000001c0: c5e1 e8be baea 063e ab49 423d 14c6 ac3e
000001d0: a2be 87bd a630 b93d bf86 cabb 8088 ae3d
000001e0: fad4 893d 2718 8a3d 4d79 36bc 96e7 a2bd
000001f0: 11fd 5abe 3462 b6bd ae91 b43c de6e d6be
00000200: 85ea 01be a6c7 0b3f 0cbf dbbd 2055 5cbe
00000210: 022d 21be 66f5 e0bf d89d d4be b021 023e
00000220: c9d8 d9be fe99 91be b10c 50bd 1e80 29be
00000230: 093e eabd c966 dd3d 837f 12be efe8 b1be
00000240: 503c b7be 9a1b 183f fc48 1ebe d5da ea3d
00000250: c00e 3d3d 1bd6 a4be e2c6 8e3d 5616 c73d
00000260: 3399 953c e5f4 b73f 935c b53e c2ee 813f
00000270: 49e7 4fbe 8f0b e3bd d149 a1be b5c5 5e3f
00000280: 8edc cebe 0355 b0be ebf9 b8bd b5fb 22be
00000290: 26bd 523c bdfd 41bf a384 2c3e b90f 4a3e
000002a0: f913 0ebf 7a40 bc3e 4d22 823e 3591 88be
000002b0: 977b 913e a7bd 553f 7151 9a3e 59fa 923c
000002c0: be33 90be 4594 b43d 2177 3c3e e954 f93e
000002d0: c888 18bf 4b4d 803e 4523 2bbf 54ee 28bd
000002e0: 4e92 98be 63b0 253e 56c3 49be fe21 57bf
000002f0: 92e7 85be 2a58 ef3d ebe1 85be fbb3 05be
00000300: 3ac0 e2bd 1650 5e3e b6eb 7e3d 1799 e8be
00000310: 4744 cfbe 2c9a 46be 1aee e6bd fc7c c83d
00000320: a3f6 c63e a1e3 143e 62e4 493c 52e3 cfbb
00000330: 697c 8a3e 798f d1be c64a ffbd 6764 a5bd
00000340: 910f fe3d aa00 293f 685b 7a3e 4eb2 c83e
00000350: 8553 8a3e aa51 50bf 0865 ce3f 987c 013e
00000360: d358 103f 7ff8 d4be 38a4 4fbf dfc9 213e
00000370: ee88 1f3d 1921 833f 4cc8 83bd 6bfd 7a3c
00000380: 9275 8c3e b737 5c3c 0696 09be 8bd1 00bf
00000390: 9c86 203f 646c 26be d770 943c 0ac2 69be
000003a0: c386 013e 6849 ebbd 7c28 d2be 26bf 8e3d
000003b0: 2c50 be3e 95c1 123e 433a d93d c094 04bf
000003c0: 28bb 84be 23b9 09be 1d9e 8c3f c74e 35be
000003d0: 271c f23e 1c8c 26bf 29b6 d63c 3a54 9ebd
000003e0: c4a0 4b3e fa2b 8abd a5ae 61bf 42e2 9cbe
000003f0: 927a f23e 0b8a b53e 3a14 97be d550 963e
