saved_models/model_16.pkl (torch_old, 281078 bytes, 7 tensors)

convs.0.weight f4 [128, 20, 5]
00000000: 2d08 e03c 7ae6 9f3d 8c3c c13c b3e3 07bb
00000010: cc0d ea3d 1899 68bd 8e2b fbbc b75a b5bb
00000020: 9780 3f3e 9126 bc3c 01f0 92bd 6aa7 4cbe
00000030: 6b6a c0bd e031 a13d cba2 b8bb bbc5 a9bd
00000040: ad51 c33d 3d5d 1f3e ce2b 553d b555 b83d
00000050: 35c2 e83d 2d3e b0bd 12cd 513e d259 8fbd
00000060: d195 33be acb4 cebd 22d1 0abe a008 883c
00000070: a49a 2d3d 9968 adbd 8389 a8bd 4e36 7abd
00000080: 5f62 9cbd 0226 2fbe f280 28be 92c6 4dbe
00000090: e2e7 b0bd ba61 97bc 98ea 8d3d 8832 6f3d
000000a0: 9b19 923d a4cc 1d3c d86e 13be dd91 74bd
000000b0: c777 7ebd a9a1 10be 4f08 373d 74dc a0bd
000000c0: 2853 a8bd 87fb 85bd 56a7 0fbe 245f 92bd
000000d0: 00a4 f03c a8b7 953d d86d 1a3d 3028 82bb
000000e0: 6cde 5f3d 02d5 ee3d e97d 06be 1fc4 03be
000000f0: 8235 36be 3a99 ba3b 4993 7fbd b920 75bd
00000100: 7334 0dbc 5f71 383d 2306 303d d886 8d3d
00000110: 21d0 d23d e320 adbc 7873 39bc 9af6 783c
00000120: f7ed 0f3d e249 113e 32c1 16bd ff4a 4d3c
00000130: 22e8 453d 5687 003d 2791 ed3c b850 863d
00000140: 4535 653b 7d90 9f3d 7dc8 b1bd 6a6d 0bbd
00000150: b200 c9bc a11b 7d3d d8cc 9ebd c82a 833c
00000160: fd24 7139 e032 f63b f20c 72bd 66cc 973d
00000170: 5aff 153d 3208 dabd 6e25 d23c a1f6 e1bd
00000180: 0f2b f3bd 5ab2 09bd 4c6e bdbd 17c1 90bc
00000190: dd21 30be 166d cfbd cc9b 27be 78fe f1bd
000001a0: 2773 7c3d e167 423c 2494 253e a194 323d
000001b0: e3f5 19be 59d7 14bd 133e f3bd 1b6e 4f3c
000001c0: fe13 7b3e d383 2a3e acfd b73d 04f4 69be
000001d0: cc97 3cbe 70f8 833d 0e59 1e3e f6d6 483e
000001e0: ed4d 56bc b3a3 5abe e116 c13c 7e6e 0cbf
000001f0: dc4a 623e e38a cbbc 6d26 90bd e119 183d
00000200: 89ca 39be f0a3 babd 92f4 eabd 465e 54be
00000210: 3862 9dbd 78d6 203d fc0b 6dbc b671 9bbe
00000220: 9935 00be 79a1 ca3d 3929 68be 2a01 05bd
00000230: 8eba 523d e1fa ffbc 4bb9 a03c d428 553e
00000240: d91a c43d 648c c63d f305 18bc 5f47 9fbd
00000250: 9b32 89bd 47cd 23bd c805 b6bc 0f05 02bd
00000260: 3abc 8abc 090b d6bd be3a 31bb c99e 8ebe
00000270: 3f5c 983d c113 3f3e 8a05 80be a60e 14be
00000280: 92ee e5bc 82d6 25be 1b6e 923e 2ccd 2ebe
00000290: d596 95bd fd44 893c 6beb e2be 68b8 c0bd
000002a0: 7660 f83d 76c5 7f3d 156d 1d3e 895d 17be
000002b0: 7084 70bd c808 d0bd 62f3 2cbe 005c 82be
000002c0: ee12 39be d29f 1a3d 0d5e 9dbe fce4 5ebe
000002d0: 3314 05bd 2e6a 67be 1cdd a83d f863 62be
000002e0: 7f2a 51be b80b 0e3e 9179 83bd f0e6 0f3e
000002f0: 4108 e93d daa9 17be a064 773d 1a62 b4be
00000300: 7abd 4dbe 8290 a53d 4cb9 293d 48b3 5a3c
00000310: b5f2 00bd eb0e 9d3d d007 58be 83ee b9bd
00000320: f3a3 dbbc db54 44be ca80 b63d da58 fc3d
00000330: 6fc2 47bd 8fff 503d 2f11 883d bb77 9a3d
00000340: 2758 c33d 2315 b7bd ae18 99bc b324 1e3d
00000350: 8735 f0bd 200e 47bd f482 273c 1dfe 87bd
00000360: 43a6 eb3d cb50 19bc d5d6 9abd f824 44bd
00000370: 20a2 ee3d 0634 a4bc bebd 743d 678d bb3c
00000380: 235a 533e 7f54 bfbd a100 d33d b4cf debd
00000390: 2941 153d b993 803d a16f 5a3d ce1e a6bd
000003a0: 6598 963d 1b52 c13d 2bd0 433d 5c63 2d3c
000003b0: 1e7c 53be e710 273e 22e4 713c 19da 303e
000003c0: dc84 98bd a549 0dbe 8aa7 4dbe fd56 a7bc
000003d0: 6ba6 86bd a63f b03c f047 b6bd 4a8c ba3d
000003e0: ae77 e1bd 339e 54bd 4e72 38bd c821 b63d
000003f0: bd89 d53d 6076 ca3c f90f 8dbd 0866 62bd
0.027347649 0.07807632 0.023588441 -0.0020735085 0.11428413 -0.056786627 -0.030660417 -0.0055344957
0.18701397 0.022967609 -0.07174683 -0.19985738 -0.093952976 0.07870841 -0.005634641 -0.08289667
0.09537063 0.15562911 0.05204373 0.09000722 0.11365167 -0.08605609 0.20488384 -0.06999554
-0.17537619 -0.10093054 -0.1355634 0.016605675 0.042383805 -0.08467216 -0.08229353 -0.061086945
-0.0763595 -0.17104343 -0.16455439 -0.2009528 -0.08637978 -0.018479217 0.06929511 0.0583978
0.0713379 0.00963131 -0.14397752 -0.05970942 -0.062125947 -0.14124168 0.044685658 -0.07854548
-0.08218986 -0.06542116 -0.14028677 -0.07147053 0.029375076 0.0731042 0.03770241 -0.003972076
0.054655477 0.11661722 -0.13133968 -0.12867783 -0.17793849 0.0056945356 -0.06239632 -0.05984566
-0.008618462 0.045029994 0.042974602 0.06910485 0.10293604 -0.021133846 -0.011319034 0.015195513
0.03513905 0.1418834 -0.03680534 0.0125300875 0.048317082 0.031379066 0.028999878 0.06558365
0.0034974378 0.07791231 -0.08680818 -0.034039892 -0.024536464 0.061793927 -0.077539146 0.01601161
0.0002299733 0.007513389 -0.059094377 0.07412033 0.036620475 -0.106460944 0.025652613 -0.11033369
-0.11873447 -0.033617355 -0.09249553 -0.017670197 -0.17200418 -0.10128228 -0.16368026 -0.11816114
0.061633255 0.011865587 0.16169792 0.043598775 -0.15035205 -0.036338184 -0.11877074 0.0126605285
0.24519345 0.1665185 0.08983931 -0.22846991 -0.18417281 0.0644387 0.15463659 0.19613251
-0.013080102 -0.21351509 0.02357048 -0.548561 0.22098869 -0.0248465 -0.07038579 0.037134055
-0.18143667 -0.091133 -0.11472429 -0.20739087 -0.07684749 0.039267033 -0.014468189 -0.30360192
-0.12520446 0.0989408 -0.22671975 -0.032471813 0.051447444 -0.031247558 0.019619605 0.20816356
0.09575433 0.09694746 -0.009278762 -0.07777285 -0.06699105 -0.03999069 -0.022219554 -0.031743106
-0.016935457 -0.104513235 -0.002704307 -0.27855518 0.074394695 0.1865988 -0.25004226 -0.14458713
-0.02806786 -0.1619511 0.2859963 -0.17070454 -0.073041596 0.016756529 -0.44320235 -0.09410173
0.121277735 0.062444173 0.15373643 -0.14781775 -0.058720052 -0.10157925 -0.16889718 -0.25460815
-0.18073627 0.037750073 -0.30735818 -0.21767038 -0.032489967 -0.22599098 0.08245298 -0.22108448
-0.20426367 0.13871658 -0.06419671 0.1405294 0.113785274 -0.14810887 0.060398698 -0.35231096
-0.20091811 0.08084203 0.04143648 0.013348408 -0.031481463 0.07668861 -0.2109673 -0.090786956
-0.026811576 -0.19172995 0.08911283 0.123216346 -0.04876941 0.05102497 0.066439025 0.07542368
0.09538298 -0.089395784 -0.018688526 0.038609218 -0.117289595 -0.048597455 0.010224093 -0.06640265
0.11506321 -0.009357641 -0.07560507 -0.04788682 0.11652017 -0.020044338 0.059751265 0.022894574
0.20639853 -0.09342288 0.10302854 -0.1087946 0.036439095 0.06278176 0.053329114 -0.08111344
0.07353286 0.094394885 0.047805946 0.010582771 -0.20652816 0.16315041 0.014763864 0.17270698
-0.07447216 -0.13797624 -0.20083442 -0.020427221 -0.065747105 0.021514725 -0.0890044 0.09108789
-0.11009155 -0.051908683 -0.045030884 0.08893162 0.10426662 0.024714649 -0.06887812 -0.055273086

convs.0.bias f4 [128]
00000000: 8710 6ebd 7bff f9bd 4d82 a1be 386a 8ebe
00000010: 1434 59bc a12e 8dbe 726f 9fbe ca67 b4be
00000020: 4b3e 93be 7fb6 1dbe 1ced 3abd 321c adbe
00000030: 7a08 89be ce6b 1ebd bdac 48be cac5 25bc
00000040: 587e 13be 9e20 4cbe 92c7 bfbe c397 02be
00000050: 2b63 f6bd cac5 d8bd 5a4c d5be 1abf f8be
00000060: 29ac e2b8 9532 cfbe f06a 93be 8be3 13be
00000070: a8eb 9bbe 16bd 1cbe 0986 a2be 47ba 28be
00000080: 1f82 dabe 5dfb 91be e0ed a7bd 9bf5 01bf
00000090: 4249 cebe 329b 46be b7d5 a9be 41d8 9dbe
000000a0: b099 aebe 27a7 f9be e735 b3be 20ef 9cbe
000000b0: 7591 94be 09cd 15be e04f ecb8 e478 e8bc
000000c0: 2048 b4be ac2b 87b8 0648 edbd 2d90 06bf
000000d0: 26df 60be f841 afbd 3b71 44be 546b c0be
000000e0: 7ac4 bbbe c20c b0be 33d8 d1be bb1a 90be
000000f0: 6006 d2be bd1d 4ebe e688 b1bc 1502 abbe
00000100: a24b 35be d1ac fcbe 5f9f eebe 8bfb 53be
00000110: 48cb b1be 66d8 dcbd 635b d2be 7b6e 82bd
00000120: db62 d3be 33d2 57be 1a20 d9bd fc86 ccbe
00000130: 1bb5 cebe 5ccb 87be 15c5 0abe 63dc 85be
00000140: f12e a4bd c930 98be 62f4 d1bd 291f b5be
00000150: 15ff 03be 0ae2 3ebe b4df 53bd 5e9e d9bd
00000160: bed4 9abe 4018 13be e4de 52bd c12c abbe
00000170: b6c3 f0be 4759 eebd 8322 b0be 88fc cdbe
00000180: 1c8f 87be 441d dfbe aa8d edbe 5c91 dfbe
00000190: a677 b9be 75d3 7fbe 1cbb d4be 8985 8ebe
000001a0: bc49 e3be c1de 77be 4ede 8fbd f97a c2be
000001b0: 40c8 5fbe 720b afbe ddfe 91be cdc9 d2be
000001c0: 3580 98bd ff6b 4abe 7c7b 86bd 5d68 b0be
000001d0: 9c61 87be ed2b edbc f8b6 82be 4071 c3be
000001e0: 295b f1bd 03a8 27ba ca74 e4be 582d b3be
000001f0: 4e35 6fbe c0b6 1abe 43f3 cbbe 3799 a3be
-0.05812123 -0.12206932 -0.31544724 -0.27815413 -0.013257045 -0.27574638 -0.31139714 -0.35235435
-0.28758463 -0.15401648 -0.04563628 -0.33810574 -0.2676428 -0.03867703 -0.19597144 -0.010117957
-0.14403665 -0.19934317 -0.37456948 -0.12753205 -0.120306335 -0.105846 -0.41659814 -0.485833
-0.00010808587 -0.4046828 -0.28792524 -0.1444227 -0.3045323 -0.15306506 -0.31742886 -0.16477309
-0.426774 -0.28512087 -0.08199668 -0.5076539 -0.40290266 -0.1939514 -0.33170864 -0.3082905
-0.3410163 -0.4876034 -0.35002062 -0.30651188 -0.29017225 -0.14628996 -0.00011268235 -0.028377958
-0.35211277 -6.445436e-05 -0.11586003 -0.52563745 -0.21960124 -0.085575044 -0.19183819 -0.37581885
-0.36673337 -0.34384733 -0.4098526 -0.28145394 -0.4102049 -0.20128532 -0.021671724 -0.33400026
-0.17704633 -0.49350598 -0.46605965 -0.20701425 -0.34725404 -0.10783462 -0.41085348 -0.06368729
-0.41286358 -0.21076278 -0.10601826 -0.39946735 -0.40372548 -0.26522338 -0.13551743 -0.26144704
-0.08016766 -0.2972472 -0.102516904 -0.35375336 -0.12890275 -0.18640915 -0.05172701 -0.10625909
-0.30240434 -0.1436472 -0.051482096 -0.33432582 -0.47024316 -0.11638122 -0.3440133 -0.4023173
-0.2647637 -0.43577015 -0.46397144 -0.43665588 -0.36224097 -0.24983008 -0.41549003 -0.27836254
-0.44392192 -0.24206068 -0.07024823 -0.37984446 -0.21853733 -0.3418842 -0.28514758 -0.41169587
-0.074463286 -0.1976776 -0.065665215 -0.34454623 -0.26441658 -0.02895161 -0.2553022 -0.3817234
-0.117849655 -0.000639558 -0.44620353 -0.34995532 -0.23360178 -0.15108776 -0.3983403 -0.3195283

convs.1.weight f4 [128, 20, 9]
00000000: 810b d4bd f224 2ebd 1973 8b3d a1a8 bdbb
00000010: 3d79 ed3a fbe6 2cbd 2090 af3c 69d3 843d
00000020: e44f 1cbe 3a18 e6bd e93c ebbd aba2 80bc
00000030: b8fc 5fbd f8e8 babc a331 5ebd 202f 083d
00000040: d03f 57be 1ee9 aabd c4d7 8dbe 45ad 99be
00000050: fd53 47be f177 2fbe 1f92 66be 0172 aebe
00000060: 8ff6 d2be 0cf5 a2be 897c 55be d235 37bd
00000070: 1ac4 5abe f228 b6be a81e 62be d0e3 9cbe
00000080: aaec 14bf d557 43be c268 b1bd 9cef 33be
00000090: 19df 9e3c 2161 613e 8090 cb3c d55e 3a3d
000000a0: 7fa3 193e 57cd 933d c27b 873c 7d0b 9f3d
000000b0: 33f2 073e c85a 5fbe 6d19 17be 21f3 033d
000000c0: abab c2bd 2998 2cbe aaa7 01be 1395 2dbe
000000d0: c26f 36be 42d6 8ebd 9510 2fbe b42a 42be
000000e0: f75c a6bd e10f 6cbe 47b0 33be a140 adbe
000000f0: 25f1 a7bd 633e 7bbe b642 16be f011 843d
00000100: b39e 05be f540 3ebe 1456 50be 5b24 e33d
00000110: c6f8 7dbe a396 fe3d 07aa cfbd b70a 2abe
00000120: 9d75 3abe d14b 65be 06f3 0fbd 4404 b5bd
00000130: 42aa cbbe 1205 dabe 717d d8be fe28 83bd
00000140: c29d 59bc e3f1 f9bb ca58 4c3d a1fa 003e
00000150: 70c0 8e3d ab6b f03d 77e1 cd3a 6858 f33c
00000160: 531d babc e3a7 4c3c 215c 2c3e 371e 153e
00000170: 3d5b 023e 4dc0 dd3d 8c7d 2d3e d284 cb3d
00000180: 2de7 f43d e296 0f3e 6a8d 203d f632 ebbd
00000190: b799 8abe 4751 13be 3665 22be 3016 49be
000001a0: 3245 89be 594f 48bd 060d 09be 642a 3bbe
000001b0: 3477 633d 57a0 263d 6ff5 0b3e 8bc2 493e
000001c0: 2c4b b13d 5089 d73d 5886 703e aa7b 89bc
000001d0: 1bde 66bc 7850 f43d 9e51 8e3e 5286 283e
000001e0: a7ff 393e 50aa 1a3e 699c c73c 5645 b53d
000001f0: 2bc4 013e a31f 0f3e d221 103a 09bc 8abb
00000200: c367 8e3d ee90 9cbd 0515 e1bd cb7f 213d
00000210: f47e 9b3d 9e63 4f3e 478f 8b3d 389b 01be
00000220: 5de2 b43d 8ef9 113c 7bc6 1abc e835 bcbd
00000230: 4e78 1cbe 12db 463a 220a cabc da6f e23c
00000240: 788c 0f3d f756 4fbd 3f53 5b3e a033 88bd
00000250: 0d60 a83d 9caa 03be 898d 983c 2eeb 94bd
00000260: 2d62 653c 98ab 213e 2789 8c3e 058a 423e
00000270: 1a0a e73c 5777 833d 494d aa3e 717d ae3c
00000280: 02d5 f73d 252d 9e3d 6749 ec3c 3704 9d3d
00000290: 9fb3 c1bc 752b 37bc a04b 4dbd 68a8 5ebc
000002a0: bc77 6fbd 12a7 a63d f45b 40bc e794 3f3c
000002b0: f3c6 6cba b5cd a13d f6e5 933d 506a 833d
000002c0: 15dd af3d 70ff 823d 299e 9e3d 9542 90bd
000002d0: 01fc 643c 85e8 f53c e54e 8b3d 1ef0 8abd
000002e0: f5e5 673c 16cf 09bd 508c 04bc 8da8 4b3d
000002f0: 8e30 8dbc f4d6 86bc 363d 993c bff8 c23c
00000300: 5774 56bd e381 373c d99f 4dbd 90be 823d
00000310: 401f c33c 6e90 a7bc de58 d23b 9073 96bd
00000320: d142 30bd b676 a7bb 3ec0 9ebc 47db 4c3c
00000330: f6a7 f7bc 38f7 e13c 2e6d 1b3c 4818 01bd
00000340: e982 bb3c b380 833c 9327 67bd 79fb 35bd
00000350: 6452 02bd 5ec5 dd3a bdd5 75bd fa07 39bc
00000360: f0a9 cdbd 54cf 633d 469c 233c 3f69 eb3c
00000370: 1b9e 8d3d 81e5 2ebc 8fcf 163b 5e1d 033d
00000380: be2c 31bd 058c 163d f3b8 603b b21a 363d
00000390: 5b11 c7bc 6ea6 2dbd b924 213d 5f51 93bc
000003a0: 4916 f5bb 5167 253d 4043 fabc 094c 10bd
000003b0: f327 00bd 87e2 98bb 346a 01bc 17a4 eebc
000003c0: b9f6 2e3d 306c 80bd 1b25 e13b 4bd8 33bd
000003d0: b082 aebd db6b 50bd 52a1 b13c b572 88bd
000003e0: 6c47 cdbb abc2 3dbd 78c7 c1bb 6a84 bc38
000003f0: 9174 81bd 756a 3bbb 9bae 0b3c 4fdd 75bc
-0.10353757 -0.042515703 0.068090625 -0.0057879244 0.0018117797 -0.042212468 0.021431029 0.06485636
-0.15264851 -0.112350896 -0.11486227 -0.015702566 -0.05468437 -0.022816166 -0.054246556 0.033248067
-0.21020436 -0.08345245 -0.2770368 -0.30015007 -0.19465633 -0.17135598 -0.22516678 -0.34071353
-0.41203734 -0.3182758 -0.20848288 -0.04472906 -0.2136387 -0.35578114 -0.22082007 -0.30642557
-0.5817362 -0.19076474 -0.08662559 -0.17571872 0.01939349 0.22009708 0.024849176 0.045500595
0.15003775 0.072169 0.016538505 0.07765863 0.13275985 -0.21811974 -0.14755793 0.032214288
-0.09505399 -0.1685492 -0.12661615 -0.16951399 -0.1781607 -0.0697446 -0.1709617 -0.18961602
-0.081232004 -0.23052932 -0.17547713 -0.3383837 -0.082002915 -0.24535517 -0.14673886 0.06448734
-0.1304882 -0.18579467 -0.20345336 0.11090919 -0.24801931 0.124310754 -0.10139852 -0.1660565
-0.18208928 -0.22392203 -0.035143875 -0.08838704 -0.39778334 -0.42581993 -0.42283204 -0.06404303
-0.013282241 -0.007627712 0.049889363 0.12595607 0.06970298 0.11739286 0.0015707453 0.029705241
-0.022719061 0.012491199 0.1683202 0.14562307 0.12730117 0.10827694 0.16942424 0.09937443
0.11958156 0.14022401 0.039197363 -0.114843294 -0.270704 -0.14386474 -0.15858921 -0.1963737
-0.26810604 -0.048903797 -0.13383874 -0.1827789 0.055533603 0.040680256 0.13667844 0.19703119
0.08656916 0.10524237 0.23488748 -0.0167826 -0.01409104 0.11929411 0.27796644 0.16457489
0.1816393 0.15104032 0.024366574 0.088511154 0.12672488 0.13976912 0.00054982037 -0.0042338413
0.06953385 -0.07644831 -0.10990337 0.039428513 0.07592574 0.20252845 0.06814437 -0.12656868
0.08832238 0.008909596 -0.0094467355 -0.09189969 -0.15280268 0.00075857446 -0.024663035 0.027641226
0.03504607 -0.050620046 0.21418475 -0.06650472 0.08221445 -0.12858051 0.018622177 -0.072714195
0.014000458 0.15788114 0.2744839 0.18997963 0.028203059 0.06419247 0.3326209 0.02130005
0.12101175 0.077234544 0.028843595 0.076668195 -0.02364522 -0.011179795 -0.05012095 -0.013589956
-0.058463797 0.08137335 -0.011740673 0.011693216 -0.0009032331 0.07900564 0.07221596 0.06416762
0.0858709 0.06396377 0.077450104 -0.070439495 0.013976098 0.0300181 0.06802157 -0.0678408
0.014153947 -0.03364476 -0.008090094 0.04972129 -0.017235067 -0.01645992 0.018705945 0.023800252
-0.052357044 0.011200401 -0.05020127 0.06384003 0.023818612 -0.020454612 0.006419285 -0.073462605
-0.04303247 -0.005110587 -0.019378778 0.012503452 -0.030231457 0.027583703 0.00948648 -0.031517297
0.022889571 0.01605258 -0.056434225 -0.044429276 -0.031816855 0.0016919782 -0.06001829 -0.011293406
-0.10042179 0.055617645 0.009985989 0.028736709 0.06914922 -0.010674835 0.0023011898 0.03201043
-0.04325556 0.036754627 0.0034289926 0.044459052 -0.024300268 -0.042395048 0.039341662 -0.017983137
-0.0074794632 0.040381733 -0.030549645 -0.035228763 -0.0312881 -0.004665676 -0.007898856 -0.029130979
0.04271576 -0.06270635 0.0068708784 -0.043907445 -0.085210204 -0.05088411 0.021683369 -0.06662504
-0.0062646177 -0.046328228 -0.005913671 8.9892026e-05 -0.063210614 -0.002859739 0.008525516 -0.015006377

convs.1.bias f4 [128]
00000000: 1a34 93be 7e73 edbe 6f95 81be f650 25be
00000010: ec66 82be 44fc b5be 4984 f6bd 07f1 89be
00000020: 93cd b6be a672 d1be 4e14 b0be cc5b 0dbd
00000030: b114 dfbe 731b 00bf ffaa a7be 95ad 90be
00000040: 3028 fdbc db1a b7be 6892 35be 71c7 60be
00000050: 581c 83be 0fbc 5abe 2e39 b7be 3a6a c0be
00000060: f981 c5be 7454 84be ff9d 27be 9f3f 8ebe
00000070: 8a92 92be 4b3f cabe cef5 93be fdb7 7ebe
00000080: fbd3 ffbd 26a1 2cbd 6e3c b1be d745 f2bd
00000090: a8c2 4cbe 523a 99be 7f1f a9be e0ae 4dbe
000000a0: 2fbe 80be 7c0f eebe e331 74be e1e7 a3be
000000b0: 6fc1 dbbe 2e0f ccbe 3774 8dbe 88ea 37be
000000c0: f4ca d1bc 7a01 3bbe 55b7 68be 0a32 9ebe
000000d0: 53a2 aaba 41c4 72be 47c0 9abe df7a abbe
000000e0: cc15 3dbe 8cf5 82be ad6c 06bf 4cc2 0fbe
000000f0: 07ac c4be f481 c6be e06c 83bc 7021 42be
00000100: 76b7 85bd fe73 c7be e00b eebd fc67 54be
00000110: b30d c5be c8c1 67be a617 46be 3e92 e3bd
00000120: 6077 5dbe 48e5 c6be 4b40 dabe 2f8b 93be
00000130: 59e3 f6bd cfb2 94be 652a 29be 08d7 a9be
00000140: 4e67 d4be abb7 8abe b251 10bd c0e5 d8be
00000150: 7735 b6be d992 6ebd c884 97be 70b8 a1be
00000160: 8331 a7be a7ff 91be 468c 9cbe 89ea 9abe
00000170: 03a5 80be 137c b8be 4371 8fbe e9f6 bbbe
00000180: 34b6 b7be 5be2 f1be fa57 7fbe f5dd 88be
00000190: 55ad cfbe a910 c3be 87fa d5be 36b7 07be
000001a0: a956 81bd 5c5f 80be 2f57 c1be fd44 7cbe
000001b0: 41e3 7ebe 3eaf debd cf18 dbbe 74fc 90be
000001c0: d0ca cbbe d4d2 9dbe 78af 81be 7703 88be
000001d0: 6a09 afbb fab4 b3be 8aa6 75be 6d9e ddbe
000001e0: e3a1 8ebe 7704 0bbd cff6 c1be 7edc 89be
000001f0: f388 57be 7e24 b2be d9db 90be c0ae 1cbe
-0.28750688 -0.46377176 -0.2530932 -0.16144165 -0.25469148 -0.35544026 -0.1203695 -0.26941702
-0.35703716 -0.40907782 -0.3439049 -0.034511372 -0.43570474 -0.50041884 -0.32747647 -0.28257433
-0.030902952 -0.35762677 -0.17731631 -0.21951081 -0.25607562 -0.21360801 -0.35785812 -0.37581044
-0.38575724 -0.25845683 -0.16368864 -0.27782914 -0.28627425 -0.39501414 -0.28898472 -0.24874873
-0.12491604 -0.04214587 -0.34616417 -0.11829727 -0.1999613 -0.29927307 -0.33031842 -0.20086241
-0.251451 -0.4649619 -0.23847155 -0.32012847 -0.42921016 -0.3985533 -0.27627727 -0.1796056
-0.02560947 -0.18262282 -0.22726186 -0.30897552 -0.0013018347 -0.23707677 -0.3022482 -0.3349218
-0.18465346 -0.25577962 -0.52509576 -0.14038962 -0.38412496 -0.3877102 -0.016043127 -0.18958068
-0.06529133 -0.38955683 -0.11623359 -0.20742792 -0.38487014 -0.22632515 -0.19344959 -0.11111878
-0.21627569 -0.38846803 -0.42627177 -0.28817126 -0.12055082 -0.2904267 -0.16520078 -0.33171868
-0.41485065 -0.27093253 -0.03523416 -0.42362785 -0.35587665 -0.058245514 -0.29593492 -0.31586027
-0.32654962 -0.2851536 -0.3057577 -0.3025706 -0.25125894 -0.3603216 -0.280161 -0.36711815
-0.35881197 -0.47243008 -0.24935904 -0.2673184 -0.4056193 -0.38098648 -0.417927 -0.13253483
-0.06315357 -0.25072753 -0.37761828 -0.24635692 -0.24891378 -0.108732685 -0.42792365 -0.28317606
-0.3980317 -0.30824912 -0.25329185 -0.26565143 -0.0053416984 -0.35099012 -0.23989311 -0.43284932
-0.27857885 -0.033939805 -0.37883613 -0.26926035 -0.21048336 -0.34793466 -0.2829273 -0.15301037

convs.2.weight f4 [128, 20, 13]
00000000: 217d dd3c 3217 b0bd 7cd5 33bd c69d 18bd
00000010: 872a 31bc 93db 03bd 7798 f63c 64fe 11bd
00000020: 9045 0cba f14a 01bb 1e3a 83bb 458c 103d
00000030: 73f9 9cba 4de0 3cbe d7ab a4bd 627e c9bd
00000040: c915 92bc 0950 c2bc dd6e 89bc 2613 35bd
00000050: 58ea fa3c 7fec e7bb b0fd 3b3c e2cf cbbc
00000060: 4008 46bb af28 48bd df39 8cbd f14f 113e
00000070: ed6a a23c d1c7 8fbc 3adf e2bc a297 51bd
00000080: 699a d33c 4d72 a33c b7dd 49bd c098 72ba
00000090: ed8d babd cb2e 1cbd 1523 eebc d3cf b83d
000000a0: b78c e03d 7a02 9fbb 55bc d5bc faa6 3cbd
000000b0: 8e3f e1bc bc8d fd3c e7f1 84bd 38f3 68bc
000000c0: 31c8 133d 6732 53bd bcf8 febc c8dd db3c
000000d0: ea13 dbbd 3bf2 aebd 49b6 a03d 375e a93b
000000e0: 373d a4ba 0bc8 6bbd ba0d a7bd 3682 92bc
000000f0: e738 af3c 435f c6bc 5cab 21bd 99b9 c83c
00000100: 55f3 393d 39b1 73be 4671 823d f49d afbd
00000110: 874d b1bd bbc6 b63c 74e1 983c 0e6c 4d3a
00000120: 036a 25ba e6a1 21bd 7fa3 36bc 7f75 5c3b
00000130: ef2a 82bc 697c 5c3d d823 87bd a047 a33d
00000140: 0998 37bd b17f 5fbc 6d01 21bd 72db afbc
00000150: 82f3 66bd 22aa 6f3c a2b7 babc bc3e e0bb
00000160: 32c2 8cbd 1b91 8e3c 9ea0 a9ba 8735 0e3e
00000170: 6f59 913d 6250 50be 4e12 91bd 5144 f93c
00000180: 7697 a3bd 5b1b aa3b 249e 47bc 42bb 8fbd
00000190: 0879 20ba 0bba c4bc 33b7 47bc 5c95 a4bd
000001a0: 477c f2bd 8508 6a3e f385 60bd 4ac9 81bd
000001b0: 51a4 4ebd 4bd6 b7bd b9a2 023b 6d74 b8bd
000001c0: ee45 493b 9799 1dbd 21dc b2bd 81a2 76bd
000001d0: 706c a03b 016b 63bd d964 53ba c010 03be
000001e0: 78ae 5ebd 769e 203d 2afe b43c e01f 31bd
000001f0: d07f 9bbd 52b7 babc 61aa cabc dc07 42bb
00000200: 6401 7bbd 5e86 06bd 41c7 61bc 1a72 223d
00000210: a52f 32bd 2371 3d3d af27 0a3c d8ad 55bd
00000220: be29 39bd 055c 4cbb 76ac aa3a b2b8 7ebc
00000230: b0b4 0c3d 84e7 093d 781f cfbb f6c6 05be
00000240: d562 1bbd 19d0 02be 8e78 16bb ecdb 45bd
00000250: 53d0 75bd 50dd 2b3d e14f 64bd 2b81 1c3c
00000260: aed0 fcbc 6e22 afbc b432 debc 501a 68bd
00000270: 5d67 a0bc 9ebd 8fbd 835a f8bd dd5e b3bc
00000280: a7df 943d bd95 2e3d baf0 aabd cfbf 13bd
00000290: 2c92 623c 5812 88bc 23ba 9bbd eef0 06bd
000002a0: 86ac 72bc df0e 18be 5577 eb3d eaf3 febd
000002b0: b293 b93c 139f 403d be51 78ba d788 6dbd
000002c0: 746d 25bc 2e7e d9bc a0f7 25bd 8811 003d
000002d0: d0e1 5ebd 25e2 97bd cf02 55be 42d0 f6bc
000002e0: cd38 883d ac37 953b 89da 8abc 0ca8 57bc
000002f0: 9d11 733b 3fa6 f13c 044d 123d 91e2 c4bc
00000300: 3c26 203d 22d0 063d ad00 29bc ef78 873c
00000310: 30ac cb3d bd90 03be d4ae 4bbd 3288 a6bc
00000320: 70ee 123d 3662 c9bc 0bc2 38bb e84a 6d3b
00000330: 614b 90bd f515 45bd 84b0 ad3b c180 e8bb
00000340: db83 54b9 7ee6 07bc 813c e8bc 6654 1f3d
00000350: a121 2ebd a11d 27bd 2b5d a5bc 72fc 453d
00000360: 202d d3bc d855 193d 2091 72bd e7dd 20bd
00000370: 46ff b0bd d278 57be 5fbc 4d3e 51a9 ebbd
00000380: 198f b43c 0756 063b 8859 d83b 0328 3dbd
00000390: 498a 253e 064e 00bd edec 323c 75b9 f73b
000003a0: 4316 2cbd dd88 ebbc 0dc5 90be 806d 423e
000003b0: 23ef 35be 57a1 7e3d 731a 73bc bcc6 65bd
000003c0: 715d 9abd 1414 53bd 1d7a a8bc de27 c63c
000003d0: ecc0 57bc a95d c7bc e90b 6e3c cab7 87bd
000003e0: d284 8dbd c9e5 21bd bdd0 80bc 7a45 cebb
000003f0: 615e c4bd 6db7 e8bb 6e1e d8bc b9a2 aebc
0.027037205 -0.08598174 -0.043904766 -0.03725984 -0.010813362 -0.032191824 0.030101998 -0.035642996
-0.0005350942 -0.0019728506 -0.004004731 0.03529002 -0.0011976197 -0.18444939 -0.08040588 -0.09838559
-0.017832654 -0.023719804 -0.016776497 -0.044207714 0.030629322 -0.007077753 0.011474058 -0.0248794
-0.003021732 -0.048866924 -0.068469755 0.14190651 0.019826377 -0.017551335 -0.027694333 -0.05117
0.025830464 0.019951964 -0.04928371 -0.0009254329 -0.091091014 -0.038130563 -0.029069463 0.09024014
0.10964339 -0.00485259 -0.02609078 -0.04605768 -0.027496126 0.030951373 -0.06491452 -0.014218144
0.03607959 -0.05156174 -0.031124465 0.026839152 -0.10697158 -0.085422955 0.07847268 0.005168702
-0.001253045 -0.057563823 -0.08156915 -0.017884355 0.021389438 -0.024215346 -0.03947006 0.024502562
0.045398075 -0.23798074 0.063692614 -0.08575049 -0.08657365 0.022311559 0.018662192 0.0007836231
-0.00063100475 -0.03946104 -0.011147379 0.003363937 -0.015889613 0.053829584 -0.065986335 0.07972646
-0.044822726 -0.013641284 -0.039308 -0.021466944 -0.05638457 0.014627965 -0.022792641 -0.006843416
-0.06872977 0.017403176 -0.0012941544 0.13887607 0.07097136 -0.20343164 -0.070835695 0.030428084
-0.07987873 0.0051912493 -0.0121837 -0.070181385 -0.00061215507 -0.024014493 -0.012189674 -0.080363005
-0.1184011 0.22854812 -0.054815244 -0.06337221 -0.050449673 -0.0897642 0.0019933416 -0.090065815
0.0030711847 -0.038476553 -0.087333925 -0.06021357 0.0048957393 -0.05552197 -0.00080640387 -0.12799358
-0.054365605 0.03921362 0.022093851 -0.04324329 -0.07592738 -0.022792492 -0.024739446 -0.0029606735
-0.061280623 -0.032842986 -0.013780416 0.039659597 -0.04350247 0.046250474 0.008432313 -0.052167743
-0.045205824 -0.0031182778 0.0013021368 -0.0155469645 0.034352005 0.033668056 -0.00632089 -0.13064179
-0.03793605 -0.12774695 -0.002296004 -0.048305437 -0.060013127 0.041959107 -0.05574024 0.00955228
-0.030861225 -0.021378722 -0.027123787 -0.05666572 -0.019580537 -0.070185885 -0.12126639 -0.02189582
0.07269221 0.04262327 -0.08346696 -0.036071595 0.013828795 -0.01661031 -0.07603862 -0.032944612
-0.014811641 -0.14849423 0.1149737 -0.12448867 0.022653434 0.047026705 -0.000947263 -0.05799183
-0.010096896 -0.026549425 -0.040519357 0.03126672 -0.05441457 -0.074161805 -0.20801853 -0.030128602
0.06651459 0.0045537557 -0.016949909 -0.013162624 0.0037089356 0.029498218 0.03571798 -0.024033817
0.039098963 0.032913335 -0.0103151025 0.016537158 0.099449515 -0.12848182 -0.049727276 -0.020328615
0.035871923 -0.024582963 -0.002819183 0.0036207978 -0.070456274 -0.048116643 0.0053005833 -0.007095427
-0.00020267015 -0.0082947 -0.028349163 0.038898848 -0.04251254 -0.04079974 -0.020186028 0.048336454
-0.025778353 0.037435383 -0.059220433 -0.039274123 -0.086424395 -0.21042183 0.20091389 -0.11506904
0.02204089 0.0020498054 0.00660247 -0.046180736 0.16166033 -0.03132441 0.010920745 0.00755995
-0.042013418 -0.028751785 -0.28275338 0.18987083 -0.17767005 0.062165584 -0.014837849 -0.05609773
-0.07537354 -0.05153282 -0.02056604 0.024188932 -0.013168555 -0.024336653 0.014529207 -0.06626852
-0.06910099 -0.03952578 -0.015724534 -0.0062949033 -0.09588314 -0.007101944 -0.026381698 -0.021317827

convs.2.bias f4 [128]
00000000: 69f4 68bd 0da9 1e3f c698 abbe 19df a0be
00000010: e478 91be 1497 94be 3a74 dabe b932 a8be
00000020: 8f04 6ebe fa52 82bd 98e9 b3be 1691 9dbe
00000030: b56e c9bd a6e8 4cbe d9d0 fdbd dc95 82be
00000040: c643 a5be b19d 85be 0def e3bd 0310 03b8
00000050: d8a2 8fbe a091 89be bc3b 2fbe 71ed 77be
00000060: 10be fbbd a975 98be 59ce adbe db56 b4be
00000070: b9ab 4fbe 47d3 b7be a858 a4be dde7 663e
00000080: 1713 d0bd 9c3f b5be 3231 ccbe dc6d 9c3e
00000090: 6d98 09bd be08 5fbe 6e15 84be a54c a4be
000000a0: 2d67 83be 32da 6dbd 5385 9fbe fd3a 36bd
000000b0: e1a9 00be b8f5 c8be cacd a7bd b8f2 b4be
000000c0: ddf4 c8bb d2c7 69be 7bef 1ebe 1069 d7be
000000d0: d7a1 96be 59d6 a6be 61ad 8bbe 9fbf 92be
000000e0: 82b4 3dbe 81ae 86be aa90 8bbe 02a4 f0bb
000000f0: 12a8 88be b470 b9be 5725 7dbe 1b34 4ebe
00000100: 836a 92be 3658 a3be 3b8b a3be 90f8 c5be
00000110: 67c9 87be 750c 7dbe 3f09 45be e9ee c5be
00000120: d4d6 cabe 9ac6 53be b142 a2be cdb9 8fbe
00000130: e2bf aabe 4dd3 07be e0e0 7cbe 191d 39be
00000140: 27ac 39be ab90 4bbe 11e4 bdbe e6f7 a0be
00000150: bad5 34be f4c1 a8be b6f3 9abe 63ef a3be
00000160: 966a 83be c43b 74bd e527 92be 3cb1 69be
00000170: 262a 72be 3f38 a1be 9901 cebe ca01 1bbe
00000180: 2aa2 afbc 1bc1 90be 5b17 36be b91f e1be
00000190: aede b0be 2953 b8be f4ff b0be 710e 49be
000001a0: 1714 6bbe c78a 30be 3868 20bc 05eb 5dbe
000001b0: 70fc cebe ed12 b5be a581 0cbe 7bed bbbe
000001c0: 1118 d8be 46e0 d1be f43a 12be 585c ffbd
000001d0: 5e67 a1be 3cc9 a1be d191 a4be 3984 bebe
000001e0: c339 40be 0495 9cbe b523 4dbc 84a4 18ba
000001f0: 8356 bfbe e4de 96be db59 bebe 088c babe
-0.056873713 0.619767 -0.33514994 -0.3142021 -0.28412545 -0.29021513 -0.426668 -0.32851198
-0.23243926 -0.06363483 -0.35139155 -0.30774754 -0.09835569 -0.20010623 -0.1239335 -0.2550496
-0.3227827 -0.26096871 -0.1112958 -3.1247746e-05 -0.28053927 -0.26868916 -0.1711263 -0.2421167
-0.12292111 -0.29777268 -0.33946493 -0.35222515 -0.2028035 -0.3590338 -0.3209889 0.22549386
-0.10159891 -0.35400093 -0.39881283 0.30552566 -0.03359263 -0.21780679 -0.257976 -0.32089725
-0.25664654 -0.058069415 -0.31156406 -0.04448985 -0.12564804 -0.3924997 -0.08193548 -0.3534143
-0.0061327056 -0.22830132 -0.15521042 -0.42072344 -0.2942035 -0.3258541 -0.27280715 -0.2866182
-0.1852589 -0.2630501 -0.27258807 -0.00734377 -0.26690727 -0.36218798 -0.24721275 -0.20137064
-0.28596887 -0.31903237 -0.31942162 -0.386662 -0.26520845 -0.24711783 -0.19241808 -0.38658836
-0.39617026 -0.20681229 -0.31691507 -0.28071442 -0.3334952 -0.13264199 -0.24695158 -0.18077506
-0.18132077 -0.19879405 -0.37088063 -0.31439131 -0.17659655 -0.32960474 -0.30264062 -0.32018575
-0.25667256 -0.05962731 -0.28546062 -0.22821516 -0.23648891 -0.31488225 -0.40235594 -0.15137401
-0.02143963 -0.28272328 -0.17782347 -0.43969515 -0.3454489 -0.36000946 -0.34570277 -0.19634415
-0.22956882 -0.1724044 -0.009790473 -0.21671684 -0.4042697 -0.35366002 -0.1372133 -0.3670462
-0.4220586 -0.4099142 -0.14280301 -0.12468785 -0.31524175 -0.31598842 -0.321425 -0.37210253
-0.18772034 -0.3058244 -0.01252072 -0.00058228546 -0.3737069 -0.29466927 -0.3717793 -0.3643496

decoder.0.weight f4 [1, 384]
00000000: de71 d2bd b851 143f c46c 82be 0bd7 f2bd
00000010: 2161 a13e 55ba ce3f b5f6 363e c7e6 483f
00000020: d533 6bbf bcd5 53bd 1913 fd3e d1bd fdbd
00000030: d9d1 223c 0153 863f 7928 48bf 4b3a 823e
00000040: 7140 92bd c97c 2a3f 29a8 983e 2a5f 6fbe
00000050: ee9e 6b3f 930b 27bf 8de3 1540 2a22 fd3d
00000060: 12cb 543f d0b5 33bf 02b7 66bf a324 423e
00000070: a7de bf3e 9b63 5f3f 8b13 f2bd 3783 11bf
00000080: 065f 29bf 91bd ddbc fa3f 803f 42de 88bb
00000090: c97e 82be 2fb2 e4be f0fd 813d bcc7 e73e
000000a0: 1151 8f3f ac57 c4bd 8904 b53c 9a82 ee3e
000000b0: 69db a03f 1200 423f 7676 fd3e a854 28bf
000000c0: 6568 d43d fd15 603e 28c5 b03e b5e3 423d
000000d0: bd57 dd3e 81e5 ff3e 4783 0b3f 8400 5abf
000000e0: bf69 403e 3896 e6bc f4e4 96be 288e c43e
000000f0: 94ec eb3f bdf2 ab3f 8e97 61be 313f 96bd
00000100: 1344 053e 54bb c8be f4db b8bf 44f4 53be
00000110: bfe7 a8bc e31b 353e 830b df3c 34aa dfbe
00000120: 7394 53bf 9f57 39bf 983c aabe b4b6 363f
00000130: 1b15 433d 4d18 6b3f e1ee 10bf fd78 c7bb
00000140: ebc4 ee3e c63a 873f e6e1 4a3f a0c8 e5bd
00000150: 8b2f 413f af9d 573f 69d9 a33f 7ca3 3f3f
00000160: eba3 2a3f 2a27 6dbe 4c2b ff3d 9614 f73c
00000170: 8dc3 13bf 3a32 8e3d 2698 483b 5f24 4dbf
00000180: 7adc ddbe 8598 93bd 0c65 143d ff78 95bf
00000190: 9517 d13b 6fc7 0d3f 7008 323e 3d72 58bb
000001a0: 74a0 ac3d 19bb db3f 1106 3d3e 27ab 27bf
000001b0: 2708 22bf 0a76 593e d98f 7fbf 9d06 59bf
000001c0: 4b9c 17be d9dd eb3f e341 2c3e 8c45 0dbe
000001d0: 9195 893f a059 6d3e c04d 203e 3236 05bc
000001e0: 92cf 50bf dc6d 353f b439 03be cdca e9be
000001f0: de7a 11bf 75e5 a03e 7073 f03e f077 a3bd
00000200: 0f75 d9be ecc0 db3b 3f31 6abf 6185 10bf
00000210: acf4 e03d a171 263e 057a 763f 3eee 6fbf
00000220: 92de 5ebe 4a30 eebb 88df 72bf 6603 143f
00000230: c831 5c3d 4d67 c93d 9f01 74bf 40ba 3fbd
00000240: adcb 003e 724c 953b 6ef5 26bd 2130 64bf
00000250: 1cd3 c8bd c415 703f ce1b 05be 78e5 b53b
00000260: ffce d33c 458e f5bc f5d0 55bf 1a3a 80bb
00000270: 260c a2bf ecdc 15be 0e55 e03c a220 823d
00000280: f25f 473f 0852 c33d 0f35 f33c eb9e 0abd
00000290: 71a0 a7bc 70f4 0dbd a096 6ebb 7abe 983c
000002a0: 0eb3 9b3c 2e5d e6bd f80d ecbf e459 1f3d
000002b0: ac89 5bbf 26b8 62bf fba8 91bc 79a8 96ba
000002c0: f09c 8f3f f51a 0cbf 0d76 053d 57f1 26bf
000002d0: a63b 3abf 8086 303d f887 14bc a02a 2f3d
000002e0: 75d3 af3c 8052 953d c643 cbbc 5bea f23d
000002f0: 7c2a d23d 242d 8c3c 5da4 7cbf edac d7bf
00000300: 1522 86bf 7c7d 783c 0d52 843e e8d4 86bf
00000310: acdb 78bd a14e 6abe 0f61 ab3c e4f4 3dbf
00000320: 0646 57bf e82a 2d3d 8f93 453d 5798 e1bc
00000330: a643 bc3c 07af dabc db9d 80bf 4a99 25bd
00000340: c3bd f83d 82a3 d13d 651d 583e c975 d13c
00000350: f01d be3c b566 98be b28c b73c 8604 56bf
00000360: 6b13 4b3b 9b2b b1be e109 69bc 4493 6dbd
00000370: 552b 3dbd cdf0 af3d c4fb 853d 4759 233d
00000380: ed09 c2bd 9509 45bb 494f 803d 98bd 80bf
00000390: 391f a5bb 3a9d f3be 58b1 2dba 8630 83bf
000003a0: ac11 85bf 83d1 dd3d e4ee c5bb 1ca3 62bf
000003b0: 3940 683f a069 c5bd 8478 963d 2cb9 5f3d
000003c0: 490a 643d 43dd 30bd 1eb0 30bd 1a29 8abf
000003d0: 4e98 6d3f ac58 a7bb f461 6abf 8bb2 bfbd
000003e0: b6bb 7e3d f3f6 293f 5fb6 b13d 0dae 3ebb
000003f0: ef64 093e f65a ee3b 9c39 abbd 2b04 00bf
-0.10275625 0.5793719 -0.25473607 -0.118574224 0.31519416 1.6150614 0.17867549 0.7847714
-0.91875964 -0.051717505 0.49428633 -0.1238972 0.009937727 1.0494081 -0.78186756 0.254351
-0.071411975 0.6659666 0.29815796 -0.23376146 0.9203938 -0.65252036 2.3420136 0.12360032
0.8312236 -0.701993 -0.90123 0.18959288 0.37474558 0.8726136 -0.11820134 -0.5684084
-0.6616062 -0.027067931 1.0019524 -0.004176886 -0.25487354 -0.44667193 0.06347263 0.45269573
1.1196615 -0.095870346 0.02209689 0.46584016 1.2566959 0.7578136 0.4950444 -0.65754175
0.10371474 0.21883388 0.34525418 0.04758044 0.43231001 0.49979785 0.5449719 -0.85157037
0.18790339 -0.028147802 -0.29471552 0.38389707 1.8431573 1.3433453 -0.2203047 -0.073362716
0.1301425 -0.3920542 -1.4442124 -0.20698649 -0.020618318 0.17686419 0.027227169 -0.43684542
-0.8264839 -0.72399324 -0.33249354 0.7137253 0.04762755 0.91833955 -0.566145 -0.006087421
0.4663461 1.0564811 0.79250944 -0.11219907 0.7546317 0.8422498 1.2800723 0.7485883
0.6665637 -0.23159471 0.1245943 0.030161183 -0.5772026 0.06943174 0.0030608266 -0.8013362
-0.43332273 -0.07206825 0.03622918 -1.167755 0.006380985 0.55382437 0.17386031 -0.0033027076
0.084290415 1.7166473 0.18459345 -0.6549553 -0.6329369 0.21236435 -0.9982887 -0.84775716
-0.14805715 1.8427078 0.16822009 -0.13796061 1.0748769 0.2317872 0.1565466 -0.008130597
-0.8156673 0.7087076 -0.12814981 -0.45662537 -0.56828105 0.31425062 0.46963072 -0.07981861
-0.4247212 0.0067063477 -0.91481394 -0.5645352 0.109841675 0.16254283 0.9627994 -0.93722904
-0.21764591 -0.00726894 -0.9487233 0.57817686 0.053758413 0.09834156 -0.95314974 -0.04680848
0.12577696 0.004556232 -0.040761404 -0.8913594 -0.09805891 0.9378321 -0.12998888 0.0055510364
0.02585554 -0.029975066 -0.8352197 -0.0039131762 -1.2659957 -0.14635056 0.027384307 0.063538805
0.77880776 0.095371306 0.029688386 -0.033842962 -0.020462247 -0.034656942 -0.0036405697 0.018645514
0.019006278 -0.11248241 -1.8441763 0.038904086 -0.85756946 -0.8856224 -0.017780771 -0.00114943
1.1219769 -0.54728633 0.032583285 -0.65212005 -0.72747266 0.04309702 -0.009065621 0.04276526
0.021463135 0.07291126 -0.02481259 0.11861106 0.102620095 0.017111368 -0.986883 -1.6849648
-1.0479151 0.015166637 0.2584385 -1.0533724 -0.06075637 -0.22881557 0.020920305 -0.742018
-0.8409122 0.042277247 0.048236426 -0.027538462 0.022981476 -0.026694788 -1.0048174 -0.04042939
0.12145569 0.10236265 0.21104963 0.02556886 0.023207635 -0.2976586 0.022405956 -0.8360065
0.0030986916 -0.3460358 -0.014223547 -0.05800177 -0.046183903 0.08590851 0.06542161 0.039880063
-0.094745494 -0.0030065526 0.062651224 -1.005786 -0.0050391224 -0.47580892 -0.00066258525 -1.0249183
-1.0396018 0.10830977 -0.006040441 -0.88530135 0.90722996 -0.09639287 0.07347205 0.054619953
0.05567387 -0.04317976 -0.04313671 -1.0793793 0.92810524 -0.005107006 -0.91555715 -0.09360226
0.062190734 0.6639244 0.08677363 -0.0029095442 0.1341741 0.007274027 -0.083605975 -0.5000636
