saved_models/model_09.pkl (torch_old, 281078 bytes, 7 tensors)

convs.0.weight f4 [128, 20, 5]
0.14656647 0.08880548 -0.13283084 -0.20170477 -0.08803183 0.018968908 -0.15755677 0.25547057
0.21288143 -0.025661783 0.025654178 -0.22754905 -0.22996435 -0.10892544 0.17957458 0.100359164
0.14617895 -0.31993675 -0.11427316 0.16162263 -0.62458724 -0.014619322 -0.43289596 -0.48577175
0.4547706 -0.15286031 0.013638699 -0.0062220837 -0.0028363836 0.036301292 -0.14152686 -0.036979802
-0.16739947 -0.28597108 -0.1401062 0.32806987 0.3136384 -0.0034639067 0.21689862 -0.17591837
-0.23626035 -0.30991268 -0.40421492 -0.262983 -0.25788563 0.13534288 -0.12603717 0.06812281
-0.17832541 0.0028147546 -0.15292658 -0.03718042 0.025629418 -0.1260482 -0.28717646 0.11914445
-0.122904785 -0.15912893 -0.021371318 -0.014646594 -0.25758147 -0.11689985 -0.03150597 -0.18097736
-0.19818753 -0.26758707 0.041265845 -0.16610847 0.018252162 0.029422391 -0.30601838 0.28080007
0.4421843 0.27514958 0.23452646 -0.22885568 -0.19260848 -0.33652818 -0.052770954 -0.14467925
-0.37776235 -0.44396156 -0.13770145 0.07164384 0.5053159 -0.18576765 -0.022216227 -0.100329705
0.05770476 -0.27288222 -0.0664856 -0.026155265 -0.36573276 -0.06961764 -0.3328422 0.057574723
0.078563675 -0.032214418 -0.16857217 0.23350033 -0.14087197 -0.11137963 -0.13372384 0.13837849
-0.04913498 0.0113939 0.043657724 0.032526094 -0.05766323 0.1825344 0.0065354235 0.017418468
0.053264268 0.097868614 0.003150835 -0.092809446 -0.14080143 0.048325017 -0.058401022 -0.09556362
-0.08188273 -0.09665502 -0.3740086 -0.08431451 0.15136482 -0.13383524 -0.14597653 -0.038392566
-0.031996008 0.0002614485 -0.039711375 -0.06775871 0.066234976 -0.12590234 -0.030409627 0.06360658
-0.16516551 -0.067401364 -0.07621107 -0.00028847615 -0.10635677 0.025440663 -0.13516752 0.0670858
0.0830782 0.029066402 0.116190396 -0.008720889 -0.12918183 0.006173745 0.01013569 0.064201444
-0.09776139 -0.047554016 0.072423026 0.061345026 0.012386036 0.04319916 0.04039689 0.16290894
0.025760122 0.13836756 -0.099702716 -0.08590606 0.11905998 0.06162265 0.05838983 -0.05484537
0.16273792 -0.04395704 -0.18767318 0.051476635 0.028851932 -0.22665337 -0.06340204 -0.028389717
-0.047370553 -0.068866536 -0.14014423 -0.018042734 -0.22547169 -0.1325642 -0.09867244 -0.08996308
0.07261004 -0.053590376 0.10470536 -0.18400468 0.07517734 -0.16452444 0.07265623 0.10543664
-0.04627102 0.03007356 0.010214591 0.0008722789 0.0658603 -0.03145262 -0.14670396 0.059683014
0.054255452 -0.13540764 0.20013179 0.08042463 -0.10559134 -0.092029996 -0.0033711572 0.016480166
-0.47572142 0.24153242 0.043248907 0.07286833 -0.31096897 0.1690373 -0.1659519 -0.25574055
0.011427299 0.016093813 0.21672367 -0.0129755195 0.23296286 0.031109761 0.04750849 0.22054216
0.17297213 -0.07736696 0.05080266 -0.10131832 -0.19006257 -0.06301766 -0.21620136 -0.038905695
0.07584031 0.098845854 -0.19007628 0.09621386 0.21389757 -0.30205655 -0.10526949 -0.080645524
-0.30065772 -0.14189509 -0.05864326 -0.07407689 -0.18452299 -0.21717253 0.036917515 -0.1046594
-0.014386481 -0.18478163 -0.19654569 -0.12564784 -0.010213208 -0.37498233 -0.20236571 0.19143422
00000000: 8515 163e a6df b53d cf04 08be b28b 4ebe
00000010: 084a b4bd af64 9b3c 9056 21be 0acd 823e
00000020: 97fd 593e a938 d2bc b628 d23c 9e02 69be
00000030: c67b 6bbe 4d14 dfbd 66e2 373e 1b89 cd3d
00000040: efaf 153e c0ce a3be 0c08 eabd 6780 253e
00000050: f3e4 1fbf e185 6fbc 8aa4 ddbe 13b7 f8be
00000060: b1d7 e83e 6a87 1cbe da74 5f3c 9fe2 cbbb
00000070: 9fe2 39bb aab0 143d 6bec 10be 2278 17bd
00000080: c46a 2bbe cd6a 92be 0078 0fbe c6f8 a73e
00000090: 3695 a03e b602 63bb ac1a 5e3e f223 34be
000000a0: 3cee 71be e0ac 9ebe 42f5 cebe b5a5 86be
000000b0: 9609 84be 5397 0a3e e30f 01be f983 8b3d
000000c0: f09a 36be bf77 383b c998 1cbe 7f4a 18bd
000000d0: c9f4 d13c c812 01be cb08 93be 0102 f43d
000000e0: 81b5 fbbd b2f2 22be e712 afbc 45f8 6fbc
000000f0: b8e1 83be 3069 efbd 670c 01bd 2152 39be
00000100: acf1 4abe 2c01 89be 6006 293d 5718 2abe
00000110: 8f85 953c 3a07 f13c 71ae 9cbe 07c5 8f3e
00000120: fb65 e23e 68e0 8c3e b427 703e 2559 6abe
00000130: 283b 45be 6c4d acbe 5b26 58bd cc26 14be
00000140: 116a c1be ee4e e3be 9c01 0dbe 01ba 923d
00000150: 625c 013f e039 3ebe cefe b5bc a979 cdbd
00000160: d45b 6c3d 38b7 8bbe 9a29 88bd 9143 d6bc
00000170: 5341 bbbe b193 8ebd 4b6a aabe 79d3 6b3d
00000180: fee5 a03d 44f3 03bd 2f9e 2cbe b61a 6f3e
00000190: be40 10be 011b e4bd e7ee 08be 17b3 0d3e
000001a0: c341 49bd 7bad 3a3c 71d2 323d 153a 053d
000001b0: 4730 6cbd 4cea 3a3e 1b27 d63b 2db1 8e3c
000001c0: a22b 5a3d 576f c83d 3d7e 4e3b e112 bebd
000001d0: 402e 10be 74f0 453d e935 6fbd dcb6 c3bd
000001e0: 22b2 a7bd 11f3 c5bd 0e7e bfbe 16ad acbd
000001f0: 61ff 1a3e 1b0c 09be df7a 15be 8641 1dbd
00000200: 3f0e 03bd 0613 8939 65a8 22bd 14c5 8abd
00000210: 34a6 873d 8bec 00be 9c1d f9bc 2b44 823d
00000220: 2621 29be ba09 8abd 8d14 9cbd 9d3e 97b9
00000230: 94d1 d9bd f068 d03c 5b69 0abe 4864 893d
00000240: e724 aa3d aa1c ee3c 3bf5 ed3d 0fe2 0ebc
00000250: 3e48 04be 204d ca3b 2a10 263c 0c7c 833d
00000260: 2037 c8bd 00c8 42bd 8652 943d ec44 7b3d
00000270: cdee 4a3c 9af1 303d 3677 253d 9ad1 263e
00000280: e406 d33c 3ab0 0d3e f030 ccbd 84ef afbd
00000290: b8d5 f33d 0868 7c3d 2d2a 6f3d 8aa5 60bd
000002a0: c5a4 263e 4c0c 34bd 662d 40be 2ad9 523d
000002b0: e35a ec3c d217 68be eed8 81bd 8d91 e8bc
000002c0: a007 42bd e609 8dbd f881 0fbe 5bce 93bc
000002d0: 0de2 66be e9be 07be c714 cabd 903e b8bd
000002e0: 93b4 943d 9581 5bbd c46f d63d b96b 3cbe
000002f0: 94f6 993d 1879 28be cacc 943d 2aef d73d
00000300: ae86 3dbd d45c f63c 1a5b 273c a5a9 643a
00000310: c4e1 863d 76d4 00bd 9039 16be 2d76 743d
00000320: f73a 5e3d 4da8 0abe 59ef 4c3e abb5 a43d
00000330: 4640 d8bd 397a bcbd a2ee 5cbb 6a01 873c
00000340: c291 f3be 4654 773e c425 313d fe3b 953d
00000350: 5337 9fbe 1d18 2d3e 4bef 29be 6df0 82be
00000360: 9139 3b3c 2cd7 833c cfec 5d3e 4697 54bc
00000370: d18d 6e3e e6d9 fe3c 4398 423d ced5 613e
00000380: 9b1f 313e 9272 9ebd 7316 503d fb7f cfbd
00000390: c39f 42be 670f 81bd e463 5dbe 945b 1fbd
000003a0: 2a52 9b3d b26f ca3d 5ba3 42be c60b c53d
000003b0: f707 5b3e 28a7 9abe 8897 d7bd 7b29 a5bd
000003c0: cfef 99be f24c 11be ea33 70bd a0b5 97bd
000003d0: 98f3 3cbe 7a62 5ebe d236 173d ab57 d6bd
000003e0: 46b5 6bbc 6537 3dbe 4643 49be d4a9 00be
000003f0: 4d55 27bc affd bfbe f538 4fbe 5507 443e

convs.0.bias f4 [128]
-0.02275594 -0.071535684 -0.13921358 -0.16652076 -0.0017301678 -0.10157463 -0.09904997 -0.17263646
-0.18155114 -0.12534909 -0.11656337 -0.26993203 -0.21176875 -0.084122755 -0.18412517 -0.00058878446
-0.1546439 -0.17933789 -0.22566965 -0.085670196 -0.13502249 -0.00017925199 -0.019276189 -0.22450815
-0.08314023 -0.1493379 -0.14811456 -0.063985 -0.077745296 -0.029646166 -0.14541426 -0.012019927
-0.12958701 -0.021525905 -0.084766544 -0.16923961 -0.10448977 -0.19855858 -0.15010045 -0.061371773
-0.28558695 -0.37403274 -0.15060726 -0.18492517 -0.18813242 -0.255591 -0.013319296 -0.06267402
-0.15924226 -0.030842297 -0.09388518 -0.13351579 -0.19386679 -0.0948454 -0.10842162 -0.05997942
-0.19615264 -0.2304098 -0.2058344 -0.11538457 -0.34876183 -0.043422233 -0.032887973 -0.0005383658
-0.1165966 -0.3429736 -0.26642704 -0.08953746 -0.18569006 -0.09204184 -0.14546093 -0.00604219
-0.1183586 -0.23750404 -0.121874176 -0.15811175 -0.18780723 -0.1386525 -0.028397873 -0.16860817
-0.03221579 -0.121450886 -0.07998189 -0.19051982 -0.07238538 -0.0748505 -0.11439077 -0.12735967
-0.19037881 -0.25622034 -0.033646796 -0.08749367 -0.38681355 -0.105726235 -0.20171955 -0.20818713
-0.14956571 -0.24201767 -0.28929535 -0.21524905 -0.21843381 -0.1265467 -0.18041636 -0.15833367
-0.25111076 -0.09430858 -0.12311888 -0.19506223 -0.017767828 -0.044437334 -0.15344682 -0.1339839
-0.08310229 -0.124491885 -0.02889022 -0.2239002 -0.15010297 -0.02309667 -0.08983062 -0.21049035
-0.096623614 -0.017470224 -0.3015746 -0.21312761 -0.14366364 -0.115771316 -0.25412467 -0.18287547
00000000: aa6a babc 4d81 92bd 018e 0ebe 6b84 2abe
00000010: ccc6 e2ba 5c06 d0bd b6da cabd 9dc7 30be
00000020: 8be8 39be 835b 00be c7b8 eebd 8834 8abe
00000030: e8d9 58be 8d48 acbd 4f8b 3cbe a858 1aba
00000040: f85a 1ebe 5aa4 37be f215 67be db73 afbd
00000050: 5643 0abe 97f5 3bb9 19e9 9dbc 77e5 65be
00000060: 6d45 aabd 09ec 18be 58ab 17be 910a 83bd
00000070: ed38 9fbd 84dc f2bc 7ae7 14be 3aef 44bc
00000080: 75b2 04be 1857 b0bc 159a adbd 264d 2dbe
00000090: bcfe d5bd f152 4bbe efb3 19be f860 7bbd
000000a0: 7438 92be 3881 bfbe ca38 1abe 065d 3dbe
000000b0: c9a5 40be d3dc 82be 2d39 5abc 3d5b 80bd
000000c0: 6710 23be fca8 fcbc e046 c0bd 5db8 08be
000000d0: 0485 46be 4e3e c2bd 280c debd fbac 75bd
000000e0: 3ddc 48be 8cf0 6bbe 41c6 52be bf4e ecbd
000000f0: e990 b2be 83db 31bd 8ab5 06bd 1e21 0dba
00000100: 33ca eebd 3c9a afbe 2069 88be 6a5f b7bd
00000110: 8925 3ebe 6f80 bcbd b6f3 14be 90fd c5bb
00000120: fe65 f2bd 4234 73be 2b99 f9bd 0ce8 21be
00000130: 8a50 40be ecfa 0dbe a8a2 e8bc 9fa7 2cbe
00000140: b4f4 03bd 3ebb f8bd 8ccd a3bd a117 43be
00000150: c93e 94bd 384b 99bd b545 eabd 936a 02be
00000160: aaf2 42be 502f 83be 39d1 09bd e22f b3bd
00000170: 6d0c c6be ff86 d8bd 928f 4ebe 022f 55be
00000180: c127 19be 7bd3 77be 851e 94be 3f6a 5cbe
00000190: 1dad 5fbe 7595 01be 11bf 38be 3922 22be
000001a0: 9791 80be db24 c1bd c025 fcbd 65be 47be
000001b0: d68d 91bc ec03 36bd 2a21 1dbe 1333 09be
000001c0: 8931 aabd 9af5 febd 2fab ecbc 1846 65be
000001d0: 98b4 19be 3a35 bdbc 1ef9 b7bd c88a 57be
000001e0: 9ae2 c5bd b71d 8fbc fc67 9abe 203e 5abe
000001f0: 901c 13be 8319 edbd a11c 82be b543 3bbe

convs.1.weight f4 [128, 20, 9]
0.1057889 0.09311162 0.05741982 0.07345845 -0.22103481 0.10255377 -0.1836413 -0.100464575
0.19171241 0.12763032 -0.077201284 -0.17541261 -0.18871395 -0.1258313 -0.040392432 0.0056272647
0.09340788 -0.07900268 -0.2780399 0.10518918 0.017422492 -0.104664594 -0.10234131 0.06325512
0.14331444 -0.22404721 2.0368412e-05 -0.2123837 0.08743169 -0.024024457 -0.18297248 0.013576846
-0.11278647 -0.3582287 -0.331372 0.07638274 -0.14449969 -0.068083234 -0.124285005 -0.1624302
-0.006243022 -0.069048665 -0.14560787 -0.04252998 0.2421304 0.08184861 0.15230964 -0.15595894
0.066072315 0.037003964 -0.082268305 -0.08767913 -0.054571945 -0.09571319 -0.004547758 0.044546943
-0.13616456 -0.16961405 0.0117542995 -0.034301367 -0.08595408 -0.31367725 -0.08647891 -0.09245044
-0.34185776 -0.020279016 0.110122226 -0.08741732 0.23892383 0.04107405 -0.0549852 0.17360675
0.008180263 0.057824235 -0.02786157 0.10457058 0.08139311 -0.115338966 0.23997721 -0.0742263
0.035855874 -0.094228506 0.012456497 0.024981465 -0.03844693 -0.10159905 -0.043992225 0.06367647
0.102552004 -0.1810571 -0.25311792 -0.16107753 -0.028062114 -0.081538334 -0.17739452 0.044022795
0.07054214 0.00588405 -0.08600054 0.15404268 -0.0032598097 -0.13760751 -0.09611966 -0.075168
0.037366938 0.048064314 0.014941543 -0.11567992 -0.16421477 -0.16061601 -0.03431494 -0.08195334
-0.08171848 0.046773955 0.09573975 -0.051346503 -0.04689175 0.1689793 0.099513605 0.09967704
-0.051420957 0.056421902 -0.24042934 0.090950646 0.03958049 0.0694851 -0.025096333 0.034661084
-0.10064163 0.0017377676 -0.26986793 -0.13402797 -0.122879505 -0.19145827 -0.10227904 -0.09589009
0.0807582 0.03515563 0.06634693 -0.13846055 -0.01449281 0.0057324497 -0.12463233 0.035283394
0.017821174 -0.061286494 0.2392949 -0.06987925 0.1404798 0.021166436 -0.17506748 0.02981024
-0.12524417 -0.22533017 -0.05267068 -0.15253577 0.14795932 0.07051816 0.012579253 0.029622685
-0.19871257 0.07163494 0.025656663 -0.09647087 0.1945424 -0.07755088 0.06469668 -0.055128645
-0.1001379 -0.07937434 0.023086395 -0.0035800613 -0.07319839 -0.123151705 -0.11113329 -0.22506942
0.014676201 0.07297923 0.13979106 -0.12245288 -0.079300776 -0.08915303 -0.05852349 -0.024724906
-0.015011135 0.009819267 0.008386526 -0.046619676 -0.07593574 -0.06550917 -0.031757575 0.013940348
0.01734681 -0.007064782 -0.03645123 -0.013913572 -0.005479355 0.042937882 -0.05510471 0.011791039
-0.024414899 -0.03665944 0.015595736 0.0388873 -0.025107265 -0.093141526 -0.003335459 0.08821703
0.00060605456 0.014391718 0.019009894 -0.019810485 -0.06621804 -0.019823842 0.038452756 -0.05739621
0.075918384 0.05598093 0.04713212 0.024596738 -0.013892357 0.06336333 -0.027912835 -0.012223665
0.05404374 0.0039523137 0.036287785 0.0070177093 0.034764517 0.004164607 -0.039664105 0.028308062
0.025865715 0.019739676 -0.107822195 0.012826608 -0.01114748 -0.08748442 -0.029866219 -0.056503102
-0.043207992 -0.033006683 0.006195377 -0.034666784 -0.014164342 -0.031091698 -0.022905892 0.008738726
0.036730208 0.020717442 0.023380471 -0.048444323 0.005795499 -0.016284818 -0.09147437 0.00052307756
00000000: daa7 d83d 4eb1 be3d 0c31 6b3d 6271 963d
00000010: f356 62be b607 d23d 770c 3cbe 5fc0 cdbd
00000020: 4250 443e 86b1 023e b51b 9ebd 5d9f 33be
00000030: 3b3e 41be ecd9 00be 8972 25bd eb64 b83b
00000040: a14c bf3d 28cc a1bd 3f5b 8ebe 6d6d d73d
00000050: 9db9 8e3c 645a d6bd 5298 d1bd e68b 813d
00000060: 05c1 123e a26c 65be d5dc aa37 1d7b 59be
00000070: 630f b33d f0ce c4bc 235d 3bbe 6b71 5e3c
00000080: 98fc e6bd c169 b7be 97a9 a9be 8e6e 9c3d
00000090: baf7 13be 396f 8bbd 2389 febd 1a54 26be
000000a0: 4492 ccbb 6369 8dbd 3b1a 15be eb33 2ebd
000000b0: 08f1 773e 3ea0 a73d 0ff7 1b3e b3b3 1fbe
000000c0: ec50 873d 7891 173d 497c a8bd 1e91 b3bd
000000d0: d586 5fbd 4705 c4bd 5c05 95bb db76 363d
000000e0: b96e 0bbe 4eaf 2dbe 1b95 403c 977f 0cbd
000000f0: b108 b0bd 4e9a a0be db1b b1bd a856 bdbd
00000100: fb07 afbe 2e20 a6bc c387 e13d da07 b3bd
00000110: 73a8 743e 433d 283d 2938 61bd f8c5 313e
00000120: 8306 063c 1bd9 6c3d f23d e4bc 1a29 d63d
00000130: 6eb1 a63d d636 ecbd 96bc 753e f503 98bd
00000140: 9cdd 123d e0fa c0bd 5616 4c3c eea5 cc3c
00000150: 877a 1dbd 2a13 d0bd 3131 34bd cf68 823d
00000160: c906 d23d 0867 39be ac98 81be 82f1 24be
00000170: 85e2 e5bc 92fd a6bd e9a6 35be 3f51 343d
00000180: 6678 903d fdce c03b 0d21 b0bd 5dbd 1d3e
00000190: 88a2 55bb fce8 0cbe 62da c4bd aef1 99bd
000001a0: 130e 193d 16df 443d 60cd 743c 98e9 ecbd
000001b0: eb27 28be 8678 24be d38d 0cbd 27d7 a7bd
000001c0: 055c a7bd 0c96 3f3d 3413 c43d b650 52bd
000001d0: 9011 40bd e908 2d3e cacd cb3d 7a23 cc3d
000001e0: c89e 52bd a71a 673d 1c33 76be 5544 ba3d
000001f0: 271f 223d 344e 8e3d d396 cdbc c8f8 0d3d
00000200: 331d cebd cec5 e33a 212c 8abe a13e 09be
00000210: 40a8 fbbd a30d 44be ac77 d1bd 0662 c4bd
00000220: 8e64 a53d 5aff 0f3d e6e0 873d 9ac8 0dbe
00000230: 4073 6dbc 46d7 bb3b 3c3f ffbd 5285 103d
00000240: b6fd 913c 8c07 7bbd b909 753e da1c 8fbd
00000250: f0d9 0f3e 3c65 ad3c e444 33be 9b34 f43c
00000260: 0240 00be f4bc 66be 36bd 57bd 5632 1cbe
00000270: a682 173e d36b 903d 3619 4e3c 46ab f23c
00000280: 4f7b 4bbe 57b5 923d ec2d d23c 8592 c5bd
00000290: 1f36 473e ffd2 9ebd b17f 843d 93ce 61bd
000002a0: 1915 cdbd 048f a2bd ae1f bd3c 769f 6abb
000002b0: 0ae9 95bd f636 fcbd da99 e3bd 9978 66be
000002c0: 7374 703c 2276 953d 6325 0f3e 93c8 fabd
000002d0: 7268 a2bd dd95 b6bd 54b6 6fbd e38b cabc
000002e0: 43f1 75bc fee0 203c a467 093c 46f4 3ebd
000002f0: 3284 9bbd ac29 86bd 3b14 02bd 0f66 643c
00000300: e61a 8e3c b07f e7bb e34d 15bd c0f5 63bc
00000310: 298c b3bb a2df 2f3d 7ab5 61bd 342f 413c
00000320: c101 c8bc 3528 16bd 4285 7f3c 4a48 1f3d
00000330: c0ad cdbc fcc0 bebd b797 5abb 21ab b43d
00000340: a2df 1e3a 3ecb 6b3c a3ba 9b3c 9949 a2bc
00000350: 539d 87bd 9c65 a2bc a380 1d3d 4a18 6bbd
00000360: 197b 9b3d 424c 653d 9c0d 413d 197f c93c
00000370: c59c 63bc a2c4 813d 75a9 e4bc c445 48bc
00000380: f85c 5d3d 6982 813b 80a2 143d d0f4 e53b
00000390: 3d65 0e3d 4177 883b d476 22bd 4fe6 e73c
000003a0: 56e4 d33c 1ab5 a13c e2d1 dcbd b126 523c
000003b0: eca3 36bc 082b b3bd 00aa f4bc cc6f 67bd
000003c0: ddfa 30bd 0432 07bd 9702 cb3b c2fe 0dbd
000003d0: 8e11 68bc 04b4 febc 23a5 bbbc e02c 0f3c
000003e0: 6a72 163d a0b7 a93c 6788 bf3c 8e6d 46bd
000003f0: 2be8 bd3b bd67 85bc ea56 bbbd 241f 093a

convs.1.bias f4 [128]
-0.07073292 -0.25165483 -0.10010339 -0.06611237 -0.21195136 -0.29550806 -0.11910976 -0.14882429
-0.15606344 -0.23789462 -0.21528457 -0.050093688 -0.24293329 -0.38792866 -0.22815956 -0.17117688
-0.0890415 -0.18192026 -0.10187329 -0.2460271 -0.14402598 -0.04018651 -0.2856982 -0.22808465
-0.18691662 -0.1784545 -0.055301886 -0.104382314 -0.24654528 -0.15767032 -0.20496485 -0.09389724
-0.12300439 -0.008995929 -0.16963327 -0.054838583 -0.057635374 -0.24394944 -0.18575637 -0.0030918466
-0.03604153 -0.3568384 -0.118991494 -0.13550971 -0.19882983 -0.25352168 -0.15097515 -0.11934654
-0.035863813 -0.10917618 -0.08747802 -0.089082085 -0.0011404215 -0.106055476 -0.23270772 -0.1715669
-0.15145437 -0.21386036 -0.24992944 -0.07675508 -0.13267194 -0.21669754 -0.108980216 -0.1134768
-0.0025790797 -0.27049363 -0.1065505 -0.102836765 -0.3095702 -0.053682875 -0.13899086 -0.05844303
-0.07133742 -0.17920549 -0.35935375 -0.23883805 -0.10345787 -0.19049792 -0.004000714 -0.082497776
-0.12454786 -0.240765 -0.0029386105 -0.29101175 -0.24726439 -0.0014087497 -0.1370372 -0.24521078
-0.09289288 -0.091107525 -0.10794237 -0.192834 -0.14882843 -0.20180492 -0.08381771 -0.2707313
-0.2961332 -0.2898945 -0.14346445 -0.060731936 -0.286079 -0.19599746 -0.35403344 -0.05559424
-0.0921366 -0.102364086 -0.2664709 -0.19720154 -0.1683376 -0.049623836 -0.27645156 -0.08523568
-0.25476158 -0.12784724 -0.18396422 -0.0016787272 -0.13404728 -0.10107798 -0.21636176 -0.2788894
-0.1378499 -0.020704258 -0.30046454 -0.09662651 -0.0009078846 -0.24039431 -0.15598382 -0.066239804
00000000: 6cdc 90bd e7d8 80be 0203 cdbd ec65 87bd
00000010: c709 59be d54c 97be d1ef f3bd 6565 18be
00000020: 18cf 1fbe a69a 73be 8f73 5cbe 0a2f 4dbd
00000030: 81c3 78be 969e c6be a9a2 69be fe48 2fbe
00000040: 645b b6bd 4e49 3abe f2a2 d0bd 87ee 7bbe
00000050: 8c7b 13be 9c9a 24bd 0947 92be 068f 69be
00000060: 1267 3fbe c7bc 36be 3b84 62bd 65c6 d5bd
00000070: 5e76 7cbe 5474 21be 4ee2 51be 324d c0bd
00000080: bae9 fbbd a963 13bc 58b4 2dbe 6c9e 60bd
00000090: 1213 6cbd e2cd 79be eb36 3ebe 94a0 4abb
000000a0: 49a0 13bd 86b3 b6be d0b1 f3bd 0fc3 0abe
000000b0: 0c9a 4bbe 98cd 81be 3b99 1abe f56b f4bd
000000c0: efe5 12bd c397 dfbd ad27 b3bd ab70 b6bd
000000d0: 327a 95ba 9d33 d9bd ef4a 6ebe 3caf 2fbe
000000e0: db16 1bbe 36fe 5abe 81ed 7fbe c431 9dbd
000000f0: 27db 07be f6e5 5dbe 0531 dfbd 8666 e8bd
00000100: c705 29bb 247e 8abe 2637 dabd 159c d2bd
00000110: fc7f 9ebe 93e2 5bbd 9f53 0ebe f561 6fbd
00000120: 5a19 92bd a581 37be 37fd b7be f691 74be
00000130: b8e1 d3bd e311 43be 6c18 83bb 98f4 a8bd
00000140: f312 ffbd 1a8b 76be b495 40bb 7eff 94be
00000150: e032 7dbe cca5 b8ba 7b53 0cbe 8918 7bbe
00000160: 9f3e bebd 9596 babd e410 ddbd 4776 45be
00000170: 7b66 18be f3a5 4ebe 9fa8 abbd 4b9d 8abe
00000180: c59e 97be 0d6d 94be 58e8 12be 0dc2 78bd
00000190: f278 92be 8fb3 48be df43 b5be c9b6 63bd
000001a0: 1db2 bcbd 43a4 d1bd e06e 88be 33ef 49be
000001b0: b160 2cbe 5d42 4bbd 0f8b 8dbe 0b90 aebd
000001c0: 1c70 82be 63ea 02be 1e61 3cbe bd08 dcba
000001d0: b143 09be f901 cfbd f08d 5dbe 97ca 8ebe
000001e0: 8628 0dbe fa9b a9bc 7dd6 99be 1fe4 c5bd
000001f0: 1bff 6dba ed29 76be 39ba 1fbe bca8 87bd

convs.2.weight f4 [128, 20, 13]
-0.009310293 0.011711892 0.021014048 -0.0970605 -0.0896333 0.13511609 -0.14775509 -0.051076565
0.05940513 0.079666846 -0.08010067 -0.115587726 0.1104136 0.025649646 -0.08213014 0.06482336
0.005723052 0.025447076 0.0008820805 -0.11802562 0.10311231 0.075423315 0.06416921 -0.20160654
-0.12766282 -0.3342115 0.13318552 -0.047390398 -0.11688247 -0.020401439 0.14502521 0.02791477
-0.059220046 0.009638797 -0.022019444 -0.2577654 -0.20368452 -0.19360971 -0.03150202 0.0040169517
-0.12857603 -0.18135676 0.09016113 0.14625822 -0.054525234 -0.032070097 -0.3075681 -0.05527423
-0.19555414 -0.1590193 -0.13313545 -0.09076286 0.32780385 0.09280516 0.217382 0.13374893
0.0031088747 0.084956266 0.19929789 0.3180108 -0.0014913481 -0.28793293 0.0593028 -0.46693817
0.10935488 -0.10806813 -0.08807582 -0.031120008 0.052030973 0.10531587 -0.058080506 -0.16530553
0.078769736 0.015926247 0.112156145 -0.22617748 -0.053242356 -0.19673413 -0.08073279 -0.086093076
-0.052747626 0.07009761 0.052731436 -0.008990598 0.055671904 -0.122815184 0.06374755 0.0007941217
-0.10991461 -0.096186906 -0.13261452 -0.056332048 -0.2532312 -0.01627397 0.02113369 0.06098455
0.04731571 -0.3871922 -0.07021376 0.20871983 -0.09636863 -0.13903897 -0.32994562 -0.28174457
0.010703943 -0.06431125 0.09482664 0.055491503 0.2323242 -0.019513624 -0.056984633 -0.05769636
-0.056807727 -0.08920431 -0.09815714 -0.22399183 -0.081548385 0.15244694 0.023437096 -0.19518057
-0.02415457 0.048122138 -0.24445042 0.019361768 -0.2599344 -0.1943739 -0.09858267 -0.06745002
-0.5258582 -0.015744537 0.1768321 0.1009115 -0.053954788 0.14512296 -0.05225243 -0.09767366
-0.003689933 -0.25735438 -0.041667826 -0.06631883 0.04341446 -0.34063998 -0.047813214 -0.12656298
-0.23897365 -0.028249586 0.05780543 -0.0813451 0.06441588 -0.08445491 0.054147784 0.06855678
0.023260638 -0.15349364 0.018010339 -0.29626238 0.061361715 0.05105444 -0.063903555 0.09513102
0.01479381 -0.084857665 -0.026353436 -0.21983778 -0.040613316 -0.18269183 0.007990841 -0.3522235
-0.02108595 0.18917646 0.08809208 0.052978914 0.057142254 0.1302035 -0.10025375 0.14357173
0.016404377 0.008991328 -0.42928407 0.071616985 0.20165874 -0.111211576 0.013001652 0.09603288
0.040016755 -0.03284193 -0.10282177 0.16144758 0.033622175 -0.45095947 -0.14753893 -0.02536449
-0.18572967 -0.40976316 0.1556933 0.06938371 0.026299706 -0.03415435 -0.08108151 0.116450086
0.11329319 -0.1304144 0.06627212 0.088983394 -0.12786907 -0.07803957 -0.007045818 -0.026864946
0.093422756 0.1123699 0.02544965 -0.08350564 -0.032611206 0.108514875 0.03094101 0.0033529878
0.014565048 -0.20905054 -0.05001345 -0.07158783 0.040430095 0.09513171 0.15645583 0.1901474
-0.23403095 0.17155488 -0.00832505 0.17794424 -0.07613602 -0.28076342 -0.34910712 -0.012575278
0.07335469 -0.31773046 0.14403354 0.14020127 0.14944807 -0.1479226 0.19606617 -0.05613644
0.092841275 0.08568541 -0.14050452 -0.41343522 0.0341608 0.17977381 -0.1712515 0.13968116
0.023631036 -0.13339528 0.039992716 0.012207743 0.0033649998 0.08007534 -0.21736977 -0.1679444
00000000: 338a 18bc 3ce3 3f3c a725 ac3c a8c7 c6bd
00000010: aa91 b7bd df5b 0a3e 1c4d 17be a935 51bd
00000020: cb52 733d 5f28 a33d d20b a4bd 42b9 ecbd
00000030: 8720 e23d 351f d23c d933 a8bd 1cc2 843d
00000040: 7188 bb3b 6376 d03c 6c3b 673a 6bb7 f1bd
00000050: 8c2c d33d 8a77 9a3d 266b 833d f271 4ebe
00000060: 0bba 02be c51d abbe c961 083e 6f1c 42bd
00000070: 1460 efbd eb20 a7bc 7d81 143e 84ad e43c
00000080: b890 72bd 0bec 1d3c 1f62 b4bc d4f9 83be
00000090: ad92 50be a041 46be 4308 01bd a2a0 833b
000000a0: 6fa9 03be 96b5 39be 66a6 b83d b7c4 153e
000000b0: da55 5fbd ef5b 03bd 9179 9dbe 3b67 62bd
000000c0: 583f 48be f5d5 22be a954 08be e1e1 b9bd
000000d0: e8d5 a73e a210 be3d 6399 5e3e 7bf5 083e
000000e0: 43be 4b3b 8dfd ad3d bf14 4c3e 50d2 a23e
000000f0: 5779 c3ba f26b 93be 7ee7 723d 8512 efbe
00000100: 74f5 df3d d352 ddbd 1861 b4bd 63ef febc
00000110: 6e1e 553d d9af d73d d3e5 6dbd da45 29be
00000120: 0752 a13d c377 823c 1fb2 e53d 129b 67be
00000130: a814 5abd ac74 49be 3c57 a5bd 9151 b0bd
00000140: e50d 58bd 568f 8f3d ebfc 573d 4d4d 13bc
00000150: 3908 643d 8786 fbbd 138e 823d 9b2c 503a
00000160: e91a e1bd a4fd c4bd 1acc 07be 6fbc 66bd
00000170: 85a7 81be fd50 85bc 8f20 ad3c efca 793d
00000180: 1ece 413d 0e3e c6be 3bcc 8fbd a7ba 553e
00000190: eb5c c5bd 3b60 0ebe a2ee a8be d340 90be
000001a0: 975f 2f3c 9eb5 83bd 7834 c23d 0f4b 633d
000001b0: 65e6 6d3e 09db 9fbc b868 69bd 0553 6cbd
000001c0: 38af 68bd c0b0 b6bd 9c06 c9bd 1d5e 65be
000001d0: d702 a7bd 0d1b 1c3e 27ff bf3c 6add 47be
000001e0: cedf c5bc b81b 453d 3651 7abe 929c 9e3c
000001f0: 1f16 85be f409 47be b6e5 c9bd 3c23 8abd
00000200: a59e 06bf b0fa 80bc 7913 353e b0aa ce3d
00000210: b2ff 5cbd 1d9b 143e a506 56bd 2109 c8bd
00000220: ced2 71bb f4c3 83be e2ab 2abd 2bd2 87bd
00000230: 5cd3 313d 5d68 aebe cad7 43bd ba99 01be
00000240: 82b5 74be ad6b e7bc 63c5 6c3d 4398 a6bd
00000250: 79ec 833d b2f6 acbd 11ca 5d3d 7f67 8c3d
00000260: 188d be3c 702d 1dbe 6b8a 933c b4af 97be
00000270: 6c56 7b3d 761e 513d dedf 82bd 0dd4 c23d
00000280: bd61 723c dbc9 adbd 29e3 d7bc 281d 61be
00000290: 265a 26bd 9113 3bbe 04ec 023c a356 b4be
000002a0: 71bc acbc 79b7 413e 9f69 b43d 6b00 593d
000002b0: ff0d 6a3d 1154 053e d751 cdbd 7804 133e
000002c0: 7962 863c 5d50 133c 1fcb dbbe edab 923d
000002d0: a17f 4e3e e5c2 e3bd e204 553c e3ac c43d
000002e0: 9ce8 233d 4285 06bd 3894 d2bd 8452 253e
000002f0: 68b7 093d 29e4 e6be 7214 17be 31c9 cfbc
00000300: eb2f 3ebe 7acc d1be 106e 1f3e 0c19 8e3d
00000310: 7b72 d73c 6fe5 0bbd 100e a6bd 627d ee3d
00000320: 4306 e83d 5a8b 05be adb9 873d ed3c b63d
00000330: 1cf0 02be 36d3 9fbd 9be0 e6bb e013 dcbc
00000340: 6e54 bf3d 3122 e63d c97b d03c 0105 abbd
00000350: 5493 05bd 0c3d de3d 0078 fd3c cdbd 5b3b
00000360: 3da2 6e3c 5811 56be e7da 4cbd a49c 92bd
00000370: 079a 253d 6ad4 c23d f535 203e 00b6 423e
00000380: cfa5 6fbe 15ac 2f3e ca65 08bc 0437 363e
00000390: 34ed 9bbd 39c0 8fbe 2bbe b2be 8a08 4ebc
000003a0: fc3a 963d 91ad a2be 877d 133e ec90 0f3e
000003b0: ea08 193e 0679 17be 92c5 483e 53ef 65bd
000003c0: 9123 be3d d57b af3d 6be0 0fbe c8ad d3be
000003d0: 32ec 0b3d a016 383e 8e5c 2fbe 9408 0f3e
000003e0: e095 c13c c698 08be 67cf 233d fc02 483c
000003f0: 5487 5c3b 8afe a33d 2e96 5ebe 9ef9 2bbe

convs.2.bias f4 [128]
0.040987797 0.43362796 -0.14061575 -0.22829537 -0.25913686 -0.16034763 -0.36112276 -0.25423914
-0.14967884 -0.12814917 -0.13263513 -0.2344543 -0.052993577 -0.039455276 0.02017408 -0.11252406
-0.13153629 -0.101232916 -0.0015950255 -0.00064854545 -0.19953828 -0.188412 -0.0426531 -0.094364315
-0.021210337 -0.22413875 -0.2773731 -0.2920393 -0.19335853 -0.15668152 -0.15398052 -0.004273341
-0.081627734 -0.2616137 -0.33875686 0.3886124 -0.039625812 -0.18635443 -0.17093617 -0.26093677
-0.11802013 -0.07933431 -0.14783123 -0.0030438015 -0.007933645 -0.27617314 -0.06402974 -0.27914497
-0.007515962 -0.19053786 -0.055712193 -0.12652369 -0.22225195 -0.25194642 -0.23011072 -0.11362812
0.014962033 -0.1223098 -0.17841756 -0.01821041 -0.20667946 -0.28558984 -0.12600769 -0.081701405
-0.18120977 -0.24674816 -0.26194167 -0.3256188 -0.20086843 -0.15950602 -0.0022547825 -0.20351996
-0.32013395 -0.124048956 -0.15199116 -0.16495599 -0.27108538 -0.06784097 -0.1801657 -0.103811495
-0.04062507 -0.09547323 -0.19622672 -0.24998105 -0.00069145096 -0.27078956 -0.15495534 -0.10498168
-0.13176431 0.031679597 -0.22029649 -0.06455301 -0.18234113 -0.191862 -0.34352526 -0.1284074
-0.018673062 -0.180097 -0.022833344 -0.36483693 -0.12689547 -0.1462273 -0.093637235 -0.06983106
-0.132074 -0.03084982 -0.0018247765 -0.07838884 -0.19514085 -0.11469382 -0.07912355 -0.2935483
-0.35617968 -0.32713994 -0.057249866 -0.05076677 -0.20595273 -0.20228945 -0.19897012 -0.304391
-0.034696635 -0.17947733 -0.045311093 -0.030021476 -0.31990832 -0.23022507 -0.245069 -0.22792149
00000000: d2e2 273d 7c04 de3e 93fd 0fbe 43c6 69be
00000010: 96ad 84be 2b32 24be 15e5 b8be a22b 82be
00000020: 6945 19be 8939 03be 81d1 07be ca14 70be
00000030: cb0f 59bd db9b 21bd 1d44 a53c 0473 e6bd
00000040: 73b1 06be 3453 cfbd 2d10 d1ba 2603 2aba
00000050: c353 4cbe 13ef 40be 04b5 2ebd 1442 c1bd
00000060: 4dc1 adbc a184 65be d903 8ebe 2d86 95be
00000070: c7ff 45be 1f71 20be 12ad 1dbe 6207 8cbb
00000080: 712c a7bd 3bf2 85be 8a71 adbe 34f8 c63e
00000090: ad4e 22bd b2d3 3ebe e409 2fbe 8199 85be
000000a0: 8ab4 f1bd 077a a2bd 1261 17be 847a 47bb
000000b0: 1efc 01bc 9166 8dbe 0622 83bd 17ec 8ebe
000000c0: 7548 f6bb 5b1c 43be 7832 64bd 6d8f 01be
000000d0: 0496 63be 1fff 80be 25a2 6bbe dcb5 e8bd
000000e0: 5123 753c 8f7d fabd 18b3 36be ff2d 95bc
000000f0: c8a3 53be d538 92be 2908 01be 1153 a7bd
00000100: 0e8f 39be 8dab 7cbe 381d 86be 82b7 a6be
00000110: 74b0 4dbe 8c55 23be f9c4 13bb 8967 50be
00000120: 99e8 a3be 610d febd 92a3 1bbe 39ea 28be
00000130: b4cb 8abe 35f0 8abd 5b7d 38be 1f9b d4bd
00000140: 7966 26bd 7887 c3bd a8ef 48be 08fb 7fbe
00000150: 7d42 35ba eea4 8abe 9dac 1ebe a300 d7bd
00000160: 39ed 06be 77c2 013d 6795 61be 5e34 84bd
00000170: a2b7 3abe 7977 44be 8be2 afbe 3b7d 03be
00000180: 40f8 98bc 596b 38be fe0c bbbc e8cb babe
00000190: e3f0 01be 9cbc 15be e1c4 bfbd 9603 8fbd
000001a0: 683e 07be c3b8 fcbc 572d efba 548a a0bd
000001b0: 01d3 47be 98e4 eabd 870b a2bd f64b 96be
000001c0: 2f5d b6be e37e a7be d67e 6abd d1f0 4fbd
000001d0: 46e5 52be f724 4fbe d3be 4bbe 23d9 9bbe
000001e0: 0f1e 0ebd e8c8 37be 2098 39bd 99ef f5bc
000001f0: 06cb a3be 1fc0 6bbe 5ef3 7abe 4064 69be

decoder.0.weight f4 [1, 384]
1.020309 0.10577415 0.3558375 -0.10906263 -1.0736253 -0.28618163 0.16163677 0.41745403
-0.10227464 -0.031723723 -0.20488964 -0.0044175074 -0.13289525 0.1281774 -0.11687358 -0.27473226
-0.16962549 0.9824963 -0.22723426 -0.5861288 0.06374695 0.121356525 0.2430928 0.036429524
0.1393603 0.2783727 0.32295007 -0.9499056 0.96487993 -0.39243525 0.29636362 0.11013337
0.48934215 -0.85089386 0.08766484 1.1392711 0.11428642 1.1702951 0.6921254 0.6952908
0.16089307 0.14628628 0.0967821 1.2521286 -0.68050236 -0.29375017 0.27613643 0.16162084
1.5959523 0.05816862 -0.34464398 0.0421167 0.078770615 0.009779302 -0.27668464 -0.87528414
0.0012791853 0.40215966 0.007306933 0.05389756 0.1163183 0.10378158 0.118359745 -0.86970466
0.45041564 -0.46700615 1.3069062 0.12846741 0.19317915 0.47563922 1.8766989 0.14980352
0.123557605 0.3108041 -0.10107636 -0.14326039 0.083116755 -0.04878068 0.2451911 0.4749043
0.17185186 -0.2685594 0.1167371 0.095444135 0.118347496 1.4878327 -0.28237423 0.24915574
0.7302198 -0.16522495 0.46832567 -0.3232283 -0.073230386 0.39128384 0.5537565 0.005630619
-0.109381266 -0.13389054 0.5823719 0.28927833 0.29290384 0.47092342 -0.1801678 0.3321253
1.5231334 -0.116822496 0.05043486 -0.77319485 0.82619375 -0.1470155 -0.049423803 0.15417223
0.32053047 -0.07382481 0.18032153 -1.0045426 0.47798184 0.10897004 -0.91753656 -0.15009284
-0.28206715 -0.29727998 -0.2711582 -0.9980858 0.048941843 -0.72399765 0.12070127 0.10121128
0.12694754 -0.07676056 0.90221184 0.6891902 0.0020160915 0.3492824 1.4012504 0.009691681
-0.6026127 -0.026077509 0.020712614 1.118322 0.16067289 -0.0580198 0.0012676334 -0.30132222
-0.6044266 -0.1627461 0.8573138 0.8198347 0.09678085 -0.35281345 -0.661756 0.10324429
-0.6554178 0.07247541 -0.31723776 -0.42645237 -0.022036638 0.09274998 0.876846 0.7302036
0.04277917 -0.40103394 -0.22869422 0.3936334 0.35738423 -0.13621683 0.11746171 -0.4942225
0.6975169 0.20547499 1.5115937 0.30779937 -0.0031323368 -0.004524183 -0.23726007 -0.5003051
-0.075659364 0.88705444 0.017979085 -1.7769711 -0.46441627 -0.040665705 -0.21575825 0.45254794
0.90509284 0.06609066 0.122716 -0.23209366 -0.13650489 -0.41252518 0.49062333 0.6223444
0.12964208 -0.37389886 -0.3144957 -0.14656499 0.073293924 0.3944662 0.7433061 -0.047048785
-0.11728392 -0.13684349 -0.10990602 0.04625396 0.2099587 0.017624276 -0.8656588 -0.99327904
-0.21876717 -0.18802747 -0.84897614 0.063430294 0.019967588 -0.48760936 -0.800299 0.04988281
0.1347962 0.19362494 -0.9105923 0.00027451245 0.58427274 0.6148553 -0.83765644 0.03227039
-0.04830911 0.2910244 -0.28736347 0.2755402 -0.17735536 0.5153796 -0.2690714 -0.673995
-0.37982726 0.6516516 0.031880092 -0.025631124 0.8702055 0.17533192 -0.02959138 0.46825832
0.042081445 -0.008581847 0.10783722 -0.6172641 0.017278407 0.4902372 -0.10980674 0.017934414
1.23115 0.80654705 -0.0870779 0.039450966 -0.16945446 0.0002444662 0.14909612 -0.5773926
00000000: 7c99 823f 1ea0 d83d 5530 b63e 3a5c dfbd
00000010: 8e6c 89bf 6686 92be 1c84 253e 89bc d53e
00000020: 5e75 d1bd bcf0 01bd 97ce 51be bdc0 90bb
00000030: b115 08be f040 033e 6a5b efbd b5a9 8cbe
00000040: 4eb2 2dbe e184 7b3f 19b0 68be 890c 16bf
00000050: c38d 823d c589 f83d 52ed 783e 2037 153d
00000060: 77b4 0e3e de86 8e3e b659 a53e 032d 73bf
00000070: 5f02 773f 46ed c8be f9bc 973e 9b8d e13d
00000080: 0e8b fa3e 2ed4 59bf a089 b33d a3d3 913f
00000090: 000f ea3d 3bcc 953f 212f 313f 94fe 313f
000000a0: 27c1 243e 12cc 153e b235 c63d c045 a03f
000000b0: 6735 2ebf 6c66 96be c161 8d3e ef7f 253e
000000c0: 2a48 cc3f 3842 6e3d 2d75 b0be 9082 2c3d
000000d0: 7d52 a13d 5e39 203c 9ca9 8dbe 9f12 60bf
000000e0: 56aa a73a dfe7 cd3e ff6e ef3b b0c3 5c3d
000000f0: 4a38 ee3d 708b d43d 9866 f23d f7a4 5ebf
00000100: e19c e63e 6e1b efbe b448 a73f f68c 033e
00000110: c1d0 453e fc86 f33e ab37 f03f 1866 193e
00000120: c50b fd3d b721 9f3e 1f01 cfbd dab2 12be
00000130: 1e39 aa3d 40ce 47bd 6013 7b3e a826 f33e
00000140: eff9 2f3e 9e80 89be dc13 ef3d 3778 c33d
00000150: 2c60 f23d 4d71 be3f 5b93 90be af22 7f3e
00000160: afef 3a3f bb30 29be 62c8 ef3e 2e7e a5be
00000170: d0f9 95bd 5b56 c83e fcc2 0d3f 0e81 b83b
00000180: 4903 e0bd 9a1a 09be 5316 153f 4a1c 943e
00000190: 7ef7 953e e01c f13e e87d 38be 540c aa3e
000001a0: 09f6 c23f a240 efbd c994 4e3d 19f0 45bf
000001b0: 6f81 533f 3b8b 16be 9d70 4abd 53df 1d3e
000001c0: 921c a43e 7631 97bd 35a6 383e da94 80bf
000001d0: 09ba f43e af2b df3d ade3 6abf f0b1 19be
000001e0: 1b6b 90be 1535 98be 3fd5 8abe 8d82 7fbf
000001f0: 3e77 483d e957 39bf 3a32 f73d dc47 cf3d
00000200: 89fe 013e a434 9dbd 5bf7 663f c56e 303f
00000210: 6720 043b 25d5 b23e 2c5c b33f dbc9 1e3c
00000220: d344 1abf 80a0 d5bc 80ad a93c 2d25 8f3f
00000230: 6f87 243e 2ba6 6dbd b826 a63a e846 9abe
00000240: b4bb 1abf eaa6 26be eb78 5b3f b0e0 513f
00000250: 0a35 c63d f7a3 b4be d768 29bf be71 d33d
00000260: 76c9 27bf fd6d 943d fd6c a2be f757 dabe
00000270: 2e86 b4bc b4f3 bd3d fb78 603f a0ee 3a3f
00000280: 3639 2f3d 5254 cdbe d12e 6abe 518a c93e
00000290: 11fb b63e 6d7c 0bbe c48f f03d bb0a fdbe
000002a0: 7890 323f 0968 523e e77b c13f e197 9d3e
000002b0: e447 4dbb 993f 94bb 4ef4 72be ff13 00bf
000002c0: 4cf3 9abd 0016 633f e048 933c ca73 e3bf
000002d0: f8c7 edbe 1591 26bd bbef 5cbe 5db4 e73e
000002e0: 2ab4 673f 8a5a 873d 8752 fb3d f6a9 6dbe
000002f0: f0c7 0bbe 8036 d3be fb32 fb3e f651 1f3f
00000300: e5c0 043e ac6f bfbe 9505 a1be 2215 16be
00000310: 201b 963d 79f7 c93e 4f49 3e3f 3ab6 40bd
00000320: 8d32 f0bd b320 0cbe 6816 e1bd cb74 3d3d
00000330: 6aff 563e c960 903c d19b 5dbf 8947 7ebf
00000340: 8004 60be 468a 40be 8056 59bf bee7 813d
00000350: 1193 a33c efa7 f9be 65e0 4cbf eb51 4c3d
00000360: 0408 0a3e 9e45 463e 941c 69bf 70ec 8f39
00000370: e692 153f 2867 1d3f a770 56bf f52d 043d
00000380: c6df 45bd 2601 953e 4e21 93be 9b13 8d3e
00000390: a59c 35be ebef 033f bac3 89be f08a 2cbf
000003a0: b878 c2be a4d2 263f b394 023d 5df8 d1bc
000003b0: cac5 5e3f 368a 333e 9f69 f2bc 8ebf ef3e
000003c0: 985d 2c3d e09a 0cbc c3d9 dc3d 0505 1ebf
000003d0: 728b 8d3c 5f00 fb3e 5be2 e0bd 31eb 923c
000003e0: 5396 9d3f de79 4e3f e655 b2bd 5697 213d
000003f0: 7885 2dbe b32b 8039 a7ac 183e 00d0 13bf
