saved_models/model_15.pkl (torch_old, 281078 bytes, 7 tensors)

convs.0.weight f4 [128, 20, 5]
00000000: 8549 93be d116 58be 38b6 4c3e b806 c63d
00000010: 00aa 97be ea36 433e bd9b abbe 915d cebd
00000020: 6e30 253e d188 bb3e dec8 3cbe 9051 c1be
00000030: b6d3 07be d312 65be 385f 76be e847 b4be
00000040: ae25 1e3e 136e 933d c767 18bf 3014 c5be
00000050: eaa2 57be b8b0 1a3e a9d2 97bd 2587 1abd
00000060: 43d9 b03e eb0b 46be 83c6 453e 11d4 6abe
00000070: d25c d5bc 4bbb 9fbd 44af bcbe 7f84 72bd
00000080: 7df5 5d3e e2bb fabc 91a2 a2be 4e40 40be
00000090: 380d a03c ac01 a6bc d059 8a3e 064a a5be
000000a0: 68d6 19be 02a1 aebe 24ba 413e ece0 b2bd
000000b0: 925d c0bd b100 5bbd 1108 873e f5df 6ebd
000000c0: 8aa8 28be 6bdb 00be 5a36 0e3e 3e4e 27be
000000d0: 7318 88be f2cc 673d a156 803d 8b3a 7e3e
000000e0: d6b0 41be dc4b 03be 8206 463e 655f 203e
000000f0: 2440 d4bc 5914 9ebd 7a1c a0bd 818b 2d3d
00000100: ee2c 76bd 5b44 c7bd 5543 d0bc ec4f bc3e
00000110: 0a40 88be 5433 c9be 3d39 203e 1a44 b43d
00000120: 2c82 42bd 7194 70be 7bfc 243e 6772 66be
00000130: 56b3 3e3d 4ec2 d63b f57c ebbb 3f35 86be
00000140: 52b6 8dbe 6a19 933e dedf 0abe 201f a6be
00000150: 76c9 6e3e f048 82be 0e20 c1be 69c5 513d
00000160: b5e6 b93c 8561 96be 8fa0 94be 949f d0bd
00000170: de40 593e f725 91be ee44 b4be 364d 70be
00000180: 581a 423e 46d2 863e ed8b 1abe ec3f 37be
00000190: 442e bc3d 05ab 30bd ce96 02be cad4 98bd
000001a0: 1acb a13d 04e7 903b 83d9 e6bc b65c f4bb
000001b0: cbaf 08be ef45 9c3d 5c54 4c3d 636b 503c
000001c0: e5ef febc eaba 3bbe 2640 0a3d 674c 163e
000001d0: d51a cbbd dbe1 1bbe ee5e 05bd 59db f73d
000001e0: b4b3 b7ba 0960 973e e62e a43e 9c48 41bd
000001f0: 84a9 0dbe 2fea cdbc 8c5e abbd 794e 2d3e
00000200: b8ae 0ebd 6c72 92bd f05a 05bd f077 443c
00000210: 4d37 6d3d a701 6d3c b404 a23b 5e55 5e3d
00000220: 689b 3c3e 273f a0bc b155 7a3d 8716 dcbc
00000230: b20a 2dbd c733 523d c1ce b4bd da31 dd3d
00000240: e942 78bd 453c b1bc 1642 e6bd abf4 4dbe
00000250: c61c b9bd 5c1f fdba 9292 3fbd 8820 c9bc
00000260: 3034 bfbc a448 88bc dfbf 793c f699 f1bd
00000270: 26c5 32be 4440 73be a889 083c 7771 c83a
00000280: eb61 d03c 708e 3cbd 7c2b aebd 95a5 92bc
00000290: 7fab 5fbd 6db5 123d 2d48 793d 8004 853d
000002a0: ab0d a8bc c5bb 033d 87e9 5c3d e04d 1cbe
000002b0: 2cd3 49bd 6ca6 1e3d 0e5d 313d dcc5 97bc
000002c0: 865d 85bd dbbb 923d b9b5 6abd f4ff bc3c
000002d0: 398a 67bb 69f6 85bd 7f2b 01be 2d02 2c3e
000002e0: 393a f1bd f989 25be e6c7 91bd 27d3 863d
000002f0: 6e1a 4ebe 3067 a33e 982c 9fbd dff9 5fbd
00000300: 3f4a 583d 0398 4f3d 3faa 3cbd 8481 7a3c
00000310: b890 34be 8799 39be db05 b6bd f4e5 d9bd
00000320: 64d1 81bc 40e7 493e 8655 853d f972 02be
00000330: 2407 7c3e b12d 06be cba0 bbb9 8fe0 e13d
00000340: 43ed 7fbe ef2e 24be 6067 f93c 89b1 f73b
00000350: dcd4 b83d 84a3 e5bd 11e4 dc3d 4ce4 cabd
00000360: 19fc 6dbd 7aa5 ccba 95be 8fbe 2b27 e13d
00000370: 24cc 21be 8fb3 f6bd 2638 a5bc 81be 75be
00000380: 1017 8f3e 2bb4 68bd 6cb2 07be 5150 e23d
00000390: 24ba 3abe ccc6 95bd 5788 973c e4c6 b4bc
000003a0: 21bc 1abd fb7a 96be 5198 073e cd96 4cbd
000003b0: 4bff 09be 8274 41be ef36 34be 4d3e f7bd
000003c0: f842 50bc 2a0d b6bd 5b14 55be 7c4b fb3d
000003d0: 3639 e3bd 3fb6 b9bd c69d 0e3d 7e68 32be
000003e0: abed debc 8ed6 71be 8d50 c2bb cafe 57bd
000003f0: a9c0 5a3a 1e5f cd3b 1700 b03d 087a aebd
-0.28767028 -0.21102454 0.19991386 0.0966925 -0.29621887 0.19063917 -0.33517256 -0.1007644
0.16131756 0.3662782 -0.18436 -0.3775754 -0.13264355 -0.22370462 -0.2405976 -0.3521111
0.15444061 0.07198729 -0.5953335 -0.38491964 -0.2105824 0.15106475 -0.07413227 -0.03772654
0.34540758 -0.19340484 0.19314007 -0.2293246 -0.026045237 -0.07799395 -0.36852467 -0.05920839
0.21675678 -0.030607168 -0.31764653 -0.1877453 0.019537553 -0.02026447 0.27021646 -0.32283038
-0.15023196 -0.34107214 0.18918663 -0.08734307 -0.09392847 -0.053467456 0.26373342 -0.05831905
-0.16470543 -0.12583701 0.13887921 -0.16338441 -0.26581153 0.056591935 0.06266523 0.2482702
-0.18915114 -0.12821907 0.1933842 0.1566139 -0.02590949 -0.07718725 -0.078179315 0.04236937
-0.060101442 -0.09729835 -0.025422731 0.36779726 -0.26611358 -0.39296973 0.15646835 0.08802052
-0.047487423 -0.23494126 0.16111939 -0.22504579 0.046557747 0.0065539246 -0.007186527 -0.262125
-0.27678162 0.28730327 -0.13561961 -0.32445621 0.23319039 -0.25446272 -0.37719768 0.051213656
0.022693017 -0.29371276 -0.29028746 -0.10186687 0.21216151 -0.28349277 -0.3520884 -0.23466954
0.18955362 0.263323 -0.1509244 -0.17895478 0.09188512 -0.043131847 -0.1275284 -0.07462461
0.07900067 0.0044220705 -0.02817989 -0.007457341 -0.1334831 0.07630526 0.04988514 0.0127209155
-0.03112025 -0.18333021 0.033752583 0.14677583 -0.09917227 -0.15222876 -0.032561235 0.12102384
-0.0014015348 0.29565457 0.3206703 -0.047188386 -0.13834196 -0.025136082 -0.08367643 0.16924466
-0.034834594 -0.071507305 -0.032557428 0.011991486 0.057914067 0.014465726 0.0049444083 0.05428063
0.18418658 -0.019561363 0.061116878 -0.02686621 -0.042246528 0.05131891 -0.08828498 0.10800524
-0.060610685 -0.021635184 -0.11243074 -0.20112865 -0.09038691 -0.0019311714 -0.04677064 -0.024551645
-0.023340315 -0.0166362 0.0152435 -0.11796944 -0.17458019 -0.23754984 0.008333601 0.0015292604
0.025437316 -0.046034276 -0.08504388 -0.017901221 -0.05460691 0.035817552 0.060859848 0.06494999
-0.02051433 0.032161493 0.053933647 -0.15264082 -0.049273655 0.03873293 0.043301634 -0.018526964
-0.06511979 0.07164737 -0.05730221 0.023071267 -0.003533019 -0.0654114 -0.12614249 0.16797705
-0.11778683 -0.16165914 -0.07118206 0.06583243 -0.2012727 0.31914663 -0.077721775 -0.054681655
0.05280518 0.05068208 -0.046060797 0.015289668 -0.17633331 -0.18124972 -0.088878356 -0.10639563
-0.015846916 0.19717121 0.06510453 -0.12739171 0.24612099 -0.13103367 -0.0003578722 0.11029159
-0.24992852 -0.16033529 0.0304448 0.0075590056 0.09024975 -0.11212829 0.10785688 -0.099068254
-0.058101747 -0.0015613281 -0.2807509 0.10993799 -0.1580053 -0.12045967 -0.020168375 -0.23998453
0.27947283 -0.056812447 -0.13251656 0.110504754 -0.1823507 -0.07313308 0.01849763 -0.022067495
-0.03777707 -0.29390702 0.13241698 -0.049948502 -0.13476293 -0.188921 -0.1759908 -0.1207243
-0.012711279 -0.088892296 -0.20808546 0.12270257 -0.110948965 -0.09067964 0.034818433 -0.17422673
-0.027212938 -0.23617002 -0.0059300126 -0.05273322 0.00083447486 0.0062674424 0.08593767 -0.08519369

convs.0.bias f4 [128]
00000000: ef70 10bb 798e d5bd a413 7ebe f224 8bbe
00000010: bb3f 3bbb 5370 8fbe 713b 94be ff11 d2be
00000020: 309a 8abe 19f9 d3bd 6912 91bd 19dc a7be
00000030: 9d0d 80be 6879 01be 6b6f 39be bbfc 82bd
00000040: 37a9 c2bd 23a1 69be e321 a9be e1f0 9cbd
00000050: 29cf f3bd 4e20 f4bd e951 abbe 23ec f0be
00000060: 2954 bebc 56fd b7be 1194 88be 243b 36be
00000070: dc98 9dbe a0d2 1fbe cf00 52be 6395 9ebd
00000080: 6a4a a6be 3fa9 8ebe 39ca 00be 6f77 febe
00000090: 8355 aabe ed01 31be 094e a1be ed07 a0be
000000a0: 3800 b0be 63ae f5be 63da acbe bc3d aabe
000000b0: 03b0 abbe fc60 5abe 74b2 fcbb c009 75bd
000000c0: 4e8b b1be c4ed 11bd ae2f 13be e6d0 04bf
000000d0: e3d7 74be 8447 babd 9748 62be 7fac 96be
000000e0: aa95 adbe 6131 a9be 1a13 92be af38 9fbe
000000f0: f502 dcbe 60eb 49be 0c7c a4bc 5193 71be
00000100: 2d5f 10be 2831 e8be 53b9 b6be 1c26 12be
00000110: 1db8 a8be e0eb 00be c006 cebe 9f12 3fbc
00000120: 8fed adbe e1d2 6bbe 46d7 c6bd 700a b6be
00000130: 1d38 c3be 121d 4fbe 81aa fdbc 7281 80be
00000140: 1d79 a2bd b999 93be 15dc 9cbd d9e7 b0be
00000150: 323e 1dbe 98a3 42be c0d7 32be 8482 f7bd
00000160: 9ecf 8ebe cd2e 71bd 6540 2fbd 1aa0 99be
00000170: 196e e1be 1910 f0bd 9d99 abbe 13dc a7be
00000180: 8227 86be a52a dcbe 337c e2be cbbd a6be
00000190: f902 afbe 99f3 6bbe dbe9 c9be d52c 88be
000001a0: cfab dbbe 506a 94be 5248 2cbd 6228 aabe
000001b0: 3b23 50be 11bf a1be 4314 73be 8821 b7be
000001c0: 6d39 72bd 8d4f 92be 047e 32bd 1c91 b0be
000001d0: f117 99be a83d 90bd 0288 8cbe 49c6 b9be
000001e0: ea32 08be 2a03 69bd 8c3e e1be c840 97be
000001f0: 8211 23be 35d6 36be 83c9 c0be 1cd3 8abe
-0.002203997 -0.10427565 -0.2481218 -0.27176625 -0.0028571922 -0.28015384 -0.289516 -0.41029355
-0.2707076 -0.10350246 -0.070835896 -0.3278511 -0.25010386 -0.12643969 -0.18108909 -0.06395861
-0.095049314 -0.22815375 -0.33033666 -0.076631315 -0.11904747 -0.11920224 -0.3346093 -0.47055158
-0.02323349 -0.35935467 -0.26675466 -0.17795998 -0.30780685 -0.15607691 -0.20508121 -0.07743337
-0.32478648 -0.278635 -0.12577142 -0.49700496 -0.33268365 -0.17285891 -0.3150485 -0.31256047
-0.34375167 -0.4798461 -0.33760366 -0.33250225 -0.33532724 -0.21326059 -0.007711703 -0.05982375
-0.34676594 -0.03562714 -0.14373657 -0.51881254 -0.23910479 -0.09095672 -0.22098003 -0.2942848
-0.33903247 -0.33045486 -0.28530198 -0.31097934 -0.42971006 -0.19718695 -0.020078681 -0.23591353
-0.14098807 -0.45350003 -0.35688266 -0.1427235 -0.32952967 -0.12589979 -0.40239525 -0.011662154
-0.33970305 -0.23029663 -0.09709029 -0.35554838 -0.3812875 -0.20225933 -0.030965092 -0.2509876
-0.07933257 -0.2882822 -0.07659165 -0.34551886 -0.15355757 -0.19007719 -0.17465115 -0.12085441
-0.27892774 -0.058882523 -0.04278602 -0.3000496 -0.4402931 -0.117218204 -0.33515635 -0.3278509
-0.26202017 -0.43001285 -0.4423538 -0.32566676 -0.34181955 -0.23042144 -0.3943623 -0.26596704
-0.42904517 -0.2898736 -0.042061158 -0.33233935 -0.2032594 -0.31591085 -0.23738198 -0.3576777
-0.059136797 -0.28576317 -0.04357721 -0.3448571 -0.29901078 -0.0704301 -0.27447516 -0.36284092
-0.13300672 -0.056887783 -0.43993032 -0.29541612 -0.15924647 -0.17855151 -0.3765374 -0.2711419

convs.1.weight f4 [128, 20, 9]
00000000: 289b 8ebd 9c0f 433c de00 f43d 2a68 d03d
00000010: 5aa1 6b3e 99a6 c5bd cd14 51be 6263 153c
00000020: 84b6 a2be 7f45 b2be 7e20 60be 45ba bb3d
00000030: d93f 323e 0459 81be 2262 92be ec2e 45be
00000040: 9f3e adbd ec28 333d a3e6 efbd 3137 21bd
00000050: e5a3 da3d 06b0 61bd a191 633e 7c90 123d
00000060: 2e99 c8bd 5eda d2bd 4e82 9bbe c2ce 863e
00000070: 34b3 70be 29dd 15be 16a7 bbbd f31c 4fbb
00000080: ae83 5dbe e818 85be 54f5 b4be acf2 5fbe
00000090: d6bb 2abf c456 953e 5728 253e 5d9f 29be
000000a0: ee4d 923d f5fe 073e 5cef a0bc 4d8c 78be
000000b0: 1226 c4be 6fc7 a4bd 9d46 1a3d b329 f7bc
000000c0: 8a07 463e 601e 353d 6d21 253e cf11 03be
000000d0: 9ce1 31be 0129 913d dabf 333e 0a25 f8bd
000000e0: a45e a0be 3eed 48bd 4348 13be e3fc 8d3d
000000f0: a922 c4be 8f44 e0bd 673a 17be dc94 873e
00000100: 777c 96be 03ee 9f3e ec3d 0abe 6e75 45be
00000110: 18fc 85be fce6 a2be e770 1d3e f018 c4be
00000120: 8aa2 013e c19e 473c 4c7d 18be 3f6e 88be
00000130: b9ca 993e 1e8b 00be c46b ffbd 7708 0ebf
00000140: 2f0c a43c 909d 5cbe 957e b13d 5abf f2bd
00000150: 3ba4 86be 22e8 783d deaf 483d 5862 103e
00000160: 328f a8bb 941c 90be 9aa3 0abe 05ab d03b
00000170: 36bb 2ebe 77c9 efbd 4e93 f63d 280c a4bd
00000180: 9a12 943e e942 a8be b904 20be 9aa9 acbe
00000190: 2535 96bb 3cc0 d03d b060 b83c 218d 87be
000001a0: fa85 3cbc 056d 43be 699f 563d 749d c73d
000001b0: d27f 14be 910b 01be f283 49bd ca03 a8be
000001c0: f057 75bd 6c64 9d3d 9149 583e 77e3 c2be
000001d0: d97c 2cbd 6870 fb3d f829 7f3e 1996 74be
000001e0: 7f91 dabe e9dd 71bd 324b 213e d176 0c3e
000001f0: f69a 14bc dab3 713e 95d2 61be 6616 b83e
00000200: 47c4 723d 70db 813e 0246 753e 2285 25bd
00000210: 6aa8 3ebe 6a83 d6be 98dc 9a3d 0450 133d
00000220: 81dc 8fbd 0631 01be 9db9 173d 1afd 3f3e
00000230: 9c54 903d 9435 09be 05b8 debb 9ec9 5fbe
00000240: 54e4 123d e9dc eabd 88a3 5dbc af5a b53d
00000250: 2f79 1a3e d8b1 883e 4aaa 86be c288 d6be
00000260: 3f24 a3be ce16 0b3d dc6f 4bbd 7576 dd3c
00000270: 02d6 1dbf 9bd3 ae3d 64f5 a0bd 600a 24bd
00000280: 5d4b ecbd b4b4 593d 71f7 9d3c 3a54 b3bc
00000290: 7d82 16be ee85 32be 60fd 283e 2676 013d
000002a0: e42c 05be 0dde 6fbd 4172 2e3d df27 71be
000002b0: 2904 ae3d 590b 10bc fbd5 cd3c ac2b f13d
000002c0: 06a7 913d 1c6d d73b ab7c 50bd 92a4 cabe
000002d0: 6cff c7bb 59ee 1bbd 6e33 72bc 328b e6bd
000002e0: aade 8aba 8939 5dbc bc8d 43bd 10b4 a1bd
000002f0: dba8 06be d18e f6bd 2a63 eb3c 6c7d d2bd
00000300: 3d4c 6dbd 8508 0dbd 6f12 98bd 5a85 2abd
00000310: bd70 9dbd ff60 8cbd 5093 d8bc b6d1 273c
00000320: 14d8 8bbd 763d 7cbd 8f61 8bbd 2649 0dbd
00000330: 2a3d 00be 17c6 c7bc 1acb 10bd 7276 a63d
00000340: e007 27bd c97d 68bc 9955 b6bd 2d18 cfbd
00000350: 4200 a1bc 9768 71bd f9ec fcbc 688b 7fbd
00000360: a83c 8abd cfbc 79bd 90e0 fd3c 8f4d 6c3b
00000370: 338a 2ebd 0ec4 08bd 57ec b43b 26cd 20bd
00000380: 6bdb 7bbd a36c 6dbd 695d 463c 3860 acbd
00000390: 6a21 d3bd 0635 55bd 9e98 c0bd 7052 b3bc
000003a0: 605f 86bd 7768 7fbd 46aa cf3c 505b 86bd
000003b0: a641 30bd f536 8ebd cdfb 74bd 8333 723a
000003c0: 8b3b 9cbd b27d 1abc e125 b4bd cb45 2fbc
000003d0: a813 99bc 3af4 bebc 77ab eebc 7f15 3cbd
000003e0: 069a 3dbc 73d9 65bd ad8f 78bd 81d4 78bd
000003f0: 86ae 463c 2688 5ebd 93f8 9cbd 9357 dbba
-0.069631875 0.011905577 0.11914228 0.10176118 0.2301077 -0.096509166 -0.20418091 0.009117933
-0.31779873 -0.34818646 -0.21887395 0.091663875 0.17407168 -0.25263226 -0.28590494 -0.1925618
-0.0845921 0.043740198 -0.11713912 -0.039359275 0.10675792 -0.05509951 0.22223522 0.035782322
-0.09794842 -0.102955565 -0.30372852 0.2632962 -0.2350586 -0.14635147 -0.091627285 -0.0031602948
-0.21632263 -0.25995564 -0.3534342 -0.21869916 -0.66692865 0.2916776 0.1612867 -0.16564699
0.0714377 0.13280852 -0.019645385 -0.2427227 -0.38310295 -0.080458514 0.037665 -0.03017125
0.19338813 0.04421842 0.16126032 -0.12799762 -0.1737122 0.07087899 0.17553654 -0.1211644
-0.31322205 -0.049054377 -0.14383034 0.06933 -0.38307694 -0.109505765 -0.14768372 0.26480758
-0.29391834 0.31236276 -0.13500184 -0.19283077 -0.26168895 -0.31816852 0.153751 -0.38300276
0.1265966 0.012183846 -0.14891547 -0.2664661 0.30037478 -0.12553069 -0.124717265 -0.55481666
0.02002534 -0.2154448 0.08666722 -0.11852904 -0.26297173 0.060768254 0.048995845 0.14100015
-0.0051440233 -0.28146803 -0.13538972 0.0063680434 -0.17063603 -0.11708348 0.12039815 -0.08010131
0.28920442 -0.32863548 -0.15626802 -0.33723146 -0.004583972 0.10192916 0.022507042 -0.2647486
-0.011506552 -0.19084556 0.05239812 0.09746829 -0.14501885 -0.12602068 -0.0491981 -0.3281539
-0.059898317 0.076851696 0.21121813 -0.38064167 -0.04211125 0.12277299 0.24918354 -0.23885383
-0.4268913 -0.05904952 0.15751341 0.137172 -0.009070149 0.23603764 -0.22052987 0.3595459
0.059269216 0.2536273 0.23952487 -0.04041017 -0.18618932 -0.41897136 0.07561606 0.03596498
-0.0702448 -0.12616357 0.03704225 0.18748894 0.07047388 -0.13399345 -0.006796839 -0.21854255
0.035862282 -0.114679165 -0.013527758 0.08855187 0.1508529 0.26698184 -0.26301795 -0.41901213
-0.3186359 0.033957295 -0.049667224 0.027034024 -0.61654675 0.08536454 -0.078593045 -0.040048957
-0.11537812 0.053150848 0.019283028 -0.021890748 -0.14698215 -0.17433903 0.16502905 0.031606816
-0.13005406 -0.058561374 0.04258943 -0.23550366 0.08496887 -0.008791768 0.025126448 0.11775908
0.07111935 0.006574286 -0.050900143 -0.39578682 -0.0061034467 -0.038069103 -0.01478277 -0.11257018
-0.0010594924 -0.013502487 -0.04774259 -0.07895672 -0.13150351 -0.12038959 0.028733809 -0.102778286
-0.057934035 -0.034431953 -0.07425391 -0.04163108 -0.07687519 -0.06854438 -0.026437432 0.01024287
-0.06828323 -0.06158205 -0.06805717 -0.034493588 -0.12523332 -0.024386449 -0.035349943 0.081280604
-0.040778995 -0.014190146 -0.08903045 -0.10112033 -0.019653443 -0.058937635 -0.030874716 -0.062388808
-0.067498505 -0.060971078 0.030990869 0.003605697 -0.042612266 -0.033390097 0.005521338 -0.039258145
-0.06148855 -0.057964932 0.012107232 -0.0841679 -0.103091076 -0.05205252 -0.094041094 -0.021889895
-0.0656116 -0.062355485 0.025349747 -0.06560385 -0.043031357 -0.06944076 -0.05981045 0.0009239243
-0.076285444 -0.009429382 -0.08796287 -0.010697792 -0.01868613 -0.023309816 -0.029134495 -0.045918938
-0.011572367 -0.05611558 -0.060683895 -0.060749535 0.012126571 -0.05432906 -0.07664599 -0.0016734473

convs.1.bias f4 [128]
00000000: 0a5d 36be 7be7 e8be af62 80be 4f62 b1bd
00000010: e63b 74be 0962 b2be b3ef c4bc b2f3 5dbe
00000020: 3c6c 81be 3dc0 cebe 6bf1 91be 41d7 b0bc
00000030: 0f20 dbbe 57e1 f2be cd0d 86be 5e78 8bbe
00000040: 0e27 70bb 9a3f b2be 9acf 2abe e797 6abe
00000050: 96a0 7bbe 1176 80be 04e5 afbe acf3 bbbe
00000060: af81 c0be 0126 80be 98dd 35be 7e7d 8abe
00000070: fb22 81be af77 c6be ca58 8fbe 6b86 77be
00000080: ed04 ddbd 22c8 ccbb 8683 adbe c20f e0bd
00000090: 6aaa 41be 2f8a 94be 2d44 a3be a904 41be
000000a0: 864a 71be 4418 edbe e4eb 5ebe 9453 9fbe
000000b0: 4404 abbe cc7d b2be 767f 8bbe 1d62 1fbe
000000c0: fb21 02be 84fe fdbd 2dce 4fbe 5849 7abe
000000d0: 9e56 28bc 41f1 5ebe 4acc 96be 449d a3be
000000e0: 1e50 29be 0af3 7bbe 1802 05bf a023 01be
000000f0: f554 b9be 1d13 c2be 45f8 edbd 4180 4abe
00000100: 5c9a 55bc d9d6 c3be ba9c f8bd 90c5 1ebe
00000110: 80af bfbe 65ee ebbd 3426 41be 7696 1dbd
00000120: 666f 09be ca56 c3be 7198 d6be fb8f 81be
00000130: 697b dbbd ed38 8fbe 4b6e 19be a2b8 a5be
00000140: c031 d1be 5695 86be 45b1 2b3c a329 d6be
00000150: df9a b0be f25a 96bc 2e58 90be d571 a1be
00000160: 8eea a2be 015a 7ebe 21ef 96be 2017 96be
00000170: 4e17 79be 7be0 b4be 3609 89be 1cc5 b7be
00000180: 2748 b2be 6376 ecbe 4fdb 76be 7ed8 94be
00000190: b875 ccbe 1b01 95be 82b4 d1be 9b2a babd
000001a0: 0dcf 6dbd 3fc8 73be 2c71 bcbe 61a9 2dbe
000001b0: 3b1c 87be c476 30bd fa7a d7be 1175 8dbe
000001c0: 5ef5 c7be 018c 98be 6cda 7fbe 15cc 3cbe
000001d0: 4e25 56bd 69e2 b0be 36cb 7fbe 37b5 d8be
000001e0: 64a6 84be a3c9 95bd 8266 babe 36e4 84be
000001f0: d4d7 48be 66a1 a3be 2cf2 8bbe e03c 42bc
-0.17808929 -0.45489106 -0.2507529 -0.08661329 -0.23850974 -0.3484042 -0.024040079 -0.21674994
-0.2527789 -0.4038104 -0.285045 -0.021587016 -0.42797896 -0.47437546 -0.26182404 -0.2724027
-0.0036644372 -0.3481415 -0.16680756 -0.22909509 -0.24572977 -0.25090078 -0.34354413 -0.36709344
-0.3759894 -0.25028995 -0.17760313 -0.27048868 -0.25222 -0.38763186 -0.27997428 -0.2417237
-0.10791955 -0.0062494436 -0.33889407 -0.109405056 -0.18912664 -0.29011676 -0.31887951 -0.18849434
-0.23563585 -0.46307576 -0.21769673 -0.31118453 -0.33401692 -0.348616 -0.27245682 -0.15564771
-0.12708275 -0.12402061 -0.20293494 -0.24442041 -0.010274557 -0.21771719 -0.29452735 -0.31955922
-0.16534469 -0.24604431 -0.5195632 -0.12611246 -0.3619763 -0.37905207 -0.11619619 -0.19775487
-0.01303729 -0.38249853 -0.12139268 -0.15505052 -0.37438583 -0.115200795 -0.1886223 -0.03847357
-0.13421401 -0.38152152 -0.4191318 -0.2530516 -0.10716898 -0.27973118 -0.1498348 -0.32367426
-0.4085827 -0.2628581 0.010479276 -0.4182864 -0.34493157 -0.018353913 -0.28192276 -0.3153216
-0.31819576 -0.24839021 -0.29479316 -0.29314518 -0.24325296 -0.35327515 -0.2676484 -0.3589257
-0.34820673 -0.46184072 -0.24107097 -0.2907142 -0.39933562 -0.29102406 -0.4095803 -0.090901576
-0.058058787 -0.23806857 -0.36805093 -0.16959144 -0.26388726 -0.043082014 -0.4208601 -0.27628377
-0.39054388 -0.29794315 -0.24985665 -0.18437226 -0.05228167 -0.34547737 -0.24979863 -0.42325756
-0.25908196 -0.0731385 -0.36406332 -0.2595536 -0.19613582 -0.31959075 -0.273332 -0.011855334

convs.2.weight f4 [128, 20, 13]
00000000: 8800 d23c bf6d ff3d 78ca e93c 93be 403d
00000010: 793a 37be 099b fabd f55a 593e 3422 c43c
00000020: f804 7abe eaf8 09be 0490 373d ff4f b93e
00000030: 740f 71bd fab2 563c 3188 bd3d acbb 50be
00000040: 2c59 02be 71ad 113e 4296 fabd 950a 4bbd
00000050: caba 0d3e 2cfa 9bbd 0cba 36be 29aa 18be
00000060: 6d12 20be 7362 c7bd 9360 1ebd e462 8bbd
00000070: 7c2a 1c3e 5cd5 61be c940 9f3d f259 eebc
00000080: 408a 15be c2fb 443e f2ab eebd f8af 823e
00000090: 791f c83c 5d1d 4abe 8c7d 603d efa1 a4bd
000000a0: 5a60 a3be 705e 38be a1f7 8ebe 4525 d53d
000000b0: 8e2d cdbd 6c8e 423c c6ed d53d 4d3c ed3c
000000c0: fce2 993e 9893 6e3e db43 84be 0a54 b2bd
000000d0: 797e 123e 74ac dbbd 64b1 0cbd d742 44be
000000e0: 7a80 55be bf8f 503d ddc1 b63e 1889 793e
000000f0: a56e 923d 04af e8bd e945 ad3c d373 8f3e
00000100: 374d 2c3c cd60 09be e1b8 0d3d d5d2 0ebe
00000110: b91c c4bd 6082 ed3d d188 6abc 628b 843d
00000120: 9c8e 053e cc4c a4be c470 5bbd a4c8 653c
00000130: 3cb0 35be 6742 dd3c 57f2 dabd 41c3 4fbe
00000140: a8bc 86be 44ca bbbe 9d06 193e 0e4a 28be
00000150: 059d 083d 0afe 21bd a0b7 94bd 598e d2bb
00000160: f0e0 f83d 9a8b 04be 96a2 9dbd 0a8f cc3d
00000170: be05 333d cf13 a43e 2d56 1cbe 7bd2 abbe
00000180: 9e11 6b3e dc74 693d f04e d6bd b544 90be
00000190: f5ad 03be c171 a9be cbfa 743d dbd5 dcbd
000001a0: f81c 9bbd f628 94be a67e c3bd 04fb 133e
000001b0: 734c ecbd c6de f8bb aafe 313b d701 c53e
000001c0: 86fa 56be a378 8c3d 49b9 2e3d 1fa7 9fbd
000001d0: 2116 cb3c 4fbe 57be 2cd2 d23c 3817 6abc
000001e0: ff6f f13d 820f 90be b8c7 1a3e 0a3b 70bc
000001f0: 1d31 6dbd c68d 453a 4795 6abe 5257 e53b
00000200: 0fff dd3c a084 db3d ba33 a4be 107d b83c
00000210: e215 e5bc d47a 803d 39ac 7dbe 3556 b53d
00000220: 5096 e5bd 8634 cdbd 69dc 48be e08c ccbd
00000230: 652f b93d ab1f cfbd 3029 ac3d d9d1 2d3c
00000240: ca01 d73d e057 90be b1cd 0cbe 68ba c03d
00000250: 7222 64be 2eac 4dbd 8d2a 1e3e cff0 d4bd
00000260: 6d05 0ebe 6ac9 54bc 0e9d 8cbe 6a17 46bd
00000270: f060 4cbe 10d4 cdbc de42 38bd 6db6 983d
00000280: d67b 12be ed0a 343d 6e72 11be 23f1 1e3c
00000290: c55b 55be b7eb fcbd 167d 17bd 9915 313d
000002a0: fcb5 dd3d 35c1 8fbe 0263 22bd 9c52 103c
000002b0: 6b77 503d abf9 b7be 402d e33d 972f d9bd
000002c0: 0650 17be 48ff 05be 9712 98bd e299 503e
000002d0: e7ef 0c3c 66f6 67bd d8df 99be 4d43 9dbd
000002e0: f08f febd 1cad 913d 42f0 7abe 8970 63be
000002f0: 36c2 d43e 19f8 8abd bb97 d83b 526c 643d
00000300: 73ab 74be 5616 673e 9a59 dfbe d4ba 583d
00000310: 7ffb b23d 0c0d 513d d515 3dbd a2f3 ebbd
00000320: 3cc5 53be 3c7b 92bd ad8b f13d 9d73 35be
00000330: 722a 373d 00c0 fbbd 47d9 883d b4d2 2cbe
00000340: 11b2 503c c06a 663c ece2 c63c 6011 b2bc
00000350: 9c62 ebbd bd5f afbd 5689 9abc 00da 433d
00000360: 8d6e 2abb c016 613d 87f6 e6bd 1a46 2cbc
00000370: c745 0b3d 32df 53be 1390 bebe eccb 1b3d
00000380: 2c17 71bd de6b 8f3e 6d50 adbd fece 54be
00000390: b8de 4bbe 9a4a 8cbe 4654 193d b700 0e3d
000003a0: 192a abbe 520b 27be 9ab1 21be 8f15 35be
000003b0: 3c52 413b f32b 02be d9c1 66be 4ed0 32bd
000003c0: 4967 c5bd de64 da3d 017c 26be ce26 cbbb
000003d0: bbe2 023e 5ab6 d8bd e60e c2bd 45e0 a6bc
000003e0: 66c6 323b 4869 87bd 635d 003e 71ab 6cbe
000003f0: ed18 ae3d bffb f0bd 1409 9dbd 3a59 46bd
0.025635019 0.12472104 0.028538927 0.047056746 -0.178934 -0.12236602 0.21226104 0.02394209
-0.24415958 -0.1347386 0.04481508 0.36193845 -0.058852628 0.013104195 0.09254492 -0.20384091
-0.12729329 0.14226319 -0.12235691 -0.04957064 0.13840786 -0.07616076 -0.17844409 -0.14908661
-0.15632029 -0.097355746 -0.03866632 -0.06805971 0.15250582 -0.22054046 0.07776029 -0.029095624
-0.1460352 0.19236663 -0.1165389 0.25524879 0.02442907 -0.19737764 0.05480723 -0.08038699
-0.31909448 -0.18004775 -0.279233 0.10407499 -0.100184545 0.011874776 0.10445742 0.028959418
0.30055988 0.2329849 -0.2583302 -0.087074354 0.14306058 -0.10726252 -0.03434886 -0.19166122
-0.20849791 0.050918337 0.3569478 0.24368703 0.0715001 -0.113615066 0.0211515 0.28018054
0.010516456 -0.13415833 0.034600142 -0.13947614 -0.09575791 0.11597133 -0.014314846 0.06471898
0.13042682 -0.3208984 -0.05357434 0.014024887 -0.1774301 0.027009202 -0.10690754 -0.20289327
-0.26315808 -0.36677754 0.14943929 -0.164345 0.03335287 -0.03954891 -0.07261586 -0.0064256606
0.121522784 -0.12943879 -0.076970264 0.0998822 0.043706648 0.32046363 -0.15267248 -0.3355902
0.22955939 0.05699621 -0.10464275 -0.2817742 -0.12859328 -0.330946 0.059809487 -0.10782977
-0.07573885 -0.289375 -0.09545641 0.14451224 -0.11538019 -0.007594916 0.0027159848 0.38477966
-0.20994005 0.06858947 0.04265717 -0.07795548 0.024790825 -0.2106869 0.025734983 -0.014287762
0.1178894 -0.28136832 0.15115249 -0.0146625135 -0.057908166 0.00075360795 -0.22908507 0.006998935
0.02709916 0.107186556 -0.32070714 0.022520572 -0.027964536 0.062734276 -0.24772729 0.08854333
-0.112103105 -0.10019784 -0.1961533 -0.09987807 0.09042243 -0.10113462 0.084062934 0.010609114
0.10498388 -0.28192043 -0.1375034 0.09410554 -0.22278765 -0.05021303 0.1544592 -0.10397493
-0.13869257 -0.012987474 -0.27463573 -0.048362173 -0.19958854 -0.025125533 -0.044985645 0.0745667
-0.14305052 0.043955732 -0.14203808 0.009701046 -0.20835789 -0.123496465 -0.036984526 0.043233488
0.108257264 -0.28077093 -0.039645202 0.008808758 0.050895136 -0.3593267 0.11092615 -0.1060478
-0.1477662 -0.13085663 -0.07425421 0.20371202 0.008602119 -0.05663147 -0.30053592 -0.07678852
-0.12429798 0.07113096 -0.24505714 -0.22210898 0.4155442 -0.06785602 0.0066098846 0.055767365
-0.23893528 0.22567114 -0.43623048 0.05291255 0.08739375 0.051037833 -0.0461634 -0.11521079
-0.20680708 -0.07152411 0.11794219 -0.17719884 0.044718213 -0.122924805 0.06682067 -0.16877252
0.012737767 0.014063537 0.024278127 -0.0217368 -0.114934176 -0.085631825 -0.018864315 0.047815323
-0.0026005835 0.054953337 -0.1127749 -0.01051476 0.03400209 -0.20690611 -0.37219295 0.038036272
-0.05885999 0.28011984 -0.084626056 -0.20782086 -0.19909179 -0.27400666 0.037433885 0.03466865
-0.33430555 -0.16312912 -0.15790406 -0.17684005 0.0029498478 -0.12712078 -0.22534885 -0.043655686
-0.09638841 0.1066377 -0.16258241 -0.0061996942 0.12781803 -0.10581656 -0.09475498 -0.020370612
0.00272789 -0.06611878 0.12535624 -0.23112275 0.08500848 -0.11766767 -0.07667747 -0.048424937

convs.2.bias f4 [128]
00000000: 9fa6 bebc b1e3 033f 040c 94be f952 9cbe
00000010: 1bec 8cbe 2c15 8bbe 711d d6be babe a4be
00000020: abb5 57be d988 29bd ef64 aebe 5c02 99be
00000030: c6e9 a1bd 0391 3cbe b87e e2bd 0bda 7bbe
00000040: 6e8f a1be f34f 80be edde 90bd bf7f 80ba
00000050: 0741 8abe d73d 78be 556f 26be 7b51 6bbe
00000060: bf55 d2bd 68bb 93be 5a7d a8be 8be7 aebe
00000070: 11d3 47be e33c b4be f983 a0be add4 b23d
00000080: 3de7 bfbd 2fb6 b1be 5976 c8be 34dc 013f
00000090: 1fe3 e4bc f097 54be 87ba 7ebe 3cb6 9fbe
000000a0: 687e 39be 0ee0 3bbd 8da2 9abe c410 0bbd
000000b0: d8a2 d2bd 1a7c c4be e34a 8dbd abaf afbe
000000c0: 33da c0bc e698 62be fcae 16be ffef d2be
000000d0: e93c 92be 73a6 a1be 1a70 86be ea2a 8ebe
000000e0: 8cc2 85bd 663c 81be 35a3 87be ae7e 13bd
000000f0: 1709 84be 3e9f b4be 5e37 45be a57a 3fbe
00000100: 74f2 8dbe 51ea 9dbe d880 9fbe 4b07 c2be
00000110: 2d6c 81be 6828 71be b847 42be 5a01 c1be
00000120: ae28 c6be 5d81 3dbe 3a69 9dbe 7571 8abe
00000130: 2e5e a7be 527b b5bd fc40 72be 777e 2ebe
00000140: c903 23be 097e 41be 0030 b9be 1b4c 9dbe
00000150: 6c51 2cbe d4ae a5be 08a9 96be 6b8d a0be
00000160: 1b2d 7cbe f06a 4fbc c5a5 8dbe 6382 5fbe
00000170: 1423 69be 2b26 9ebe a186 c9be 944a 1cbe
00000180: 401f d0ba 9337 88be 259a 38be e2e9 dbbe
00000190: b23e acbe 7c9b b4be bddc abbe 40a0 2dbe
000001a0: e4d7 63be a2ab 48be c527 933d 17f7 51be
000001b0: 1a79 c9be cd22 b1be c135 05be f9c4 b7be
000001c0: 67e2 d3be c864 ccbe b435 00be bb49 f1bd
000001d0: 0962 9cbe 346d 9abe c6bb a0be 1b03 b5be
000001e0: 0b6e 29be 4f25 98be 898e 1fbb 53af 99ba
000001f0: 8e9b bbbe 8226 92be dff3 babe c59a b5be
-0.02327281 0.51519305 -0.28915417 -0.30532053 -0.27523884 -0.2716459 -0.41819337 -0.32176763
-0.21065395 -0.041390274 -0.3406138 -0.29884613 -0.07905917 -0.18414693 -0.11059326 -0.24594896
-0.3155474 -0.25060996 -0.0707377 -0.0009803696 -0.27002737 -0.2424234 -0.16253407 -0.22980301
-0.10270261 -0.28853917 -0.32908136 -0.34161028 -0.19514109 -0.35202703 -0.31350687 0.08731971
-0.09370277 -0.34709308 -0.39152792 0.5072663 -0.027940331 -0.20761085 -0.24875842 -0.3119372
-0.18114626 -0.045867972 -0.3020214 -0.033951536 -0.10284966 -0.38375932 -0.06899049 -0.34313712
-0.023541545 -0.22128639 -0.14715189 -0.41198727 -0.28562096 -0.31572303 -0.26257402 -0.27767116
-0.065312475 -0.25241393 -0.26491705 -0.036009483 -0.25788185 -0.35277742 -0.19259402 -0.18699129
-0.2772404 -0.30842832 -0.31152987 -0.3789619 -0.25277844 -0.2355057 -0.18972671 -0.37696344
-0.3870291 -0.1850638 -0.30744344 -0.27039686 -0.3268904 -0.08861412 -0.23657602 -0.1704043
-0.15919413 -0.18895735 -0.36169434 -0.30722126 -0.16827935 -0.32359946 -0.29425836 -0.31357893
-0.24626581 -0.012659773 -0.27665535 -0.21827082 -0.22767287 -0.30888495 -0.39360526 -0.15262824
-0.0015878454 -0.266049 -0.18027551 -0.42951876 -0.33641583 -0.35274875 -0.33566847 -0.16955662
-0.22250324 -0.19596723 0.0718532 -0.20504414 -0.39350206 -0.34596863 -0.13008787 -0.35892466
-0.4138367 -0.3992064 -0.12520486 -0.11781641 -0.30543545 -0.3016144 -0.3139326 -0.35353932
-0.16545884 -0.29715964 -0.0024346432 -0.0011725224 -0.36642116 -0.28545004 -0.36514184 -0.35469642

decoder.0.weight f4 [1, 384]
00000000: ce0d 643f d5d2 0abe 6cf7 a73e 974d cb3e
00000010: 5a9d b73e a559 ab3d ca43 f1bf f8a0 383f
00000020: a582 d0be 8f5d 1bbf 677b a93f 7b72 363f
00000030: efae 9d3f 63f3 623f 9dcf b53e f052 d43e
00000040: 835f 3a3e ef14 77bf c67a 953f fa07 61be
00000050: 8d7a 69bf 7808 5b3f 65e8 313f c63a 87bd
00000060: cc54 f83e 6ac4 403d 9567 7e3f f8bd 873e
00000070: 4cf1 6abf 55a7 38bf 8085 85bf 9550 c4bd
00000080: ef3c 48bf 52d4 45be f0f9 24be 52b4 2f3f
00000090: f40d cb3c ae3c 1a3f abd5 513b fc0c 523b
000000a0: 8a4c 4bbf a675 e83d c5bc bc3d af82 883c
000000b0: 554c eebc cc7a bc3e 18de d33d df7e 253e
000000c0: 8089 ae3e 8ab7 143e f1df 86bf e7c0 3abf
000000d0: 349b f0be 2e03 aebd 5d65 fcbd 1f43 7a3f
000000e0: bcbb 5a3e 0f2d db3e 2acc abbe 6513 fbbe
000000f0: cdd4 4ebf 0891 ac3e 8b0e 533f 2f34 6abe
00000100: 403b 613f 0620 043e 9978 123f 2efa 403e
00000110: 6170 b93f be2f 3c3f 2062 363f c570 7abe
00000120: 860b 3cbd e194 303e 1dd3 d0be 4caa 6bbf
00000130: e36c 983f fe2e 753f c9e9 ec3d a415 0dbe
00000140: 4e9b 833d 8784 4cbf 3759 1ebe b867 88be
00000150: 8027 97be 6142 52be f447 5d3e 348a 003f
00000160: 0cc1 a33f 806a 833e 03c7 913f 4cf2 86be
00000170: 7b7f 97bc 8ea4 fabe abd5 913c 60c8 d13d
00000180: e8fe 50bf 14c6 74bd 8dc7 e13f 7068 2abd
00000190: d530 c63d c94c 8d3d ed32 3ebe 9961 cbbe
000001a0: 36b1 083d ce15 0b3f d793 bcbe 7a0c 97bf
000001b0: 5e87 82be 0d44 0dbf aacf 6b3d cee9 d33c
000001c0: 8e3e 1dbf 300a 523f 8fde 3a3e a91f b43e
000001d0: f975 0f3f 19bf d03d 3ab5 1d3f d88b babd
000001e0: 7dd9 3fbe e22d 263f bbbc 273e dde8 403f
000001f0: d48c ccbe ce57 e4be ba45 cd3d f96a 8e3f
00000200: 174f 803f e1b8 eebb 924b e7bc 3ffc 9c3d
00000210: b7f3 62bf a650 c03b 9610 6bbf b3d2 d63d
00000220: 1787 3d3e 71d6 a43d ad2c 553e a4f7 b33f
00000230: 4fd4 903c a668 013e 0a42 67b9 62e7 22bc
00000240: 18d7 bc3f 40b0 123d 8214 8dbd 96f1 24bf
00000250: 8923 f83d aae4 073c 88bc b2bd a671 c73c
00000260: a4fa 663f 358d 2bbf 6e3e 8fbc 2354 2ebd
00000270: 76b7 203e 428e 29bd d6bb 113c f566 d23c
00000280: 5aad 7ebf e220 f7be 7745 c4ba ac2f 243f
00000290: be89 dfbd 39f4 5bbd 4273 23bf 5b6d 12bf
000002a0: e9a0 88bf b0f3 13bf c221 843e d0b1 3ebe
000002b0: b931 85bf d8dc 92be d5d9 08bf cafb 0fbe
000002c0: 68a9 5b3d 7f75 f6bb c8c8 23bf 5f8d 113d
000002d0: c51f 203e 9d25 17be abee 98bd 8bb7 a6bc
000002e0: 095a 5e3f a916 82bf 5521 ba3d 76e7 fb3a
000002f0: 305a 4bbf a55e 76bd a73f f4bd 0dbf 883d
00000300: 6ec6 203f aa89 d13c e905 19bf 5258 513d
00000310: 8e9c 3f3d 3647 25be 3ab3 173d 772e c93d
00000320: d92a 90be d5bf 6c3d 2cf3 c13d 5d48 7abc
00000330: d1fd a93e b60e 883f cf00 f3bc 5afa aabe
00000340: dc5e 7bbf 0059 123d a21c 8e3e fd3d a53d
00000350: 98e5 1b3d 7231 da3d 0bae 9e3d 78b4 f5be
00000360: 573a 88bf 4571 88bd 4ed8 233d f9bb 313d
00000370: 68d9 63bf fc17 013e a726 2fbf 8a93 ba3c
00000380: b53d b13c a46e b7bd be73 4b3d cb62 74ba
00000390: e322 fd3b 24de 0fbe 380c 28bd 8601 883f
000003a0: 65e3 fc3e 842e 503c abb6 4cbd 201b 61bf
000003b0: 5a84 0f3e 9342 853c e942 593d 7570 8e3b
000003c0: fa32 0bbc 1180 e1bc 7fc5 543f 76db 663d
000003d0: 6c95 003f 1964 43bf be85 643f 7b12 0d3e
000003e0: 355c 3b3f 723f 503f 5e6c e83c 5175 ab3c
000003f0: 41ca fd3e a4bc 503c 23df 563c 85f6 783f
0.89083564 -0.13556989 0.32805955 0.39707634 0.35862237 0.08366708 -1.8848813 0.7212062
-0.40724674 -0.60689634 1.3240784 0.71268433 1.231901 0.8865263 0.3550996 0.41469526
0.18200497 -0.9651632 1.1678092 -0.21975699 -0.9120262 0.855598 0.6949523 -0.06603007
0.48502195 0.047062315 0.99376804 0.26512122 -0.9177444 -0.7213033 -1.0431366 -0.09585682
-0.7821798 -0.19319275 -0.16110969 0.6863452 0.024786927 0.6024884 0.0032018225 0.0032051196
-0.79413664 0.11350565 0.092156924 0.016663877 -0.029089132 0.36812437 0.103450954 0.16161679
0.3408928 0.1452314 -1.0537091 -0.72950596 -0.4699341 -0.084967 -0.12324021 0.9775867
0.21360677 0.42807814 -0.33554202 -0.49038234 -0.8079346 0.337044 0.82444066 -0.22871469
0.87981033 0.12902841 0.5721527 0.18845436 1.448742 0.7351035 0.71243477 -0.2445708
-0.045909427 0.17244293 -0.40786067 -0.9205673 1.190823 0.9577483 0.115680285 -0.13777786
0.064261064 -0.7988972 -0.1546372 -0.2664163 -0.29522324 -0.20533134 0.21609479 0.5021088
1.2793288 0.2566719 1.1388859 -0.26356733 -0.018493405 -0.4895367 0.01780208 0.102432966
-0.81638956 -0.059759215 1.7639023 -0.041603506 0.09677283 0.06899411 -0.18574114 -0.397229
0.033372127 0.54330146 -0.36831543 -1.1800683 -0.25493902 -0.5518196 0.05757109 0.025868323
-0.61423576 0.82046795 0.18248962 0.35180405 0.56039387 0.10192699 0.61604655 -0.09108704
-0.18735309 0.6491376 0.16380589 0.7535532 -0.39951193 -0.4459824 0.10023065 1.1126395
1.0024136 -0.007285223 -0.028234277 0.076652996 -0.8865313 0.005868989 -0.91822183 0.104894064
0.18508564 0.08048714 0.20817824 1.4059949 0.017679362 0.12637576 -0.00022054478 -0.009942861
1.4753141 0.035812616 -0.06888677 -0.6443113 0.12116153 0.008294264 -0.08727366 0.024346184
0.902262 -0.6701234 -0.017485823 -0.042560708 0.15694985 -0.041395433 0.008894881 0.02568386
-0.99483263 -0.48267275 -0.0014974315 0.6413524 -0.10914944 -0.053699706 -0.63847744 -0.57198113
-1.0674106 -0.5779371 0.25807005 -0.18622518 -1.0405799 -0.28684115 -0.53457385 -0.14060894
0.053628355 -0.007521331 -0.6397824 0.035535213 0.15637119 -0.14760442 -0.07467397 -0.020351192
0.8685613 -1.0163165 0.09088389 0.0019218761 -0.7943449 -0.060148854 -0.11926203 0.06677065
0.6280278 0.025578339 -0.59774643 0.05110962 0.04678016 -0.16140446 0.03703616 0.098233156
-0.2815769 0.057800133 0.094702095 -0.015276042 0.3320146 1.062949 -0.029663472 -0.33394128
-0.9819162 0.03572941 0.2775622 0.08068464 0.038060755 0.10653962 0.0774804 -0.4798925
-1.0642804 -0.066622294 0.040001206 0.043392155 -0.8900361 0.12606806 -0.68418354 0.02277543
0.02163587 -0.0895665 0.049670927 -0.00093225826 0.007725106 -0.14049584 -0.041027278 1.0625465
0.49392238 0.012706403 -0.049978893 -0.87932014 0.14015332 0.016267097 0.053042326 0.004346902
-0.0084960405 -0.027526887 0.83113855 0.056361638 0.50228 -0.7632461 0.89266574 0.13776581
0.7318757 0.8134681 0.028371986 0.020929964 0.4956837 0.012740288 0.013114723 0.9725116
