saved_models/model_10.pkl (torch_old, 281078 bytes, 7 tensors)

convs.0.weight f4 [128, 20, 5]
0	0x3e0af3ee	0.13569614
1	0x3bc7361e	0.0060794493
2	0x3e11e785	0.14248474
3	0x3d3d9e0a	0.046293296
4	0x3c85b146	0.016319882
5	0x3e0cc9f9	0.13748921
6	0x3e1ad581	0.15120508
7	0xbdb19faa	-0.08673032
8	0x3e010703	0.12600331
9	0x3da9c036	0.082886145
10	0x3d95d163	0.07315328
11	0xbd82b1d8	-0.06381577
12	0xbe0c9388	-0.13728154
13	0x3da367ac	0.07978758
14	0xbc3b926a	-0.011448482
15	0xbcf5ae00	-0.029990196
16	0x3d43db9a	0.04781685
17	0xbdafa82f	-0.08577
18	0x3ce83835	0.028347114
19	0x3d41add8	0.04728493
20	0xbe9d42dc	-0.30715072
21	0x3d21b769	0.039481554
22	0xbc29e2c3	-0.010369006
23	0xbeb277fa	-0.3485716
24	0xbdab0d30	-0.08352125
25	0x3d3db24d	0.04631262
26	0xbc9abdda	-0.018889356
27	0x3e40d32b	0.18830554
28	0x3d2a07f3	0.041511487
29	0xbcabec55	-0.020986715
30	0xbc477ee7	-0.012176252
31	0x3d05aa15	0.032632906
32	0x3d755301	0.05989361
33	0xbcc1d335	-0.023660282
34	0x3de8b74f	0.11363088
35	0xbdff19d7	-0.124561004
36	0xbe37d1c7	-0.17951117
37	0xbe111822	-0.14169362
38	0xbd2ceb1c	-0.042216405
39	0xbe62f24f	-0.22162746
40	0xbda48387	-0.08032899
41	0xbdb680eb	-0.08911308
42	0x3c5e879e	0.013582138
43	0xbce3ac99	-0.027792262
44	0xbe0616ac	-0.13094586
45	0xbb9deb02	-0.004819275
46	0xbdfba97b	-0.12288185
47	0xbd868ca6	-0.06569795
48	0xbcaa4d94	-0.020788945
49	0xbe4604c7	-0.1933776
50	0xbdbcfb15	-0.092275776
51	0xbda92451	-0.0825888
52	0x3cf9412e	0.030426588
53	0x3e2e38a4	0.17013794
54	0x3de4253d	0.11139915
55	0x3de2f3c5	0.110816516
56	0x3e2ec0f0	0.17065787
57	0x3dde4d04	0.10854533
58	0x3c1d18a9	0.009588399
59	0x3dbe1e5c	0.09283134
60	0xbe1ef815	-0.15524323
61	0xbdb7cbcc	-0.08974418
62	0x3cc67cb7	0.02422939
63	0xbbc0fa12	-0.0058891857
64	0xbdcb03c1	-0.099128254
65	0xbd73af0c	-0.05949311
66	0xbc5a3bc9	-0.013319918
67	0x3c419169	0.011814454
68	0x3d23adf5	0.03996082
69	0xbd2b101c	-0.04176341
70	0xbd7f327f	-0.062304016
71	0xbcdf091e	-0.027226027
72	0xbe0ed681	-0.13949014
73	0xbe422744	-0.18960291
74	0xbe3552a3	-0.17707305
75	0x3c92a156	0.017899197
76	0xbd023fbf	-0.031799074
77	0x3da85a4d	0.082203485
78	0xbd6d035f	-0.057864543
79	0x3d63c1c2	0.055604704
80	0xbc46f088	-0.012142308
81	0x3c8a2e7d	0.01686787
82	0xbd5d051e	-0.05395996
83	0x3c82bb65	0.015958497
84	0xbdf37c64	-0.1188896
85	0xbeaf7f50	-0.3427682
86	0x3c07dee5	0.008292888
87	0x3d1fdba0	0.03902781
88	0xbdf30fe8	-0.11868268
89	0x3c822c57	0.015890284
90	0xbd30257c	-0.043004498
91	0xbe003b4c	-0.1252262
92	0x3e1d0a6f	0.15336011
93	0x3dc300b3	0.09521618
94	0xbe129c83	-0.14317517
95	0x3b0d35c3	0.0021546937
96	0x3c9ab055	0.01888291
97	0xbcaf8468	-0.02142544
98	0xbe04cfd1	-0.129699
99	0xbd8eaaa0	-0.06966138
100	0x3c3c72f7	0.011502019
101	0x3e1a4d4e	0.15068552
102	0xbb0ed9fd	-0.0021797412
103	0xbddd70b7	-0.10812514
104	0xbba25e62	-0.004955099
105	0xbe2dc292	-0.16968754
106	0x3ce2cda3	0.027685946
107	0x3c822cec	0.015890561
108	0xbd4665a8	-0.04843679
109	0xbddce219	-0.10785312
110	0x3d764042	0.060119875
111	0xbc3e7335	-0.011624147
112	0xbd838b4e	-0.06423055
113	0xbe062272	-0.13099077
114	0xbca34741	-0.019931437
115	0x3dc8a633	0.09797325
116	0x3e4b6779	0.1986369
117	0x3d1bb80a	0.03801731
118	0x3e2debf6	0.16984543
119	0x3d47dc30	0.04879397
120	0xbdbe4a95	-0.09291569
121	0xbe101b3e	-0.14072892
122	0x3d439306	0.047747634
123	0x3b03c37b	0.002010553
124	0xbdc50656	-0.09620349
125	0xbdd2345d	-0.10263894
126	0x3d8aab04	0.067709
127	0xbd240d7c	-0.040051922
128	0xbe7f21d8	-0.24915254
129	0xbb57b9ae	-0.003291707
130	0xbd531914	-0.05153759
131	0x3d5338ba	0.05156777
132	0xbd12353d	-0.035695303
133	0xbcc58848	-0.024112836
134	0x3d338ade	0.043833606
135	0x3ce5fc88	0.028074518
136	0xbd21a9bb	-0.03946851
137	0xbe30769a	-0.17232743
138	0xbdcd189e	-0.10014461
139	0xbd30acf9	-0.04313371
140	0xbd0e851c	-0.03479491
141	0xbe32b6bd	-0.17452522
142	0xbdc6bc39	-0.097038694
143	0xbded6e78	-0.11593336
144	0x3db8f6f6	0.09031479
145	0x3d5e0a0c	0.0542088
146	0x3dc2ebbf	0.09517621
147	0xbd22d2ad	-0.039751697
148	0x3db51553	0.08841958
149	0x3be285f4	0.006912941
150	0xbd76af36	-0.060225688
151	0x3d202b7f	0.03910398
152	0xbd51f04c	-0.051254556
153	0x3e20eac2	0.15714553
154	0xbd768fbb	-0.060195666
155	0xbd204a7b	-0.03913353
156	0x3e201b64	0.15635449
157	0x3e1053c1	0.1409445
158	0xbce20034	-0.027587987
159	0xbd753238	-0.059862345
160	0xbd10b86c	-0.03533213
161	0xbdd838b2	-0.10557689
162	0xbe08c87f	-0.13357733
163	0xbdd0585b	-0.101731025
164	0xbd99129c	-0.074742526
165	0x3aa1eb19	0.001235339
166	0x3e4a82c0	0.1977644
167	0xbca30036	-0.019897562
168	0xbe0b30f9	-0.135929
169	0xbe262a4e	-0.16227075
170	0x3dacdab4	0.08440152
171	0xbda9b248	-0.082859576
172	0xbbfd16e8	-0.007723678
173	0x3abdbc40	0.0014475659
174	0xbcaaa632	-0.020831201
175	0xbe283246	-0.16425428
176	0x3e16a14c	0.14709967
177	0xbe37ca75	-0.17948325
178	0xbe72ecee	-0.23723194
179	0x3d8eef41	0.06979228
180	0xbd2beb8e	-0.04197269
181	0x3ccdcfc3	0.025123483
182	0xbb0de91a	-0.0021653832
183	0xbcafa099	-0.021438884
184	0x3d2b9044	0.04188563
185	0x3d16324f	0.03666907
186	0xbda73c06	-0.081657454
187	0xbd25fabc	-0.040522322
188	0x3e1db956	0.15402731
189	0xbe3b3cbb	-0.18284886
190	0x3e4805f3	0.1953352
191	0xbe0e8523	-0.13917975
192	0x3dee0001	0.116210945
193	0xbc107b3a	-0.008818442
194	0xbd977d41	-0.07396937
195	0x3cee2162	0.029068653
196	0xbd9e476a	-0.07728465
197	0xbd97ff25	-0.07421712
198	0x3d2c2382	0.04202605
199	0x3d91ae64	0.071133405
200	0xbe4fa2ca	-0.20276943
201	0xbe59f38a	-0.21284309
202	0x3e41859e	0.18898627
203	0xbcc7eb6b	-0.024404248
204	0x3d7f4086	0.062317394
205	0xbecde035	-0.4021012
206	0x3e5ed13f	0.21759509
207	0xbecc64ab	-0.39920554
208	0xbea12fcf	-0.31481788
209	0x3e8a5085	0.27014557
210	0x3cc61c79	0.024183499
211	0xbddc59ac	-0.10759291
212	0x3d7bbfb4	0.06146212
213	0x3e9144ef	0.28372905
214	0xbdc5422b	-0.09631761
215	0x3e22510a	0.15851226
216	0xbe2dd938	-0.16977394
217	0x3e098d20	0.13432741
218	0xbca5eaf6	-0.02025364
219	0xbea4ded1	-0.32201245
220	0x3e394af0	0.18094993
221	0xbf001e37	-0.50046104
222	0x3d9e2593	0.077220105
223	0xbe262405	-0.16224678
224	0xbe589f83	-0.21154599
225	0xbc27cb62	-0.010241361
226	0x3dd4cb87	0.10390382
227	0xbe91b723	-0.28460035
228	0xbe17cd36	-0.14824376
229	0xbcab5670	-0.02091524
230	0x3e01ebfd	0.12687679
231	0x3cd748ee	0.026279893
232	0xbdcf9811	-0.10136426
233	0xbd16798d	-0.036737014
234	0xbe00c36d	-0.12574549
235	0x3d84baad	0.06480918
236	0xbeae0942	-0.33991438
237	0x3daab94b	0.08336123
238	0x3df634ae	0.120217666
239	0xbd9f101f	-0.07766747
240	0xbe9aadb0	-0.30210638
241	0x3ce5ba23	0.028042858
242	0xbe2b7708	-0.16744626
243	0x3e524fa6	0.20538196
244	0xbe75c372	-0.24000338
245	0x3db45d40	0.088068485
246	0x3cc3d173	0.023903584
247	0x3e2df8c3	0.16989426
248	0xbe7824cf	-0.24232791
249	0x3c8a0e90	0.016852647
250	0xbc877ab4	-0.016538002
251	0xbe0e05a4	-0.13869339
252	0xbdb8164d	-0.089886285
253	0xbe5d36a3	-0.21602874
254	0xbe2f128f	-0.17096923
255	0xbe1d3527	-0.15352307

convs.0.bias f4 [128]
0	0xbd0fa70c	-0.035071418
1	0xbd951db3	-0.07281055
2	0xbdd6341f	-0.1045916
3	0xbe468bf5	-0.19389327
4	0xbaa45d18	-0.0012539951
5	0xbda23b17	-0.07921427
6	0xbe40bb9c	-0.18821567
7	0xbe3387f7	-0.17532335
8	0xbe361c03	-0.17784123
9	0xbe2bf1bc	-0.16791433
10	0xbdf02cc9	-0.11727292
11	0xbe9504d8	-0.29105258
12	0xbe64c3cc	-0.22340316
13	0xbdfa400d	-0.12219248
14	0xbe341dc1	-0.17589475
15	0xbc232322	-0.009957107
16	0xbe069f8e	-0.13146803
17	0xbe742c97	-0.23845135
18	0xbe5c01e6	-0.21485099
19	0xbd2f947e	-0.042866223
20	0xbe0325fa	-0.12807456
21	0xb9d837e7	-0.0004124038
22	0xbcb0038e	-0.02148607
23	0xbe74f66d	-0.23922129
24	0xbce63608	-0.028101936
25	0xbe369bd9	-0.17832889
26	0xbe2aa732	-0.16665342
27	0xbd9878c3	-0.074449085
28	0xbe12b6a9	-0.14327492
29	0xbd12093f	-0.03565335
30	0xbe2cc4c5	-0.16871937
31	0xb98d751b	-0.00026980866
32	0xbe3075cd	-0.17232437
33	0xbd68145f	-0.056660052
34	0xbca96133	-0.020676231
35	0xbe7d2a64	-0.24723202
36	0xbdd0fb80	-0.1020422
37	0xbe85aa26	-0.26106375
38	0xbe50d71d	-0.20394559
39	0xbdcb40c1	-0.0992446
40	0xbe995f5b	-0.29955563
41	0xbecaf7c3	-0.39642152
42	0xbe499d8c	-0.19689006
43	0xbe68df03	-0.22741322
44	0xbe721715	-0.23641618
45	0xbe6f2e64	-0.2335754
46	0xb9c274ee	-0.00037089683
47	0xbd908ef2	-0.07058515
48	0xbe60215a	-0.21887723
49	0xbc3b34df	-0.01142618
50	0xbdc69cc8	-0.096978724
51	0xbe44247d	-0.19154544
52	0xbe4aea6c	-0.19815987
53	0xbe00aa37	-0.12564932
54	0xbe1d458e	-0.15358564
55	0xbdcc55d9	-0.09977312
56	0xbe3b092b	-0.18265216
57	0xbe75ec37	-0.2401589
58	0xbe5ac3bd	-0.2136373
59	0xbe2e592a	-0.17026201
60	0xbe94f08a	-0.29089767
61	0xbd53070c	-0.051520392
62	0xbd71ade7	-0.059003737
63	0xbd299b36	-0.041407786
64	0xbe08136b	-0.13288657
65	0xbeb017f1	-0.34393266
66	0xbe6ae50f	-0.22938941
67	0xbe0290e3	-0.12750582
68	0xbe745b32	-0.23862913
69	0xbdf1c345	-0.11804823
70	0xbe27d514	-0.16389877
71	0xbbfc4bea	-0.0076994793
72	0xbe25789c	-0.1615929
73	0xbe806548	-0.2507727
74	0xbe1c43a8	-0.15260184
75	0xbe72f31a	-0.23725548
76	0xbe582185	-0.21106537
77	0xbe30e27e	-0.172739
78	0xbd02f994	-0.031976297
79	0xbe19c2f2	-0.15015772
80	0xbce58ead	-0.028022135
81	0xbe281d3f	-0.16417406
82	0xbd87e8d0	-0.06636202
83	0xbe56841e	-0.20948836
84	0xbd78855d	-0.06067406
85	0xbd05c912	-0.03266246
86	0xbdf67174	-0.12033358
87	0xbe2fbfdf	-0.17163037
88	0xbe54f8e1	-0.20798065
89	0xbe637b8f	-0.22215103
90	0xbbfd2cd4	-0.007726291
91	0xbdaa8de7	-0.08327847
92	0xbecd5b02	-0.40108496
93	0xbdb287f5	-0.08717338
94	0xbe684559	-0.22682704
95	0xbe445d4f	-0.1917622
96	0xbe2556d7	-0.16146408
97	0xbeb7cebc	-0.35899913
98	0xbeaa6a15	-0.3328406
99	0xbe69ccf9	-0.22832097
100	0xbe801f42	-0.25023848
101	0xbe0bcf8c	-0.13653392
102	0xbe62bd64	-0.2214256
103	0xbe283f7b	-0.16430466
104	0xbe5a4560	-0.21315527
105	0xbe2116a1	-0.15731288
106	0xbe0fa6c9	-0.14028467
107	0xbe5cf625	-0.21578272
108	0xbd6c44b3	-0.057682704
109	0xbdc930f2	-0.09823789
110	0xbe4a8abb	-0.19779484
111	0xbe471b16	-0.19443926
112	0xbdad5839	-0.08464093
113	0xbe244d72	-0.16045168
114	0xbd8a7c39	-0.06761975
115	0xbe70546d	-0.23469706
116	0xbe592595	-0.21205743
117	0xbd22819d	-0.03967439
118	0xbda7bf83	-0.08190825
119	0xbe5dad76	-0.21648201
120	0xbde0cc1a	-0.10976429
121	0xbd7bcc69	-0.061474238
122	0xbea5648a	-0.32303268
123	0xbe4d3a00	-0.20041656
124	0xbe175fed	-0.14782687
125	0xbd9a135a	-0.07523222
126	0xbe9553bc	-0.29165447
127	0xbe8a6eed	-0.27037755

convs.1.weight f4 [128, 20, 9]
0	0xbd334fcc	-0.043777272
1	0xbddff554	-0.109354645
2	0x3dc9bcfe	0.098505005
3	0xbb44ae75	-0.003001121
4	0x3e023435	0.12715228
5	0xbc0a8f4f	-0.008457019
6	0xbe3d4dc5	-0.18486698
7	0xbd2bf902	-0.04198552
8	0xbe31f25d	-0.1737761
9	0x3bef42a9	0.0073016477
10	0xbe1a78e5	-0.1508518
11	0x3dca4c61	0.09877849
12	0x3dc20858	0.09474248
13	0xbdb442f2	-0.08801831
14	0xbde5d82e	-0.11222874
15	0x3cf1ad40	0.029501557
16	0x3dc6983c	0.09697005
17	0xbc983bc9	-0.018583195
18	0xbd45c1d9	-0.04828057
19	0xbd8b9fca	-0.06817587
20	0xbd041d75	-0.032254655
21	0xbe0b8120	-0.13623476
22	0xbdd3e2f6	-0.10346024
23	0xbd41ec04	-0.047344223
24	0x3d68ae6e	0.056806974
25	0x3d04fc35	0.032467086
26	0x3d0ff3f6	0.03514477
27	0xbe1001c7	-0.14063178
28	0x3d6b5bb8	0.057460517
29	0x3dd27a58	0.102772415
30	0x3baf4cc8	0.005349729
31	0x3cfe58c4	0.031048186
32	0x3d174682	0.036932476
33	0x3be2bc27	0.006919402
34	0x3d887d33	0.06664505
35	0x3e07f0dd	0.13275476
36	0x3e23ab7d	0.15983386
37	0x3dd21827	0.10258513
38	0xbe05f559	-0.13081874
39	0xbd6fe98b	-0.058572333
40	0xbe266475	-0.16249259
41	0x3bb95bec	0.00565671
42	0xbcba6941	-0.022755267
43	0x3e01319f	0.12616585
44	0xbe8bc42d	-0.27298108
45	0x3daaf579	0.083476014
46	0xbd44d8c4	-0.048058286
47	0xbd463d82	-0.048398502
48	0x3d91dd07	0.07122236
49	0xbd53ddf8	-0.051725358
50	0x3cde66aa	0.027148563
51	0x3df3a729	0.11897118
52	0x3d85a030	0.06524694
53	0xbb490fd7	-0.0030679607
54	0x3c8cdeda	0.017196108
55	0xbdb529fc	-0.088458985
56	0xbc87a295	-0.016557017
57	0x3bdbd9d4	0.0067093167
58	0xbcc38b23	-0.023870056
59	0x3b87100c	0.004121786
60	0xbe03058a	-0.12795082
61	0xbd20f753	-0.039298367
62	0xbcb0858a	-0.021548051
63	0xbe96602e	-0.29370254
64	0xbc0b38b8	-0.0084974095
65	0x3e91a9ac	0.28449762
66	0x3d5c4ff8	0.0537872
67	0xbc1c8f8a	-0.009555707
68	0x3c6c7443	0.014432016
69	0xbe5164b6	-0.20448574
70	0xbe25abb4	-0.16178781
71	0x3e1f13e8	0.15534937
72	0xbda4e3f7	-0.08051293
73	0xbe09f98a	-0.13474098
74	0x3d807851	0.062729485
75	0xbe418246	-0.18897352
76	0xbdafcb29	-0.085836716
77	0xbdfa54ea	-0.12223227
78	0x3d1bf779	0.038077805
79	0x3d7057c2	0.058677442
80	0xbe3aaa63	-0.1822906
81	0xbd6596ad	-0.0560519
82	0xbe09906e	-0.13434002
83	0xbd982043	-0.074280284
84	0xbca66feb	-0.020317039
85	0xbdf43c1f	-0.1192553
86	0xbd059039	-0.032608245
87	0xbc71d389	-0.014759907
88	0xbd307856	-0.04308351
89	0xbd3b16d5	-0.04567607
90	0x3d0abff8	0.033874482
91	0xbd948b56	-0.07253139
92	0xbd2ef42a	-0.04271332
93	0x3c98e175	0.018662194
94	0xbe2b738c	-0.16743296
95	0x3d5761b0	0.052583396
96	0xbce8af84	-0.028404005
97	0x3d1c22b4	0.038119033
98	0x3c1f0067	0.009704686
99	0x3dd84c82	0.10561468
100	0xbe06d490	-0.13167024
101	0xbcd93ab3	-0.026517248
102	0x3c45b4a3	0.012066993
103	0x3c1d7ae6	0.009611821
104	0xbd5e3435	-0.054249007
105	0xbe252b5d	-0.16129823
106	0xbda2bfd0	-0.079467416
107	0xbdf41c92	-0.11919512
108	0x3c88e383	0.016710049
109	0xbce897cc	-0.028392695
110	0xbe1c07c1	-0.15237333
111	0x3df37528	0.1188758
112	0xbd043be8	-0.032283694
113	0x3d509cc6	0.05093076
114	0xbcc2dfcf	-0.02378836
115	0x3c129bc5	0.008948271
116	0xbce49ffe	-0.027908321
117	0xbcaa7087	-0.02080561
118	0xbd80d6ea	-0.062909916
119	0xbdbf5425	-0.09342221
120	0xbe3259fa	-0.17417136
121	0xbdee40f9	-0.11633486
122	0xbd0e117a	-0.034684636
123	0x3dc45564	0.095865995
124	0xbd8507ec	-0.064956516
125	0x3d84d18d	0.06485281
126	0x3e984ea4	0.29747498
127	0x3c8e9230	0.017403692
128	0xbdaa098f	-0.083026044
129	0xbe37cc82	-0.17949107
130	0x3d53ee3f	0.05174088
131	0xbdb3ec2b	-0.0878528
132	0xbd952ae9	-0.07283575
133	0x3c328029	0.010894814
134	0xbb05c83a	-0.0020413534
135	0x3d92bb42	0.07164623
136	0xbdb0687c	-0.08613679
137	0xbc5e6608	-0.013574131
138	0xbd61a8d0	-0.055092633
139	0x3d2164a7	0.03940263
140	0x3d82af63	0.063811086
141	0xbe15faab	-0.14646403
142	0xba150f7e	-0.00056862074
143	0xbd9feb27	-0.078085236
144	0xbdb02246	-0.08600287
145	0xbd9f93e7	-0.07791882
146	0x3c4fa591	0.012673751
147	0xbcbf108c	-0.02332332
148	0xbd8e6dc4	-0.0695453
149	0xbd9bfeb2	-0.07616939
150	0xbcfe9ebc	-0.03108155
151	0xbdc2020e	-0.09473048
152	0xbcc87c24	-0.024473257
153	0x3d8ab1b1	0.06772173
154	0xbd830e7d	-0.06399248
155	0x3e84e6c4	0.2595731
156	0x3dce9be1	0.10088325
157	0xbcd28a34	-0.025700666
158	0x3e8a88f7	0.2705762
159	0xbb46ba4e	-0.0030323449
160	0x3dde3154	0.10849252
161	0xbdff8b5e	-0.12477754
162	0xbc9eb3fd	-0.019372934
163	0xbcaddfab	-0.021224817
164	0x3da2d008	0.07949835
165	0xbe07b946	-0.1325427
166	0xbe116810	-0.14199853
167	0x3b1067bc	0.0022034487
168	0x3e1a5ae8	0.1507374
169	0xbc5fa2d6	-0.013649663
170	0x3c3639e9	0.011122205
171	0x3d33bdb2	0.04388208
172	0xbd086987	-0.033303764
173	0xbd52b0a9	-0.051438008
174	0xbd221c5d	-0.03957783
175	0xbd489388	-0.04896882
176	0xbd2740f2	-0.04083342
177	0x3b54f492	0.0032494408
178	0x3d0a3ea8	0.03375116
179	0xbda95ba3	-0.082694314
180	0xbd25f097	-0.040512647
181	0xbde61bcc	-0.112357706
182	0xbd807a62	-0.06273343
183	0xbdde65bc	-0.10859248
184	0xbbb8efa2	-0.005643801
185	0x3d3de48e	0.046360545
186	0xbc4c5b36	-0.012472918
187	0xbd97ae45	-0.07406286
188	0xbda24a37	-0.079243116
189	0x3dfcc5e7	0.123424344
190	0x3d21bb24	0.03948511
191	0xbe2da9e2	-0.16959336
192	0xbd92d87b	-0.071701966
193	0x3db80d8f	0.08986961
194	0xbd84b198	-0.06479186
195	0x3de8b28f	0.11362182
196	0xbd468d11	-0.048474375
197	0x3d676c8b	0.0565
198	0xbdd6d87e	-0.10490511
199	0xbe85c5de	-0.26127523
200	0xbd9b829d	-0.07593272
201	0x3a80b5a2	0.0009819756
202	0xbdf438c6	-0.11924891
203	0xbdcadbb9	-0.0990519
204	0xbe83da11	-0.2575231
205	0xbe4665e9	-0.19374813
206	0xbe9a8267	-0.30177614
207	0xbe40ab31	-0.18815304
208	0xbe09e975	-0.13467963
209	0xbdfd530c	-0.123693556
210	0x3b5398d8	0.0032287147
211	0xbe02daf8	-0.12778842
212	0xbd89693c	-0.06709525
213	0xbe40cf72	-0.18829134
214	0x3ce506f5	0.027957419
215	0xbe27a8d1	-0.16372992
216	0xbd319dc7	-0.04336336
217	0x3df9ce13	0.12197509
218	0xbd7de7c1	-0.061988596
219	0x3e5a9814	0.21347076
220	0xbd05842a	-0.032596745
221	0x3cad42d0	0.021150023
222	0x3d62301c	0.055221662
223	0xbba46653	-0.005017081
224	0x3d972368	0.073798
225	0xbd9d8b6c	-0.07692608
226	0x3d4de5b8	0.050267905
227	0xbe2fe7f3	-0.17178325
228	0xbe356bac	-0.17716855
229	0xbc6d65b5	-0.014489581
230	0xbbef23dc	-0.007297976
231	0xbe12ca18	-0.14334905
232	0x3db999bb	0.09062525
233	0xbde144aa	-0.10999425
234	0xbc9ce132	-0.01915035
235	0xbe66b6f0	-0.22530723
236	0x3b5c98c6	0.0033660396
237	0xbd9f2293	-0.077702664
238	0xbe39d8bc	-0.18149084
239	0xbdded9c9	-0.10881383
240	0xbe368181	-0.1782284
241	0x3b8ec72c	0.004357239
242	0xbdcfa12d	-0.10138164
243	0xbc5554a2	-0.013020666
244	0xbe5a252b	-0.21303241
245	0xbdc13b88	-0.09435183
246	0xbde812a5	-0.11331681
247	0xbd73dfe0	-0.059539676
248	0xbdd85709	-0.10563476
249	0xbd7b15ac	-0.061299965
250	0xbe83b384	-0.25722897
251	0xbd3bbd2c	-0.045834705
252	0xbc535cb5	-0.012900521
253	0xbe6db43e	-0.23213288
254	0xbe60fc38	-0.21971214
255	0xbc309594	-0.01077785

convs.1.bias f4 [128]
0	0xbc9c3926	-0.01907022
1	0xbebd5758	-0.369807
2	0xbddc067f	-0.107434265
3	0xbda11546	-0.07865386
4	0xbe7a6456	-0.24452338
5	0xbe9cb989	-0.30610302
6	0xbd900baa	-0.07033475
7	0xbe1d0848	-0.1533519
8	0xbe35d834	-0.17758256
9	0xbebd189f	-0.36932847
10	0xbe68f0ff	-0.22748183
11	0xbc1efd0f	-0.009703889
12	0xbe81e36d	-0.25368825
13	0xbecac8b9	-0.39606264
14	0xbe6ebbd7	-0.23313843
15	0xbe3dcf84	-0.18536192
16	0xbd85bf42	-0.0653062
17	0xbe4c5142	-0.19952872
18	0xbe0f9445	-0.14021404
19	0xbe82f478	-0.2557714
20	0xbe17a7b5	-0.14810069
21	0xbcf6ccff	-0.030127047
22	0xbe9a0a4f	-0.3008599
23	0xbe71d240	-0.2361536
24	0xbe4d25af	-0.20033906
25	0xbe6511af	-0.22370027
26	0xbd8eb834	-0.06968728
27	0xbe2fd8a6	-0.17172489
28	0xbe7407ee	-0.2383115
29	0xbe376fa5	-0.17913683
30	0xbe59473b	-0.21218579
31	0xbdc9d0f4	-0.09854308
32	0xbe0d8bc7	-0.13822852
33	0xbdafa8a5	-0.08577088
34	0xbe3eb28f	-0.18622802
35	0xbd74fba8	-0.05981031
36	0xbd170c93	-0.036877226
37	0xbe8178fa	-0.2528761
38	0xbe73d25d	-0.23810716
39	0xb9c62979	-0.00037796402
40	0xbcc72a52	-0.024312172
41	0xbeb8ca11	-0.36091664
42	0xbe097850	-0.13424802
43	0xbe17de22	-0.1483083
44	0xbe59e306	-0.21278009
45	0xbe858581	-0.26078418
46	0xbdd24630	-0.102672935
47	0xbde658cc	-0.112474054
48	0xba25fd25	-0.0006331972
49	0xbe6006d7	-0.21877609
50	0xbde5e840	-0.11225939
51	0xbdc489bf	-0.095965855
52	0x3b2dcb43	0.0026518859
53	0xbd5ff8a1	-0.05468047
54	0xbe782330	-0.24232173
55	0xbe3b699a	-0.18302003
56	0xbe29b916	-0.16574511
57	0xbe4547be	-0.19265649
58	0xbe8ea3ee	-0.27859443
59	0xbd233084	-0.03984119
60	0xbe129c46	-0.14317426
61	0xbe6993e0	-0.22810316
62	0xbc8d3c7f	-0.01724076
63	0xbe032ac7	-0.12809287
64	0xbccda124	-0.025101252
65	0xbe8ef299	-0.27919462
66	0xbdcde748	-0.10053879
67	0xbe22e2c3	-0.15906815
68	0xbea3a926	-0.31964988
69	0xbd59cd43	-0.05317427
70	0xbe1bea27	-0.15226041
71	0xbb34d76c	-0.0027594222
72	0xbdb4401c	-0.088012904
73	0xbe859e61	-0.26097396
74	0xbebb4a8d	-0.36580315
75	0xbe12cf5f	-0.14336918
76	0xbde1020d	-0.10986719
77	0xbe4af01e	-0.1981816
78	0xb97854ba	-0.00023682686
79	0xbdc1af1f	-0.0945723
80	0xbe571ab3	-0.21006279
81	0xbe7e92d6	-0.24860701
82	0xbc9fcd11	-0.019506963
83	0xbe9bfdea	-0.3046716
84	0xbe94dc25	-0.29074207
85	0xbc959024	-0.018257208
86	0xbe234e17	-0.15947758
87	0xbe88ddf3	-0.26731834
88	0xbe2759ca	-0.16342846
89	0xbe0c3c32	-0.13694838
90	0xbdec528d	-0.11539183
91	0xbe525f37	-0.20544134
92	0xbe5070db	-0.20355551
93	0xbe616829	-0.2201239
94	0xbdbd814d	-0.09253178
95	0xbe8d4d74	-0.27598155
96	0xbe98c9cb	-0.29841456
97	0xbea145aa	-0.31498462
98	0xbe208b16	-0.15678057
99	0xbdc32951	-0.09529365
100	0xbeb43934	-0.35199893
101	0xbe5af614	-0.21382934
102	0xbebabd38	-0.36472487
103	0xbdbcbe62	-0.09216
104	0xbda28792	-0.07936014
105	0xbe1e4dd4	-0.15459377
106	0xbe96fe80	-0.29491043
107	0xbe5080a7	-0.20361577
108	0xbe74d089	-0.23907675
109	0x3c002362	0.007820936
110	0xbe929bba	-0.28634435
111	0xbdeeb905	-0.116563834
112	0xbeb80c99	-0.3594711
113	0xbe09a1d9	-0.13440646
114	0xbe4942b1	-0.19654347
115	0xba095c91	-0.0005239929
116	0xbe1b9321	-0.15192844
117	0xbdd3d597	-0.103434734
118	0xbe68cc78	-0.22734249
119	0xbe925462	-0.28580004
120	0xbe105923	-0.14096503
121	0xbd583aeb	-0.052790564
122	0xbe9a7885	-0.30170074
123	0xbe14bf03	-0.1452599
124	0xbb15980d	-0.0022826225
125	0xbe86753c	-0.26261318
126	0xbe2cb28e	-0.16864988
127	0xbd3b9d48	-0.045804292

convs.2.weight f4 [128, 20, 13]
0	0xbda4dfad	-0.08050475
1	0xbde58f18	-0.112089336
2	0x3d8b70dd	0.06808636
3	0x3dc236a7	0.0948308
4	0xbc584b5b	-0.01320156
5	0xbe0c4aba	-0.13700381
6	0xbe108d60	-0.1411643
7	0x3d0ccff0	0.034377992
8	0x3de70132	0.11279525
9	0x3e13f6dd	0.1444964
10	0xbe11a066	-0.14221343
11	0x3c617fb3	0.013763356
12	0xbea5b15a	-0.3236187
13	0x3dbdf1fa	0.09274669
14	0xbe8a80be	-0.27051347
15	0xbd704c25	-0.058666367
16	0xbe65fdac	-0.2246005
17	0x3e442746	0.19155607
18	0xbdd3be79	-0.10339064
19	0x3d657299	0.056017492
20	0xbc1e44d9	-0.009659969
21	0x3e4b7779	0.19869794
22	0xbdc6eaaa	-0.09712727
23	0xbe5c3e64	-0.21508175
24	0xbd33bb54	-0.043879822
25	0xbc8146ca	-0.015780825
26	0xbde31c2a	-0.11089356
27	0x3dd7a2f1	0.105291255
28	0x3e51a2db	0.2047228
29	0x3ca173b8	0.0197085
30	0xbe852b9c	-0.26009834
31	0x3e01e69c	0.12685627
32	0xbd2c195e	-0.04201638
33	0xbd0652bb	-0.03279374
34	0xbd88c1c9	-0.066775866
35	0x3d465328	0.048419148
36	0xbe1755f3	-0.14778881
37	0xbe107d0b	-0.141102
38	0xbe3aa05a	-0.18225232
39	0xbdc7eed7	-0.09762352
40	0xbd045bb7	-0.03231403
41	0x3e53f6d2	0.20699623
42	0xbe56b462	-0.20967248
43	0xbdf3bbfb	-0.11901089
44	0x3e258678	0.16164577
45	0xbd45b8ea	-0.04827205
46	0xbdcaa505	-0.09894756
47	0xbd8e9d46	-0.06963591
48	0xbc3f0454	-0.011658747
49	0x3de39507	0.11112409
50	0xbebf51a0	-0.37366962
51	0xbd71ea92	-0.059061594
52	0x3e734da4	0.23760086
53	0xbe114e67	-0.14190064
54	0x3e9155db	0.28385815
55	0xbed0523b	-0.40687737
56	0xbe91e8df	-0.2849798
57	0xba80567d	-0.00097914
58	0xbdc5ff95	-0.09667889
59	0x3d872d73	0.066004656
60	0x3e8726aa	0.26396686
61	0x3e571ff5	0.21008284
62	0xbeb372b1	-0.3504844
63	0xbdaa81bf	-0.08325528
64	0x3ab29522	0.0013624767
65	0x3d016a38	0.03159544
66	0xbe067075	-0.13128836
67	0xbe3832f7	-0.17988192
68	0xbd38d120	-0.045121312
69	0xbd9ce72b	-0.07661279
70	0x3d1e3848	0.038627893
71	0xbde06d6c	-0.109583706
72	0xbd1e2606	-0.03861048
73	0xbe255b71	-0.16148163
74	0xbde08913	-0.10963645
75	0xbe427c0c	-0.18992633
76	0x3db02724	0.086012155
77	0xbdebe0c7	-0.11517482
78	0x3c81f22d	0.015862549
79	0xbe4b2b2a	-0.19840685
80	0xbd92a912	-0.07161154
81	0xbe954345	-0.29152885
82	0xbd8cc9d8	-0.06874436
83	0x3db8976c	0.090132564
84	0x3d802d66	0.06258659
85	0xbdde335f	-0.10849642
86	0xbdeb255f	-0.11481737
87	0xbbd3bd7d	-0.0064617977
88	0xbac21532	-0.0014807342
89	0xbe046e2d	-0.12932654
90	0xbdf6e1ec	-0.1205481
91	0xbe2ad667	-0.1668335
92	0xbeb036c2	-0.34416777
93	0x3e69f083	0.22845654
94	0x3dd8187c	0.10551545
95	0xbddd4b16	-0.10805337
96	0xbe2734c7	-0.16328727
97	0x3e6e5f1f	0.23278473
98	0xbdc41db8	-0.09575981
99	0xbdeddd4e	-0.11614476
100	0xbc4478b1	-0.011991666
101	0xbe8cb446	-0.27481288
102	0x3e9c49f0	0.3052516
103	0xbe4bf5fd	-0.19918056
104	0xbc9ded56	-0.01927821
105	0x3d01139e	0.03151285
106	0xbd22ed1b	-0.039776903
107	0xbd0336a4	-0.03203453
108	0x3dcb5b09	0.09929473
109	0xbd5f0221	-0.05444539
110	0xbd679fd4	-0.05654891
111	0xbd94b71c	-0.07261488
112	0xbe8e17ef	-0.27752635
113	0xbe1476df	-0.1449847
114	0x3e1dce9e	0.1541085
115	0x3bf4fb21	0.007476226
116	0xbe94fcb5	-0.2909905
117	0x3e0e61c9	0.1390449
118	0xbe48d01f	-0.19610642
119	0xbe120ef4	-0.14263517
120	0xbef6bec1	-0.4819241
121	0xbd6b463e	-0.057440035
122	0x3d8a304c	0.06747493
123	0xbc930aab	-0.017949423
124	0x3cb6f980	0.022335768
125	0xbd4fa417	-0.050693598
126	0x3d88f41a	0.06687184
127	0xbe484acc	-0.19559783
128	0x3e3266db	0.17422049
129	0x3e32cf46	0.17461881
130	0x3e08b12a	0.13348833
131	0x3ccbe9a9	0.024891691
132	0xbc673a82	-0.01411307
133	0xbea6302f	-0.32458636
134	0x3cc1f35c	0.023675613
135	0x3d182ddb	0.037153106
136	0xbdeb9f2d	-0.1150497
137	0x3de91a13	0.113819264
138	0xbd305129	-0.04304615
139	0x3c3fa2eb	0.0116965575
140	0xbd9fe06c	-0.07806477
141	0x3cd0673a	0.025439847
142	0x3e46fa68	0.1943146
143	0xbdcd88f8	-0.1003589
144	0xbe4d3c2a	-0.20042482
145	0xbe1d7d48	-0.15379822
146	0xbe7152b9	-0.23566712
147	0x3e18ba87	0.14914905
148	0xbdcd94ef	-0.100381725
149	0xbdf7f9f7	-0.12108224
150	0xbd4e0082	-0.050293453
151	0xbdfdf91b	-0.12401029
152	0xbdf3bdc3	-0.119014286
153	0xbed4bf5b	-0.41552243
154	0xbd8e1cef	-0.069391124
155	0xbcf4586d	-0.029827321
156	0x3e0f10a2	0.13971189
157	0xbd9f7b9f	-0.07787251
158	0x3be87f8b	0.0070952824
159	0xbe3cb270	-0.18427444
160	0xbcf4e8f5	-0.029896239
161	0xbd3fd3b8	-0.04683277
162	0xbe54c1f1	-0.20777108
163	0x3cc99fcc	0.02461233
164	0x3c9dd779	0.019267784
165	0xbd8ece21	-0.0697291
166	0xbe2306b5	-0.15920527
167	0xbc95548f	-0.018228797
168	0x3e507979	0.20358838
169	0x3e0a433f	0.13502215
170	0xbe1208f6	-0.14261231
171	0x3cb973e5	0.02263827
172	0xbe775a12	-0.24155453
173	0x3e4a7c7a	0.19774047
174	0x3cee228c	0.029069208
175	0xbe25cb2d	-0.16190787
176	0xbe6e494e	-0.23270151
177	0xbe44b817	-0.1921085
178	0x3d22956c	0.03969328
179	0x3e84d5d9	0.25944403
180	0x3c5eb707	0.013593442
181	0x3d22e227	0.039766457
182	0x3eec246a	0.46121532
183	0x3ed817c6	0.42205638
184	0xbe254c7f	-0.16142462
185	0x3dde9e76	0.10870068
186	0x3de5c6b0	0.11219537
187	0xbe84068c	-0.25786245
188	0xbec26ff3	-0.37976035
189	0x3da2da28	0.07951766
190	0xbe938f86	-0.28820437
191	0xbebcf303	-0.36904153
192	0xbeadda37	-0.33955547
193	0xbe041b20	-0.12900972
194	0xbedda758	-0.43291736
195	0xbe4c5457	-0.19954048
196	0x3d458f27	0.048232224
197	0x3df7e1bc	0.12103602
198	0x3dfaf0d9	0.12252969
199	0xbb0a6b39	-0.0021121039
200	0xbcd22509	-0.025652425
201	0xbe14daeb	-0.14536636
202	0x3d9ff986	0.07811265
203	0xbb806815	-0.0039186575
204	0x3e0fe560	0.14052343
205	0xbddf4019	-0.109008975
206	0x3bf2f4cb	0.0074144355
207	0xbd7f40b4	-0.062317565
208	0xbdb2b132	-0.087252036
209	0x3d8c5e78	0.06853956
210	0xbd561e96	-0.052275263
211	0x3d91e7e4	0.07124308
212	0xbdb97a85	-0.09056572
213	0xbd9a0150	-0.075197816
214	0xbdf7d42d	-0.12101016
215	0x3d7dcfc8	0.061965734
216	0xbe083bf6	-0.13304123
217	0x3db1023b	0.086430036
218	0xbdc11fae	-0.094298705
219	0x3ddcfe14	0.10790649
220	0xbddd90a4	-0.10818604
221	0x3e77e197	0.2420715
222	0xbe636023	-0.22204642
223	0xbd7de334	-0.061984256
224	0x3d8b6d4c	0.06807956
225	0x3de095ca	0.1096607
226	0xbe8c0bd4	-0.27352774
227	0x3e622b8c	0.22086924
228	0x3bda0b1e	0.0066541573
229	0x3e1fef74	0.15618688
230	0x3d8c8e2d	0.068630554
231	0x3e584a8f	0.21122192
232	0xbd7f632e	-0.062350444
233	0xbe269246	-0.16266736
234	0x3e047e86	0.1293889
235	0x3ddcafde	0.107757315
236	0xbe90d4b0	-0.28287268
237	0xbc913173	-0.017723775
238	0xbcbb647b	-0.022875061
239	0xbde0d04d	-0.1097723
240	0xbb862d2d	-0.004094741
241	0xbe7cd3a4	-0.2469011
242	0xbe63673d	-0.22207351
243	0x3dcb8d97	0.099391155
244	0x3e745e44	0.23864084
245	0xbd8f6bee	-0.07003008
246	0xbe093eaf	-0.13402818
247	0x3d8bcddb	0.06826373
248	0xbed7e2fb	-0.4216536
249	0xbe0c3c99	-0.13694991
250	0xbdf9a3d0	-0.12189448
251	0xbdafde2b	-0.08587297
252	0x3df0641c	0.11737844
253	0x3c9fda70	0.019513339
254	0x3e1105fc	0.14162439
255	0xbbdb9027	-0.006700534

convs.2.bias f4 [128]
0	0x3e0478c9	0.12936701
1	0x3ee30fa6	0.44347876
2	0xbe34de74	-0.17662984
3	0xbe7391cb	-0.23786084
4	0xbe88b808	-0.26702905
5	0xbe3784e6	-0.1792179
6	0xbebe4e40	-0.37169075
7	0xbe893509	-0.26798275
8	0xbe355ee1	-0.17711975
9	0xbaa3cab0	-0.0012496319
10	0xbe879b1d	-0.2648553
11	0xbe81e56b	-0.25370345
12	0xbdc52684	-0.09626487
13	0xbde5b361	-0.112158544
14	0xbd2b3100	-0.041794777
15	0xbdfd84b8	-0.1237883
16	0xbe1396e6	-0.14413032
17	0xbdece0b9	-0.115663
18	0xba89bd79	-0.0010508738
19	0x3d6be94f	0.057595547
20	0xbe622ce0	-0.22087431
21	0xbe49a483	-0.19691662
22	0xbd9df9d1	-0.07713664
23	0xbddcee08	-0.10787588
24	0xbd3472fc	-0.04405497
25	0xbe6fd797	-0.23422085
26	0xbe91f685	-0.28508392
27	0xbe9a59ca	-0.3014663
28	0xbe4da6ce	-0.20083162
29	0xbe309037	-0.17242514
30	0xbe26a2d3	-0.1627305
31	0xba4f7ef9	-0.0007915344
32	0xbdd03ac6	-0.1016746
33	0xbe927d1b	-0.28611073
34	0xbeb11820	-0.34588718
35	0x3ec3a04b	0.3820823
36	0xbc67bdd6	-0.0141443815
37	0xbe5047c5	-0.20339878
38	0xbe3939d7	-0.1808847
39	0xbe89041f	-0.26760957
40	0xbdc7b999	-0.09752197
41	0xbafc6af2	-0.0019257946
42	0xbe269bc3	-0.16270356
43	0xba92c8b8	-0.0011198735
44	0xbd6edbb1	-0.058314983
45	0xbe90e3ff	-0.28298947
46	0xbdc7648b	-0.09735974
47	0xbe92eaf4	-0.2869488
48	0xba4ca7dd	-0.0007806996
49	0xbe491dc7	-0.19640265
50	0xbd805d2d	-0.06267772
51	0xbe7fd520	-0.24983644
52	0xbe7722b0	-0.24134326
53	0xbe8e373b	-0.27776513
54	0xbe74deb3	-0.23913078
55	0xbe07b38b	-0.13252084
56	0x3d8b8c9a	0.06813927
57	0xbe0e083f	-0.13870333
58	0xbe404d83	-0.18779568
59	0xbaa59ebe	-0.001263581
60	0xbe5a5dc7	-0.21324836
61	0xbe988912	-0.29792076
62	0xbe0dd009	-0.1384889
63	0xbd483daa	-0.048886932
64	0xbe418720	-0.18899202
65	0xbe85f99d	-0.26167002
66	0xbe8a38b5	-0.2699639
67	0xbeac0b4f	-0.33602378
68	0xbe589460	-0.2115035
69	0xbe2fe4bd	-0.171771
70	0xbcb68818	-0.022281691
71	0xbe41198d	-0.18857403
72	0xbea7e5ec	-0.32792604
73	0xbe121f29	-0.14269699
74	0xbe3527c6	-0.17690954
75	0xbe3349d3	-0.1750863
76	0xbe8ea37a	-0.27859098
77	0xbdafec5a	-0.08590002
78	0xbe430270	-0.19043899
79	0xbdfc774d	-0.12327442
80	0xbda17136	-0.078829214
81	0xbd9aa7ec	-0.0755156
82	0xbe515168	-0.2044121
83	0xbe859bef	-0.2609553
84	0xbd34ea05	-0.04416849
85	0xbe9013d8	-0.2814014
86	0xbe17352d	-0.14766379
87	0xbe43c462	-0.19117883
88	0xbe14b67e	-0.1452274
89	0xbab28722	-0.0013620595
90	0xbe6a35d2	-0.22872093
91	0xbcbc62ac	-0.02299627
92	0xbe5040b1	-0.20337178
93	0xbe4584e7	-0.1928898
94	0xbeb38013	-0.3505865
95	0xbddf2d19	-0.108972736
96	0xbbef4929	-0.0073024225
97	0xbe5ef66f	-0.21773694
98	0xbd063445	-0.03276469
99	0xbebeb869	-0.3725007
100	0xbe46149c	-0.193438
101	0xbe243e82	-0.1603947
102	0xbde88bbb	-0.113547765
103	0xbde93e49	-0.11388833
104	0xbe1a69d8	-0.15079439
105	0xbd58d6bb	-0.052939158
106	0xbc981846	-0.018566262
107	0xbdad6a49	-0.08467538
108	0xbe584755	-0.21120961
109	0xbe6734e1	-0.22578765
110	0xbcd17e6b	-0.025572976
111	0xbea27032	-0.31726223
112	0xbebbb340	-0.36660194
113	0xbeac6e76	-0.33678025
114	0xbd794fbe	-0.060867064
115	0xbd6d0ad6	-0.057871662
116	0xbe5bbf3b	-0.21459667
117	0xbe626964	-0.22110516
118	0xbe55ca8c	-0.20878047
119	0xbe9ffb18	-0.31246257
120	0xbd417a1c	-0.047235593
121	0xbe3eac60	-0.18620443
122	0xbda1f423	-0.079078935
123	0xbaba48af	-0.0014212335
124	0xbea7fb61	-0.32808974
125	0xbe7c4e7e	-0.24639317
126	0xbea774d8	-0.32706332
127	0xbe70e892	-0.23526219

decoder.0.weight f4 [1, 384]
0	0x3db8b267	0.090184025
1	0x3d9a2322	0.07526232
2	0x3ee25f37	0.44213268
3	0xbf1279cc	-0.572171
4	0xbd772147	-0.06033447
5	0x3df6e7a4	0.12055901
6	0x3f0db5fc	0.5535581
7	0xbe20d124	-0.15704781
8	0xbea56b00	-0.32308197
9	0xbd78a02c	-0.060699627
10	0xbe13d5d5	-0.14437039
11	0xbe502952	-0.20328262
12	0x3e859cf3	0.26096305
13	0x3e59a3fb	0.2125396
14	0x3fb2092e	1.3909051
15	0xbdf9e91e	-0.12202667
16	0x3f42b2ce	0.76054084
17	0x3e3543a3	0.17701583
18	0x3ee9dd0e	0.45676464
19	0x3ed35107	0.41272756
20	0x3eeb78ca	0.45990592
21	0x3ec2a738	0.38018203
22	0x3ddc338e	0.10752021
23	0x3dded251	0.108799584
24	0xbf303898	-0.68836355
25	0xbe955f19	-0.29174116
26	0xbe969d81	-0.2941704
27	0x3d8a8251	0.06763137
28	0xbd88889b	-0.066666804
29	0x3de25162	0.11050679
30	0x3ef66103	0.4812089
31	0x3ea7845a	0.32718164
32	0xbecb2d49	-0.39682987
33	0xbc918022	-0.017761294
34	0x3eb3336a	0.35000163
35	0xbf50f503	-0.8162386
36	0x3e161c27	0.14659177
37	0xbe8a510f	-0.27014968
38	0xbd573768	-0.052543074
39	0xbe0637bf	-0.13107203
40	0x3f6caa2a	0.9244715
41	0x3e0965de	0.13417765
42	0x3d269932	0.040673442
43	0xbe9115db	-0.28336987
44	0xbdb0593f	-0.08610772
45	0x3e08179a	0.13290253
46	0x3e7a5ae3	0.24448733
47	0x3dbf85d3	0.09351697
48	0xbdf825ab	-0.121165596
49	0x3fabbef9	1.3417655
50	0x3dae6f15	0.08517281
51	0xbe356f2d	-0.17718191
52	0x3e7a37ce	0.2443535
53	0x3e3bc998	0.1833862
54	0xbeb80d1c	-0.35947502
55	0xbd947a85	-0.07249931
56	0x3e3c9383	0.18415646
57	0x3dbf8652	0.093517914
58	0xbf152c58	-0.5827079
59	0xbe9b44a0	-0.30325794
60	0x3fbcd35f	1.4752005
61	0xbe82c092	-0.25537544
62	0x3dbc549e	0.09195827
63	0x3d8ea0b8	0.069642484
64	0x3dcd21b6	0.100161955
65	0xbd93c7c9	-0.0721584
66	0x3fac0a9b	1.3440737
67	0xbdb55a0e	-0.08855067
68	0xbf3f4907	-0.74720806
69	0xbf4c881e	-0.798952
70	0xbdb41bda	-0.08794375
71	0x3f10133c	0.5627935
72	0xbdf718fd	-0.12065313
73	0x3c92f649	0.017939704
74	0xbe611db7	-0.21983992
75	0x3f0e491c	0.55580306
76	0x3daa0955	0.08302561
77	0xbea40c56	-0.32040662
78	0x3dfff1d5	0.12497298
79	0x3e2e314b	0.17010991
80	0x3f9e384b	1.2360929
81	0xbf3948f0	-0.7237692
82	0x3ec7260d	0.38896218
83	0x3e566e39	0.20940484
84	0x3e5d4ea1	0.21612026
85	0xbefbfe91	-0.49217656
86	0x3d941dca	0.07232244
87	0xbe614f88	-0.22002995
88	0x3e2973c7	0.16548072
89	0xbf026217	-0.50930923
90	0x3ed01496	0.40640706
91	0xbf254c7d	-0.64569837
92	0x3dcf3e82	0.10119344
93	0x3f7d9ad7	0.9906439
94	0xbdd20a35	-0.10255853
95	0x3dfa23e0	0.12213874
96	0xbf83e497	-1.0304135
97	0xbe6d26a9	-0.23159279
98	0xbe46c397	-0.19410549
99	0xbe2a095d	-0.16605134
100	0x3b9948c8	0.0046778657
101	0xbde35b88	-0.111014426
102	0xbf5edd4e	-0.87056434
103	0x3e2b1b3f	0.16709612
104	0xbf77f6fb	-0.9686124
105	0xbf41b3b3	-0.75664824
106	0xbe1b2916	-0.15152392
107	0xbf5c299e	-0.86001
108	0xbd53cb4c	-0.05170755
109	0xbc89f8df	-0.016842304
110	0xbde8a1c5	-0.1135898
111	0xbf0596ab	-0.52183026
112	0xbe0fd194	-0.14044791
113	0x3f6d2ccc	0.9264648
114	0xbd96febd	-0.07372806
115	0xbcdf0125	-0.027222225
116	0xbe4a6291	-0.19764163
117	0xbe2caf78	-0.16863811
118	0x3f39ddb2	0.72603905
119	0xbe0d6e32	-0.13811567
120	0x3d77e2be	0.060518973
121	0x3da151a0	0.07876897
122	0x3dbc4fc6	0.09194903
123	0x3f4999b1	0.7875014
124	0x3f0f8468	0.5606141
125	0xbfad7937	-1.3552617
126	0xbd532675	-0.051550347
127	0xbe02a910	-0.12759805
128	0xbe1023b6	-0.14076123
129	0xbe87b66a	-0.26506358
130	0xbe0c8482	-0.13722423
131	0xbcbff095	-0.023430148
132	0xbe79ac98	-0.24382246
133	0xbd6393b7	-0.055560794
134	0xbf7a4317	-0.9775862
135	0xbf401210	-0.7502756
136	0xbf161cf9	-0.5863796
137	0xbe9b9242	-0.30385023
138	0x3e1e777c	0.15475267
139	0x3f84215a	1.0322678
140	0xbd1cfc2b	-0.038326424
141	0x3dca349f	0.09873318
142	0x3d8e82a6	0.06958513
143	0x3d373801	0.044731144
144	0xbeabbab9	-0.33540896
145	0x3f2d904b	0.677983
146	0xbf01a444	-0.50641274
147	0xbde762a5	-0.11298112
148	0xbe6a716b	-0.22894828
149	0x3c911833	0.017711734
150	0xb94fb232	-0.00019807441
151	0x3d9f973b	0.07792517
152	0xbe9e06bf	-0.30864522
153	0x3f2148d3	0.63001746
154	0xbeb25036	-0.3482682
155	0x3e40a015	0.18811066
156	0xbed52582	-0.4163018
157	0x3c6b2634	0.01435237
158	0x3ca19409	0.019723909
159	0xbeabd778	-0.33562827
160	0x3c38c9e3	0.011278602
161	0x3f947843	1.1599201
162	0x3f4ceb1f	0.80046266
163	0x3e61d3f3	0.22053508
164	0xbeed545e	-0.4635343
165	0x3cd6d3c4	0.026224025
166	0xbf5e42c5	-0.8682063
167	0x3f494d48	0.78633547
168	0x3e19d4ec	0.1502263
169	0x3f21324c	0.6296737
170	0x3e6a4ea5	0.22881563
171	0x3d8b080d	0.06788645
172	0x3d0fd0cd	0.035111237
173	0xbb0061f5	-0.0019589637
174	0x3f6b5f11	0.91941935
175	0x3f1c1031	0.60962206
176	0x3f1942bb	0.5986745
177	0xbe311d20	-0.17296267
178	0x3f405343	0.7512705
179	0x3d2c60a8	0.042084366
180	0xbf070f59	-0.52757794
181	0x3fb4fbb4	1.4139314
182	0x3a96b3c2	0.0011497664
183	0xbf82e9cb	-1.0227598
184	0x3f268674	0.6504891
185	0xbf4399f2	-0.76406777
186	0xbe6dfd4f	-0.23241161
187	0x3f274bf6	0.6535028
188	0x3cd4f6f3	0.02599666
189	0xbd24c73f	-0.04022908
190	0xbf0b2488	-0.5435262
191	0x3e7d055f	0.2470908
192	0x3c195e13	0.009360808
193	0xbdcf70a5	-0.10128907
194	0x3f1e4f5c	0.6183984
195	0xbef8d2f9	-0.4859846
196	0xbd955f1a	-0.0729353
197	0xbedb31c3	-0.42811403
198	0xbb8a2c38	-0.004216697
199	0xbe8eb7df	-0.27874658
200	0x3cb763e9	0.022386508
201	0xbf110efe	-0.566635
202	0x3ba3eb10	0.005002387
203	0x3fac7a63	1.347485
204	0x3c35c0f4	0.011093367
205	0x3e2d6d39	0.16936196
206	0x3f3b1a71	0.7308722
207	0x3e06e9f4	0.13175184
208	0xbedb6edd	-0.4285802
209	0x3bd2d5ad	0.0064341635
210	0x3f6630d5	0.8991826
211	0x3cf3d657	0.029765291
212	0xbf525b43	-0.82170504
213	0x3e5b217b	0.2139949
214	0x3d9f0707	0.07765012
215	0xbc03bff5	-0.008041372
216	0xbeeaf0f9	-0.45886973
217	0xbf4bc63b	-0.7959935
218	0xbea2ed73	-0.31821784
219	0xbb531b00	-0.0032212138
220	0x3fbfede2	1.4994471
221	0xbcda092c	-0.026615702
222	0x3d0d3845	0.03447749
223	0x3d39002b	0.045166176
224	0x3f7b2dad	0.9811657
225	0x3d28bee2	0.041197665
226	0x3ef481a5	0.4775516
227	0x3f37a00d	0.71728593
228	0xbe275fa0	-0.16345072
229	0xbd547103	-0.05186559
230	0xbcf50a32	-0.029912088
231	0x3e99f990	0.30073214
232	0xbf2e2de1	-0.68038756
233	0xbf20a18b	-0.62746495
234	0x3f256ede	0.64622295
235	0x3b737684	0.0037149498
236	0xbf0fd70c	-0.5618751
237	0xbe9480fe	-0.29004663
238	0xbdaf1634	-0.08549157
239	0xbd3c8720	-0.046027303
240	0xbe7c36b5	-0.24630244
241	0x3eec0d8d	0.46104088
242	0xbf8383cd	-1.0274597
243	0xbedb50b6	-0.42835015
244	0xbc637f3a	-0.013885314
245	0x3e3dca29	0.18534149
246	0xbd984f63	-0.07437017
247	0xbd1a3735	-0.037650306
248	0xbf00c5ff	-0.5030212
249	0xbc0c943f	-0.0085802665
250	0x3c56b595	0.013104816
251	0xbf736ac8	-0.9508481
252	0x3f8d5b27	1.1043442
253	0x3ee5ad14	0.4485861
254	0xbdab5aee	-0.08366953
255	0x3e982be2	0.2972098
