saved_models/model_13.pkl (torch_old, 281078 bytes, 7 tensors)

convs.0.weight f4 [128, 20, 5]
0	0xbd14b61e	-0.036306493
1	0x3da53ea0	0.080685854
2	0x3c6881e2	0.014191123
3	0x3dd1d929	0.10246498
4	0xbae8ce35	-0.001776165
5	0x3c8546aa	0.016269047
6	0x3bebc752	0.0071953917
7	0x3c934a13	0.017979657
8	0xbdd1ccec	-0.10244164
9	0x3cb9499a	0.022618104
10	0xbe48aed2	-0.19597939
11	0x3c9de2a0	0.019273102
12	0xbe078e6f	-0.13237928
13	0xbcf0880f	-0.029361753
14	0xbd9f2c9c	-0.077721804
15	0x3d232dfe	0.039838783
16	0x3bc7544a	0.006083046
17	0xbd6c072c	-0.057624027
18	0x3b78abba	0.0037944154
19	0xbd9d0adc	-0.07668087
20	0xbe028d1e	-0.12749144
21	0x3c9fbd66	0.019499492
22	0x3d8e3328	0.06943351
23	0x3d12e940	0.035866976
24	0x3da2ff77	0.07958882
25	0xbce34b2d	-0.027745808
26	0xbe105ac6	-0.14097127
27	0xbd6c9ba8	-0.057765633
28	0xbb666c76	-0.0035159863
29	0xbcd0070b	-0.025393983
30	0x3ca4d4b9	0.020120965
31	0x3b6d9b96	0.0036256067
32	0xbbbf6948	-0.005841408
33	0xbc7627dc	-0.015024152
34	0x3db1e3ff	0.08686065
35	0xbcb2592c	-0.021771036
36	0x3dc84f92	0.09780802
37	0x3d899d2d	0.06719432
38	0xbd147298	-0.036242098
39	0x3d3a6735	0.045508582
40	0xbe15b577	-0.14620005
41	0xbbbdc52d	-0.0057913275
42	0xbe060d46	-0.13091001
43	0xbb7f39b4	-0.0038944306
44	0xbc68569a	-0.014180804
45	0x3d0b181c	0.03395854
46	0xbd56f7d3	-0.052482437
47	0xba8b62b6	-0.0010634277
48	0xbd76bf41	-0.060240988
49	0x3d682633	0.056677055
50	0x3ddad318	0.10684794
51	0x3d82f771	0.06394852
52	0x3e090cbd	0.13383766
53	0xbca20107	-0.01977588
54	0x3d18256f	0.037145074
55	0xbcbd07ac	-0.023074947
56	0xbd80b07d	-0.062836625
57	0xbdc54f67	-0.096342854
58	0xbd4c0932	-0.049813457
59	0xbdd33604	-0.10313037
60	0x3d348f03	0.0440817
61	0xbcf0f81c	-0.029415183
62	0xbd4f9758	-0.050681442
63	0x3d2245a2	0.03961719
64	0x3d5feb2c	0.054667637
65	0x3d9b64f9	0.075876184
66	0x3dc4cfc5	0.096099414
67	0x3e07f5ee	0.13277408
68	0x3dee0463	0.116219305
69	0x3d0c8c08	0.03431323
70	0x3d70e406	0.05881121
71	0xbd8c4ae6	-0.06850223
72	0xbd265b90	-0.040614665
73	0x3db53bdf	0.0884931
74	0xbbdcfc36	-0.006743933
75	0x3dfa8c14	0.12233749
76	0xbc5bf807	-0.013425834
77	0xbdc269f5	-0.09492866
78	0x3e0abcb1	0.13548543
79	0x3dcee489	0.10102183
80	0xbd97a0b2	-0.07403697
81	0x3c678b9c	0.014132407
82	0xbc2ba0d2	-0.010475354
83	0xbb9e4cab	-0.004830917
84	0xbe27c3a8	-0.1638323
85	0x3d1cf42b	0.038318794
86	0xbd84f6df	-0.064923994
87	0x3dcb883d	0.09938095
88	0x3d7ff543	0.06248976
89	0xbd5b775b	-0.053580623
90	0xbcdecca4	-0.02719719
91	0x3e04f516	0.12984118
92	0xbc130e67	-0.008975602
93	0x3dde1daa	0.10845502
94	0xbc969cfd	-0.018385405
95	0xbbfb8977	-0.007676299
96	0x3cca714c	0.024712227
97	0xbd12d298	-0.03584537
98	0x3cde89a7	0.027165247
99	0xba4bb0fa	-0.0007770207
100	0xbe2874f5	-0.16450866
101	0x3db81a25	0.08989362
102	0xbc2c57d7	-0.0105189895
103	0x3db7be43	0.089718364
104	0xbe166f2f	-0.1469085
105	0xbe40c63c	-0.1882562
106	0xbda57678	-0.08079237
107	0xbd3ab2c5	-0.045580644
108	0x3e1e539a	0.15461579
109	0xbe28a678	-0.16469753
110	0xbc49e83c	-0.012323435
111	0xbd3fbef8	-0.04681298
112	0xbe5e88a2	-0.21731809
113	0xbd9cb9d0	-0.076526284
114	0xbdd35753	-0.1031939
115	0x3e3bb02a	0.1832892
116	0xbdb76f1e	-0.08956741
117	0x3d34d2ec	0.044146463
118	0x3da3569e	0.07975505
119	0x3e7063bc	0.23475546
120	0xbe782a99	-0.24235
121	0x3dbf929c	0.093541354
122	0xbcfdba9f	-0.030972777
123	0xbcd703ae	-0.026246872
124	0xbda25931	-0.07927168
125	0xbdd0409b	-0.101685725
126	0xbd2ad05e	-0.04170262
127	0x3d437e1c	0.04772769
128	0xbdaa5ff6	-0.08319084
129	0x3c389d8d	0.011268032
130	0x3ddcaf26	0.107755944
131	0x3d4e5fe1	0.050384406
132	0xbdbee5dc	-0.09321186
133	0x3d933c93	0.07189288
134	0x3ceadd14	0.028669871
135	0xbd35faab	-0.04442851
136	0x3dc6548a	0.09684093
137	0xbe0b3742	-0.13595298
138	0xbd6f1911	-0.058373515
139	0xbe817c4d	-0.25290146
140	0xbe1da5c4	-0.15395266
141	0xba0c867c	-0.0005360616
142	0x3dc28bbc	0.094993085
143	0x3ce0ef1c	0.027457766
144	0x38517581	4.9938917e-05
145	0xbd8677a3	-0.06565788
146	0x3d653dcc	0.055967137
147	0x3e06e7c7	0.13174354
148	0xbd10206b	-0.035187166
149	0xbdaa6d41	-0.0832162
150	0xbdc82917	-0.09773462
151	0x3e26193b	0.16220562
152	0x3cb6eb07	0.022328867
153	0x3da44196	0.08020322
154	0x3d16f299	0.036852453
155	0xbdf182c7	-0.11792522
156	0x3ceaaf6a	0.028648097
157	0x3c9c886b	0.019108018
158	0x3e1f7ec5	0.15575702
159	0x3b6661df	0.003515355
160	0xbddfdd42	-0.109308735
161	0x3d4745f7	0.048650708
162	0x3e0cac2b	0.13737552
163	0xbd41a969	-0.047280703
164	0xbdef054a	-0.11670931
165	0xbe4dfc0c	-0.2011568
166	0x3c2cd3be	0.01054853
167	0xbc275fda	-0.010215724
168	0xbe0ee349	-0.1395389
169	0xbd29f9e8	-0.041498095
170	0xbd1bfef4	-0.03808494
171	0xbe175dbc	-0.1478185
172	0xbe135707	-0.14388667
173	0x3c387872	0.011259185
174	0x3d0003f6	0.031253777
175	0xbd4ff81e	-0.050773732
176	0xbc91bf19	-0.017791318
177	0xbcbed620	-0.023295462
178	0xbb9fcab0	-0.004876457
179	0x3adc1659	0.0016791328
180	0xbe0f56e8	-0.13997996
181	0x3bcb99cc	0.0062134024
182	0xbd9804ad	-0.07422767
183	0xbdccbc7f	-0.0999689
184	0xbdd66081	-0.104676254
185	0xbe9b4c5b	-0.30331692
186	0xbe05d429	-0.13069214
187	0xbdb8cef1	-0.09023846
188	0xbe7a703a	-0.24456874
189	0x3e0d2663	0.13784175
190	0xbe98a59d	-0.29813853
191	0xbe2247c2	-0.15847686
192	0x3de48320	0.111578226
193	0xbded0136	-0.115724966
194	0xbde99da7	-0.11407023
195	0xbe359870	-0.17733932
196	0x3c882a4e	0.016621735
197	0x3db4754e	0.088114366
198	0x3d8f0ecc	0.06985244
199	0xbda6cd66	-0.081446454
200	0xbdbe2789	-0.092848845
201	0x3bf0c4cd	0.007347679
202	0x3c1ee761	0.00969872
203	0x3d86e0de	0.06585859
204	0x3e661120	0.2246747
205	0xbc31b545	-0.010846441
206	0xbe475fe9	-0.1947018
207	0xbeddf4d9	-0.43350866
208	0x3e156054	0.14587528
209	0xbe8e7317	-0.27822182
210	0x3c9f6f4a	0.019462246
211	0xbe53b3c1	-0.2067404
212	0xbe690662	-0.22756341
213	0xbe4553ca	-0.19270244
214	0xbeb46064	-0.3522979
215	0xbe84d2ac	-0.2594198
216	0x3dbe043c	0.092781514
217	0xbedb2a99	-0.42805937
218	0xbe21670d	-0.15761967
219	0xbda2d56a	-0.07950862
220	0xbea21610	-0.31657457
221	0x3ea945f8	0.33061194
222	0xbde6a91e	-0.11262725
223	0xbe556bbc	-0.20841879
224	0x3ee0ce5e	0.43907446
225	0xbdd9776f	-0.10618483
226	0x3d955d37	0.0729317
227	0xbe83b8f2	-0.2572704
228	0xbe17e569	-0.14833607
229	0x3da6226e	0.08112036
230	0xbee8a7a6	-0.45440406
231	0xbdb6211a	-0.08893032
232	0xbe6d8401	-0.23194887
233	0xbf060de9	-0.52364975
234	0x3e1c5f71	0.15270783
235	0xbe4ab583	-0.19795804
236	0xbbb48fd5	-0.00551031
237	0x3d1b99f4	0.037988618
238	0xbe57a29b	-0.21058123
239	0x3ec59665	0.38591304
240	0x3d8e0822	0.06935145
241	0x3d490006	0.049072288
242	0x3dfbd869	0.12297136
243	0xbeb2c669	-0.34917
244	0x3e9bab45	0.30404106
245	0x3c813987	0.015774501
246	0x3d4b48a5	0.049629826
247	0x3e1be86f	0.15225385
248	0xbdda06dd	-0.1064584
249	0xbe8d98b9	-0.2765558
250	0xbe72b2e0	-0.23701048
251	0x3df236b6	0.118268415
252	0x3dada867	0.08479386
253	0xbb42dfc7	-0.0029735432
254	0xbdc50cd4	-0.096215874
255	0xbdd9b353	-0.106299065

convs.0.bias f4 [128]
0	0xbc989880	-0.018627405
1	0xbba6c919	-0.0050898907
2	0xbe51edd2	-0.20500877
3	0xbe34c7aa	-0.17654291
4	0xbc5dec49	-0.013545104
5	0xbe4d5f3f	-0.20055865
6	0xbe919f14	-0.2844168
7	0xbeaec517	-0.34134743
8	0xbe56e7a3	-0.209868
9	0xbddf0176	-0.108889505
10	0xbe2ed192	-0.17072132
11	0xbeaa4e0d	-0.33262673
12	0xbe62d13f	-0.22150134
13	0xbe0f416c	-0.139898
14	0xbe5e113d	-0.21686263
15	0xbd3d27b7	-0.046180453
16	0xbdb08cd5	-0.086206116
17	0xbe723026	-0.2365118
18	0xbe9f0172	-0.3105579
19	0xbcaaf307	-0.020867838
20	0xbd827616	-0.06370179
21	0xbd99bd46	-0.07506804
22	0xbe2ca3de	-0.16859385
23	0xbeae9a3d	-0.3410205
24	0xbb18bc9d	-0.0023305782
25	0xbea08bfb	-0.31356797
26	0xbe51dba6	-0.20493945
27	0xbe25850a	-0.16164032
28	0xbe88372d	-0.26604596
29	0xbdd43c56	-0.10363071
30	0xbe314225	-0.17310388
31	0xbc6e4c7e	-0.014544604
32	0xbe7bf51a	-0.24605218
33	0xbe4fb0ac	-0.20282239
34	0xbcf94fa5	-0.030433485
35	0xbec27643	-0.37980852
36	0xbe84b884	-0.25922024
37	0xbe6331bd	-0.22186942
38	0xbe8cc47e	-0.27493662
39	0xbe88946e	-0.26675743
40	0xbeb1db57	-0.34737656
41	0xbeeb349a	-0.4593857
42	0xbe8d4fc8	-0.2759993
43	0xbe96d300	-0.29457855
44	0xbe9fc22d	-0.31202832
45	0xbe62ed0b	-0.22160737
46	0xba971248	-0.0011525834
47	0xbd55b66c	-0.052175924
48	0xbe9b0d9e	-0.30283827
49	0xbcc6002e	-0.024170008
50	0xbdd1706b	-0.1022652
51	0xbebd8e19	-0.37022474
52	0xbe8ca00c	-0.27465856
53	0xbdc6548e	-0.09684096
54	0xbe2544c8	-0.16139519
55	0xbe58412d	-0.21118613
56	0xbe62c8ea	-0.22146955
57	0xbe8b4e29	-0.2720807
58	0xbe6b3979	-0.22971143
59	0xbe8819ed	-0.2658228
60	0xbeb14ab9	-0.3462732
61	0xbde4997c	-0.11162087
62	0xba982e40	-0.0011610463
63	0xbdddf4b4	-0.10837689
64	0xbdec10eb	-0.11526664
65	0xbed380b7	-0.4130914
66	0xbe9356fd	-0.28777304
67	0xbe385d98	-0.18004453
68	0xbeb13263	-0.34608755
69	0xbe16718c	-0.14691752
70	0xbe9a1d77	-0.30100605
71	0xbc30835f	-0.010773509
72	0xbe862b19	-0.26204756
73	0xbe35eff7	-0.1776732
74	0xbdb7910e	-0.08963214
75	0xbe864d10	-0.2623067
76	0xbe9eb4ac	-0.30997217
77	0xbe6629c2	-0.22476867
78	0xbd097159	-0.033555362
79	0xbe30e61e	-0.17275283
80	0xbd3bf70f	-0.04588991
81	0xbe40d013	-0.18829374
82	0xbdae4d9e	-0.08510898
83	0xbe8f4eb7	-0.27989742
84	0xbdfa3a14	-0.12218109
85	0xbdde6024	-0.10858181
86	0xbe1d8a1a	-0.15384713
87	0xbe2fe478	-0.17176998
88	0xbe743763	-0.23849253
89	0xbe61b8ef	-0.22043203
90	0xbd24edc1	-0.040265802
91	0xbe83b5e3	-0.25724706
92	0xbedea408	-0.4348452
93	0xbd221150	-0.03956729
94	0xbea09366	-0.31362456
95	0xbe973ce5	-0.29538646
96	0xbe61fd5a	-0.22069302
97	0xbed50dc9	-0.4161208
98	0xbec2c043	-0.3803731
99	0xbeb4483c	-0.3521136
100	0xbea3afdc	-0.31970108
101	0xbe2a50ee	-0.16632435
102	0xbe95e2a9	-0.2927449
103	0xbe69b556	-0.2282308
104	0xbebc8e5a	-0.36827356
105	0xbe517982	-0.20456508
106	0xbda76e79	-0.08175368
107	0xbe83cd49	-0.25742558
108	0xbdf78514	-0.120859295
109	0xbe79fd0b	-0.24412934
110	0xbe93576d	-0.28777638
111	0xbe8db2bd	-0.2767543
112	0xbc885938	-0.016644105
113	0xbe531071	-0.2061174
114	0xbdd156d6	-0.10221641
115	0xbe822acc	-0.25423276
116	0xbe8f7a18	-0.28022838
117	0xbd25809d	-0.04040586
118	0xbe31abfc	-0.17350763
119	0xbeadf0bc	-0.33972728
120	0xbcddd378	-0.027078375
121	0xbd889722	-0.06669451
122	0xbed3456c	-0.41263902
123	0xbe813c44	-0.25241292
124	0xbe1fbf2f	-0.15600275
125	0xbdefaa27	-0.11702376
126	0xbeb6be02	-0.3569184
127	0xbe800bff	-0.25009152

convs.1.weight f4 [128, 20, 9]
0	0xbd93a34e	-0.07208882
1	0xbdaf32ec	-0.085546345
2	0xbbdad825	-0.0066785985
3	0xbea01cf3	-0.31272087
4	0x3d4ad6b8	0.049521178
5	0xbcb53bb6	-0.022123199
6	0xbd4a17c1	-0.04933906
7	0xbeca8d0a	-0.3956073
8	0x3e361a37	0.17783438
9	0xbbc6f1dc	-0.0060713124
10	0xbdef3914	-0.11680809
11	0x3de0ce6d	0.109768726
12	0xbe8d34c0	-0.27579308
13	0xbe8763fa	-0.26443464
14	0x3e9b960a	0.30387908
15	0xbe8f7d98	-0.28025508
16	0x3e088ec1	0.13335706
17	0xbeef9bf2	-0.46798664
18	0xbea6b550	-0.32560205
19	0xbd8b75ab	-0.06809553
20	0x3e1f278a	0.15542427
21	0xbd0da6a0	-0.034582734
22	0x3de001f4	0.109378725
23	0xbef18f10	-0.4717946
24	0xbe359fbb	-0.17736714
25	0xbc121b2d	-0.008917612
26	0xbc1afd2f	-0.009459778
27	0xbe17758a	-0.14790931
28	0xbe5cd9f4	-0.21567518
29	0x3e1ac34e	0.15113565
30	0xbbc1d886	-0.005915704
31	0xbe169552	-0.14705399
32	0xbea81a8b	-0.3283275
33	0x3e8267aa	0.25469714
34	0x3d48ee56	0.04905542
35	0x3df7a03f	0.120911114
36	0x3e8364f0	0.25662947
37	0x3ebf34c6	0.3734495
38	0x3d3b4af0	0.045725763
39	0x3ee9d820	0.45672703
40	0x3e07a889	0.13247885
41	0x3ea222e5	0.31667247
42	0x3ebbff59	0.36718252
43	0x3e8136cc	0.2523712
44	0xbebb8597	-0.36625358
45	0x3e51d8d5	0.20492871
46	0xbe8e563f	-0.27800176
47	0xbe1f0326	-0.15528545
48	0xbde09d7d	-0.109675385
49	0xbea67ead	-0.3251852
50	0x3e099b1b	0.13438074
51	0xbe13ba55	-0.14426549
52	0x3d124390	0.035708964
53	0xbe909bed	-0.28243962
54	0xbcd20161	-0.025635423
55	0xbe81e8b2	-0.25372845
56	0xbd5dae85	-0.054121513
57	0x3de90663	0.11378171
58	0xbe0dee0e	-0.13860342
59	0xbe8a85c2	-0.27055174
60	0x3e989c1f	0.2980661
61	0xbe4dda18	-0.20102727
62	0xbd5d2b38	-0.053996295
63	0x3c678360	0.014130443
64	0xbe8b1563	-0.27164754
65	0x3ef58392	0.47951943
66	0xbe8c7cfc	-0.27439106
67	0xbdee4f4c	-0.116362184
68	0xbe392c7f	-0.1808338
69	0x3bd5fe4b	0.006530558
70	0x3cf04947	0.029331816
71	0x3e5fec4e	0.21867487
72	0x3d9169ff	0.07100295
73	0x3d5e81b4	0.054322913
74	0x3d0f1f18	0.034941763
75	0x3e9c2589	0.30497387
76	0xbe657c8e	-0.22410795
77	0x3e0914cd	0.13386841
78	0xbe7efeb2	-0.24901846
79	0xbe80dc3f	-0.25168034
80	0xbf122f98	-0.5710387
81	0xbdd614c6	-0.10453181
82	0xbbfc9d8c	-0.0077092107
83	0xbdce2c7f	-0.10067081
84	0xbd7f9038	-0.062393397
85	0xbcf76da7	-0.030203653
86	0xbe847657	-0.25871536
87	0x3d7e2e82	0.062056072
88	0xbdf4505b	-0.11929389
89	0xbdcf9e6a	-0.10137637
90	0x3dfa938e	0.12235175
91	0xbe3e1861	-0.18563987
92	0xbe1b147c	-0.15144533
93	0x3d129a18	0.035791487
94	0xbe931967	-0.28730318
95	0xbd86688c	-0.065629095
96	0xbdf177ad	-0.117904045
97	0xbdd1e049	-0.10247857
98	0xbd8774ca	-0.066140726
99	0x3cbcd751	0.02305189
100	0xbe3ae7da	-0.18252507
101	0xbe5340ec	-0.20630234
102	0xbe0e2647	-0.13881789
103	0xbd91aa0d	-0.07112513
104	0xbe660f1b	-0.224667
105	0xbe01108f	-0.12603973
106	0x3e385d5d	0.18004365
107	0xbdfae314	-0.12250343
108	0x3cfcf7fb	0.030879965
109	0xbe8329da	-0.25617868
110	0xbe46fc0a	-0.19432083
111	0x3d04650c	0.03232293
112	0xbea6277c	-0.32452
113	0xbd6a8e50	-0.057264626
114	0xbcd5d7da	-0.026103903
115	0xbd5b81ff	-0.05359077
116	0xbd6be1b3	-0.05758829
117	0x3e15d50a	0.14632049
118	0xbd15a215	-0.036531527
119	0x3d715a05	0.05892374
120	0xbe2062c1	-0.15662672
121	0xbd075a72	-0.03304524
122	0x3e10e1a0	0.14148569
123	0x3e6b8af2	0.23002222
124	0xbd23507a	-0.03987167
125	0x3d72a333	0.05923767
126	0x3e163433	0.1466835
127	0x3ebf2e53	0.3734003
128	0xbe775919	-0.24155082
129	0x3e71ccaa	0.2361323
130	0xbb44272c	-0.0029930575
131	0x3ee69be2	0.45040804
132	0xbee6d32e	-0.45082992
133	0x3ce15344	0.027505524
134	0xbeec73ee	-0.46182197
135	0xbd42b501	-0.0475359
136	0x3e05578a	0.13021675
137	0x3db967b9	0.09052987
138	0xbec243fc	-0.37942493
139	0x3e70ca46	0.23514661
140	0x3da5fd93	0.08105006
141	0x3d2ea371	0.04263634
142	0xbe2d71b9	-0.16937913
143	0xbe5b8ab3	-0.21439628
144	0xbdaab332	-0.0833496
145	0x3e009bdc	0.12559456
146	0x3bec5c37	0.0072131413
147	0xbe5ca3a2	-0.21546796
148	0x3e833e55	0.25633493
149	0xbe8cc1a1	-0.27491477
150	0xbde0a5f5	-0.10969154
151	0xbe0ae7da	-0.13565007
152	0xbe19effb	-0.15032952
153	0xbd95c583	-0.07313063
154	0x3e168b7b	0.14701645
155	0x3c2f3060	0.010692686
156	0xbe485a7b	-0.19565766
157	0x3dbb215f	0.091372244
158	0x3d9a988e	0.07548629
159	0x3ed95aaa	0.42451984
160	0x3e4df7d2	0.20114067
161	0x3e4648d6	0.19363722
162	0x3dd476bb	0.103742085
163	0x3be2da7d	0.0069230185
164	0xbe9bbe2b	-0.30418524
165	0xbd15677c	-0.036475644
166	0xbd697fe2	-0.057006724
167	0x3e667c8c	0.22508448
168	0x3db82326	0.08991079
169	0xbdbaf1fe	-0.091281876
170	0xbddabfb9	-0.106810994
171	0x3c1f20c9	0.009712406
172	0xbe174ce8	-0.14775431
173	0xbe5594a7	-0.20857488
174	0x3dd831da	0.105563834
175	0xbe68572e	-0.22689506
176	0xbe84a4ab	-0.25906882
177	0x3dda1501	0.106485374
178	0xbe9c4275	-0.30519453
179	0x3b0add6d	0.002118911
180	0xbd90d46c	-0.07071766
181	0xbd7a72bd	-0.06114458
182	0x3d181bbe	0.037135832
183	0xbce35cf0	-0.027754277
184	0xbd805114	-0.062654644
185	0xbd87e83f	-0.06636094
186	0xbcdaaa87	-0.026692642
187	0x3ccd120a	0.025033016
188	0x3d525dda	0.051359035
189	0xbd1e4e12	-0.038648672
190	0xbc4589f4	-0.012056816
191	0x3b1d00b9	0.002395673
192	0xbce328d3	-0.027729427
193	0xbccf5b6f	-0.025312154
194	0x3cd25196	0.025673669
195	0xbdfee7b6	-0.12446539
196	0x3ca4a490	0.020098
197	0xbd8b734e	-0.06809102
198	0xbd19a27c	-0.037508473
199	0x3c9aab39	0.018880473
200	0x3bd74e2c	0.006570598
201	0x3c61b04c	0.013774943
202	0x3d0bcfc5	0.03413369
203	0xbac0fe8b	-0.0014724297
204	0x3c508644	0.012727324
205	0xbdf68a9c	-0.120381564
206	0xbc335398	-0.010945223
207	0x3d16697d	0.036721695
208	0x3ccbfe96	0.02490167
209	0x3860f5e4	5.3634765e-05
210	0x3d4724fa	0.048619248
211	0xbcbd7963	-0.02312917
212	0x3d17798f	0.03698116
213	0x3d4dde7d	0.05026101
214	0xbd1c0ebd	-0.038099993
215	0xbd6e211a	-0.058137037
216	0xbc08ee28	-0.008357562
217	0xbd8f704f	-0.07003843
218	0xbba9422f	-0.0051653604
219	0xbcfd2656	-0.030902069
220	0x3d1b7928	0.03795734
221	0x3d5c84ef	0.053837713
222	0xbd17b431	-0.03703708
223	0xbc5b1b77	-0.013373247
224	0xbd609cf9	-0.0548372
225	0xbaa7b4ee	-0.001279501
226	0xbacf1bfd	-0.0015801188
227	0xbd684b97	-0.056712713
228	0xbc0a2d06	-0.008433586
229	0xbd536e50	-0.051618874
230	0x3cf7a7f8	0.03023146
231	0xbc4de9ec	-0.012567978
232	0xbd5479dc	-0.051874027
233	0xbc1799ec	-0.009253006
234	0xbc4a12e5	-0.012333606
235	0xbcc16f90	-0.023612767
236	0xbb988b64	-0.0046552885
237	0x3d654ea7	0.05598321
238	0xbd0320db	-0.032013755
239	0x3d66b3ba	0.056323744
240	0x3ca69224	0.020333357
241	0xbc649804	-0.013952259
242	0xbd82de00	-0.063899994
243	0x3c68d8d5	0.014211853
244	0x3d261520	0.04054749
245	0xbcbd9913	-0.02314428
246	0x3d1d527b	0.038408738
247	0xbc28b8d3	-0.010297972
248	0x3a2f9346	0.00066976657
249	0xbd19576c	-0.037436888
250	0xbd34b530	-0.044118106
251	0xbc73881e	-0.014863996
252	0x3b9507e2	0.004548059
253	0xbd174681	-0.036932472
254	0xbd0bd250	-0.034136117
255	0xbcb88469	-0.022524076

convs.1.bias f4 [128]
0	0xbdc6b809	-0.09703071
1	0xbed438dc	-0.4144963
2	0xbe0b50f6	-0.13605103
3	0xbd49e748	-0.049292833
4	0xbe5f6d6f	-0.2181909
5	0xbea9e8d1	-0.33185437
6	0xbe237aaf	-0.15964769
7	0xbe2bf584	-0.16792876
8	0xbe55e7d1	-0.20889212
9	0xbecb100b	-0.39660677
10	0xbe79aa48	-0.24381363
11	0xbd3c0074	-0.04589887
12	0xbec9bda0	-0.39402485
13	0xbeec4ae4	-0.46150887
14	0xbe85d06d	-0.2613558
15	0xbe769cf1	-0.24083306
16	0xba95a783	-0.001141772
17	0xbea80c5b	-0.32821926
18	0xbe0be19f	-0.13660286
19	0xbe8d9d0d	-0.27658883
20	0xbe397985	-0.18112762
21	0xbe4d5f05	-0.20055778
22	0xbea6178d	-0.32439843
23	0xbeaddaf1	-0.33956102
24	0xbe97b4c7	-0.2963011
25	0xbe85d8a5	-0.2614185
26	0xbe076e63	-0.13225703
27	0xbe79541e	-0.24348494
28	0xbe69647b	-0.22792237
29	0xbea9e24b	-0.3318046
30	0xbe85cd78	-0.26133323
31	0xbe428092	-0.18994358
32	0xbe29e9df	-0.16593121
33	0xbcfebb8f	-0.031095294
34	0xbea3d930	-0.32001638
35	0xbc5548ac	-0.013017815
36	0xbdff7997	-0.12474363
37	0xbe8d3633	-0.27580413
38	0xbe80c890	-0.25153017
39	0xbdc77a10	-0.097400784
40	0xbdb456c8	-0.08805615
41	0xbecb11fe	-0.39662164
42	0xbe1fd4ff	-0.15608595
43	0xbe61de52	-0.22057465
44	0xbe94a169	-0.29029396
45	0xbe8e2a0c	-0.27766454
46	0xbe3c3056	-0.18377814
47	0xbdcfcab4	-0.101460844
48	0xbdbc43a8	-0.09192592
49	0xbe12e0c5	-0.14343555
50	0xbe37d802	-0.17953494
51	0xbe27e4fa	-0.16395941
52	0xbb2515ec	-0.0025190068
53	0xbe026204	-0.12732702
54	0xbe8a2dd3	-0.26988086
55	0xbe706824	-0.23477226
56	0xbdce5a75	-0.10075847
57	0xbe8b3ab2	-0.27193218
58	0xbee46899	-0.44611052
59	0xbd583b9e	-0.05279123
60	0xbea3fb05	-0.3202745
61	0xbe927d27	-0.2861111
62	0x3dcf3acc	0.101186365
63	0xbdc5fdec	-0.096675724
64	0xba9279f9	-0.0011175267
65	0xbeb11497	-0.3458602
66	0xbd0a2b83	-0.033732902
67	0xbe2f9127	-0.17145215
68	0xbeb525db	-0.35380444
69	0xbd386261	-0.045015696
70	0xbdd0b886	-0.10191445
71	0xbd75d3aa	-0.06001631
72	0xbd407e3c	-0.046995386
73	0xbeb85bc2	-0.36007506
74	0xbecc10fe	-0.39856714
75	0xbe6028a7	-0.21890508
76	0xbcdd21d1	-0.026993664
77	0xbe84787c	-0.25873172
78	0xbdb35834	-0.08757058
79	0xbe128e8f	-0.14312194
80	0xbe8053ba	-0.25063878
81	0xbe74661f	-0.23867081
82	0xbcb3b0d8	-0.021934912
83	0xbece3cc3	-0.40280733
84	0xbea0eb32	-0.3142944
85	0xbc668731	-0.014070318
86	0xbe65ccae	-0.2244136
87	0xbe8ed9c8	-0.2790053
88	0xbe62eae6	-0.22159919
89	0xbe6c080b	-0.23049943
90	0xbdf886bb	-0.12135073
91	0xbe86ead8	-0.26351047
92	0xbe6bcf98	-0.2302841
93	0xbea7732e	-0.32705063
94	0xbe797f39	-0.24364938
95	0xbeaf38ce	-0.34223026
96	0xbea5aa80	-0.32356644
97	0xbee962d5	-0.45583215
98	0xbe5344b1	-0.20631672
99	0xbe532ecb	-0.20623319
100	0xbec1c199	-0.37843016
101	0xbe8c0886	-0.27350253
102	0xbec86540	-0.39139748
103	0xbd9637a2	-0.0733483
104	0xbda79fee	-0.08184801
105	0xbe56aabe	-0.2096357
106	0xbeb67da8	-0.35642743
107	0xbe674cdb	-0.22587912
108	0xbe72f845	-0.2372752
109	0xbd0442c6	-0.032290243
110	0xbed0db0c	-0.4079212
111	0xbe54a806	-0.20767221
112	0xbebe8a03	-0.3721467
113	0xbe8b550c	-0.27213323
114	0xbe7d34a6	-0.24727115
115	0xbe15685e	-0.14590594
116	0xbc7e492f	-0.015520378
117	0xbe39e934	-0.18155366
118	0xbe70c1da	-0.23511449
119	0xbed021ac	-0.4065069
120	0xbdd049d1	-0.10170329
121	0xbe0b8997	-0.13626705
122	0xbea7b513	-0.32755336
123	0xbe6759b3	-0.22592811
124	0xbda48ec3	-0.08035042
125	0xbe98c21f	-0.29835603
126	0xbe7a1d6c	-0.24425286
127	0xbd0a9ce4	-0.03384103

convs.2.weight f4 [128, 20, 13]
0	0x3d9b8bde	0.07595037
1	0xbdd1726d	-0.10226903
2	0x3e09e098	0.13464582
3	0xbd92b36e	-0.0716313
4	0x3cd73f04	0.026275165
5	0xbe89f370	-0.2694354
6	0x3b4a0e5c	0.0030831313
7	0x3df53c69	0.11974413
8	0x3bc59440	0.0060296357
9	0xbd48ce6a	-0.049024977
10	0x3d404cb5	0.046948154
11	0xbd51e2cb	-0.051241677
12	0x3cd170b1	0.02556643
13	0xbe887352	-0.26650482
14	0xbe77b894	-0.24191505
15	0xbdaa2c57	-0.083092384
16	0xbebee711	-0.37285665
17	0x3e9ffb41	0.3124638
18	0x3d5aa0d8	0.05337605
19	0xbd3b8d5d	-0.04578911
20	0xbe926a41	-0.2859669
21	0xbe734d14	-0.23759872
22	0xbdc232e4	-0.09482363
23	0xbe575030	-0.21026683
24	0xbdb888a0	-0.09010434
25	0x3dfde80a	0.123977736
26	0xbe9cf2e8	-0.30654073
27	0x3d2244fd	0.039616574
28	0x3c99479f	0.01871091
29	0xbe4c52c0	-0.19953442
30	0x3cc5c0b6	0.024139743
31	0xbda1d17c	-0.07901284
32	0x3e1b1a72	0.15146807
33	0xbe98e0dd	-0.29859057
34	0xbe664f5d	-0.22491212
35	0x3df08ae6	0.11745243
36	0xbec93458	-0.39297748
37	0xbe15a991	-0.14615466
38	0x3e84c063	0.2592803
39	0xbe344946	-0.17606077
40	0xbe373fa0	-0.17895365
41	0xbcb627cb	-0.022235772
42	0xbc370aab	-0.011171977
43	0xbec06153	-0.37574252
44	0x3d093ec2	0.033507116
45	0xbbb7ff49	-0.005615149
46	0x3c6fe0cb	0.014640997
47	0xbe88d84a	-0.26727515
48	0xbe89f8ce	-0.26947635
49	0xbe3419c8	-0.1758796
50	0xbd5700cb	-0.05249099
51	0xbe548622	-0.20754293
52	0x3ea0ff3a	0.31444722
53	0x3f39cf6b	0.7258212
54	0x3e3a1163	0.18170695
55	0x3e2a2b44	0.16618067
56	0x3e9efb17	0.3105094
57	0x3e91d88d	0.28485528
58	0xbee132e4	-0.4398414
59	0xbe8b0c69	-0.27157906
60	0xbe850593	-0.25980815
61	0xbed556aa	-0.41667682
62	0xbf3fbbae	-0.7489575
63	0x3e26c82d	0.16287299
64	0xbece9b38	-0.40352798
65	0xbdf5d866	-0.12004165
66	0xbe913366	-0.28359526
67	0xbc485971	-0.012228356
68	0xbe1906f0	-0.14944053
69	0xbc124d66	-0.008929586
70	0xbda37abe	-0.079823956
71	0xbd8dd1f9	-0.06924815
72	0xbefe56c4	-0.49675572
73	0xbec33b4f	-0.38131186
74	0xbe6c6c3a	-0.2308816
75	0xbe0b9f80	-0.13635063
76	0xbcfed826	-0.031108927
77	0x3e858a24	0.26081955
78	0x3b26e5dd	0.00254666
79	0xbe8d9555	-0.27652994
80	0xbe0dd5b1	-0.13851048
81	0x3c3ecc8f	0.01164545
82	0xbcc9cf55	-0.024634996
83	0xbd4d5958	-0.050134033
84	0xbe4972bf	-0.19672678
85	0xbe61b0d1	-0.22040106
86	0xbe28afbc	-0.16473287
87	0xbe2db68b	-0.16964166
88	0xbf070ced	-0.527541
89	0x3db5b891	0.08873094
90	0x3de8f111	0.11374105
91	0xbde741fe	-0.11291884
92	0xbe376ae0	-0.17911863
93	0xbcd49f46	-0.025954854
94	0xbeb2acd3	-0.3489748
95	0x3e7a8056	0.24463019
96	0xba53b079	-0.00080753077
97	0x3e159fe3	0.14611773
98	0xbe9a4647	-0.30131742
99	0xbd86f5d0	-0.06589854
100	0xbd02ba51	-0.031915966
101	0x3ea9630b	0.33083376
102	0xbde0a2ab	-0.109685265
103	0x3d5f54ac	0.05452411
104	0xbdfbc612	-0.12293638
105	0x3c8ad3b6	0.016946655
106	0xbde65a44	-0.112476856
107	0x3ea8575a	0.32879144
108	0xbd70861e	-0.058721654
109	0x3bc853be	0.0061134985
110	0x3e777e18	0.24169195
111	0x3bec524f	0.0072119604
112	0xbec328c4	-0.3811704
113	0xbd262dc4	-0.04057099
114	0xbd4b4b59	-0.049632404
115	0x3d601cb8	0.05471489
116	0x3e8fc298	0.2807815
117	0x3ce59947	0.02802719
118	0xbe5fbcd7	-0.2184938
119	0xbd000edf	-0.031264182
120	0xbc4be1bc	-0.012443956
121	0xbdfc7623	-0.1232722
122	0xbe84b5b5	-0.2591988
123	0x3d261b57	0.040553417
124	0x3de380bd	0.11108539
125	0x3e25a0d3	0.16174631
126	0xbb8ce2b2	-0.004299485
127	0xbdd8465c	-0.10560295
128	0xbdcf0edf	-0.10110258
129	0x3e255d2a	0.1614882
130	0x3bd43661	0.006476209
131	0xbd9dcfc5	-0.077056445
132	0x3e46fbb8	0.1943196
133	0xbc71a9cf	-0.014749958
134	0xbdc3ddd5	-0.095637955
135	0xbe75b056	-0.23993048
136	0xbd08a2f0	-0.033358514
137	0x3ce2c513	0.027681863
138	0x3e7843d9	0.24244632
139	0x3e857acd	0.26070252
140	0x3e06b69b	0.13155596
141	0xbe1ce488	-0.15321553
142	0xbe899905	-0.26874557
143	0xbd5bcf1e	-0.05366432
144	0xbdf55cb9	-0.11980576
145	0xbdbc1959	-0.09184522
146	0x3c68fa7a	0.0142198745
147	0x3e26a57a	0.16274062
148	0x3d0b764e	0.03404837
149	0xbc81a3d1	-0.015825184
150	0xbe54ba75	-0.20774253
151	0xbec31577	-0.38102314
152	0xbd70835a	-0.058719017
153	0xbe9bc9c6	-0.30427378
154	0xbe143787	-0.14474307
155	0x3d01b882	0.0316701
156	0xbe1d7187	-0.15375338
157	0xbe605d75	-0.21910651
158	0x3d7bc6f4	0.061469033
159	0xbcdb02a6	-0.026734661
160	0xbe0c5199	-0.13703002
161	0xbeb5ff1b	-0.35546193
162	0x3cfa454b	0.03055062
163	0x3b832870	0.0040026233
164	0x3d95d71b	0.07316419
165	0xbcbab0d1	-0.02278939
166	0x3dc814b4	0.09769574
167	0xbe3d309f	-0.18475579
168	0xbe70c1f1	-0.23511483
169	0x3c8a7217	0.016900105
170	0xbe94a4fd	-0.29032126
171	0xbd8f041d	-0.069832064
172	0xbddca068	-0.107727826
173	0xbea6114b	-0.32435068
174	0x3e0551b6	0.13019451
175	0x3e11cc4a	0.14238086
176	0x3e8877ce	0.26653904
177	0x3e0e98cf	0.1392548
178	0x3e51246a	0.20424047
179	0xbd936e31	-0.07198752
180	0xbec98f44	-0.39367115
181	0xbe6801f0	-0.22656989
182	0x3eff53b5	0.4986855
183	0xbe58639d	-0.2113175
184	0xbcf7242a	-0.030168612
185	0x3f0bc6c6	0.5460018
186	0xbd506a17	-0.050882425
187	0x3e6b1c20	0.22959948
188	0xbd19ea93	-0.037577223
189	0xbea22e7c	-0.3167609
190	0xbcbf7077	-0.023369057
191	0x3e1dd2a9	0.15412392
192	0xbe93937d	-0.28823462
193	0x3e5db160	0.21649694
194	0xbe4c6ed9	-0.1996416
195	0x3dced36f	0.100989215
196	0x3dcdfc9c	0.10057947
197	0x3dfe2e15	0.12411133
198	0xbdec7f23	-0.11547687
199	0xbd645233	-0.055742454
200	0x3783b80b	1.5702119e-05
201	0xbe613b38	-0.21995246
202	0xbeca51c7	-0.39515516
203	0xbeb9e607	-0.3630831
204	0x3d609c9e	0.05483686
205	0xbc609ccc	-0.013709258
206	0xbdae014b	-0.0849634
207	0xbdb831c7	-0.08993869
208	0xbd9efe0d	-0.077633
209	0x3e37baf4	0.1794241
210	0x3de12196	0.10992734
211	0xbdc23bfe	-0.09484099
212	0xbd82ee7b	-0.06393143
213	0xbe911416	-0.28335637
214	0xbe2f02ca	-0.17090908
215	0xbd766c3b	-0.06016181
216	0xbd1f7f65	-0.038939852
217	0x3e69d749	0.22836031
218	0xbebffccd	-0.3749756
219	0x3deb8fa9	0.115020104
220	0xbe4ea044	-0.20178324
221	0xbcf752ba	-0.030190814
222	0xbe246c37	-0.16056906
223	0x3dbdcd01	0.09267617
224	0xbd325235	-0.04353543
225	0xbe2aa79f	-0.16665505
226	0x3db873bf	0.09006452
227	0xbdbdecbe	-0.092736706
228	0x3e705b25	0.23472269
229	0xbe62ebaf	-0.22160219
230	0xbdd145ea	-0.10218413
231	0xbe680979	-0.22659864
232	0xbeba8341	-0.36428264
233	0x3e77a2bb	0.2418317
234	0xbd2bc7d9	-0.041938636
235	0xbe053a8b	-0.13010614
236	0x3d7f8d61	0.06239069
237	0xbd84ac51	-0.06478179
238	0x3d228a47	0.039682653
239	0x3e83aba0	0.25716877
240	0x3d8a7a07	0.06761556
241	0x3e83111f	0.25599
242	0x3e2f2705	0.17104729
243	0x3e5a32c8	0.21308434
244	0xbecc43d4	-0.398955
245	0xbe867f66	-0.26269072
246	0x3e31dff4	0.17370588
247	0x3d703db9	0.058652613
248	0xbe11670b	-0.14199464
249	0xbdc4309f	-0.09579586
250	0xbc82ec18	-0.015981719
251	0xbe41d030	-0.18927073
252	0xbe485fc4	-0.19567782
253	0x3d4dcaa6	0.05024209
254	0x3decf66b	0.11570438
255	0x3bd22c57	0.006413977

convs.2.bias f4 [128]
0	0xbacdd470	-0.001570357
1	0x3f08d079	0.53443104
2	0xbe967167	-0.29383394
3	0xbe88d8ee	-0.26728004
4	0xbe825120	-0.25452518
5	0xbe70d737	-0.23519598
6	0xbecccc7f	-0.39999768
7	0xbe95d003	-0.29260263
8	0xbe46a9ed	-0.19400759
9	0xbca00397	-0.019532962
10	0xbe9df7f9	-0.3085325
11	0xbe8fec87	-0.28110144
12	0xbdb896b7	-0.090131216
13	0xbe036835	-0.1283272
14	0xbc941b2b	-0.018079361
15	0xbe32879f	-0.17434548
16	0xbe929076	-0.2862584
17	0xbe6643ca	-0.22486797
18	0xbde67974	-0.11253634
19	0xbc42bebb	-0.011886294
20	0xbe8185e5	-0.25297466
21	0xbe6630c0	-0.22479534
22	0xbe04803e	-0.12939546
23	0xbe5474cd	-0.20747681
24	0xbd7d7386	-0.06187775
25	0xbe8bd3a0	-0.27309895
26	0xbea0597a	-0.31318265
27	0xbea6ca22	-0.3257609
28	0xbe367b15	-0.1782039
29	0xbe52b91e	-0.20578429
30	0xbe97b7e0	-0.29632473
31	0xbad27429	-0.0016056347
32	0xbdb083b2	-0.08618869
33	0xbea5526f	-0.32289454
34	0xbebfe904	-0.37482464
35	0x3efd06f8	0.4941938
36	0xbd77abec	-0.06046669
37	0xbe886a01	-0.26643375
38	0xbe629c3f	-0.22129916
39	0xbe9615a3	-0.29313383
40	0xbe28affa	-0.1647338
41	0xba30c5b1	-0.00067433255
42	0xbe0f6d3e	-0.14006516
43	0xbd0985b0	-0.03357476
44	0xbdd07a90	-0.10179627
45	0xbebc91af	-0.36829898
46	0xbd87c090	-0.06628525
47	0xbea7429f	-0.32668015
48	0xbc9063c8	-0.017625704
49	0xbe6585e8	-0.22414362
50	0xbddf98f3	-0.109178446
51	0xbec895bc	-0.39176738
52	0xbe89733d	-0.26845732
53	0xbe993fee	-0.29931587
54	0xbe936126	-0.28785056
55	0xbe846675	-0.2585942
56	0xbd260c2e	-0.04053896
57	0xbe5c6d8c	-0.21526164
58	0xbe734de3	-0.2376018
59	0xba251cda	-0.00062985497
60	0xbe73699d	-0.23770757
61	0xbeac25bd	-0.33622542
62	0xbe3c2644	-0.18373972
63	0xbe2d3c43	-0.1691752
64	0xbe8529c4	-0.26008427
65	0xbe94b754	-0.29046118
66	0xbe98cc8f	-0.29843566
67	0xbeb7b20f	-0.35878035
68	0xbe717351	-0.23579146
69	0xbe5ff12f	-0.21869348
70	0xbe2a6364	-0.16639477
71	0xbeba0f72	-0.3633991
72	0xbebce215	-0.36891237
73	0xbe2984a4	-0.16554505
74	0xbe953b0d	-0.29146615
75	0xbe686c85	-0.22697647
76	0xbe9a4951	-0.3013406
77	0xbd0f7587	-0.035024192
78	0xbe5dacda	-0.21647969
79	0xbe2bcd81	-0.16777612
80	0xbe113a61	-0.14182426
81	0xbe315eb0	-0.17321277
82	0xbeaf91a1	-0.34290794
83	0xbe9451cd	-0.2896866
84	0xbe0fdef4	-0.14049894
85	0xbe9d4508	-0.3071673
86	0xbe8af75a	-0.2714184
87	0xbe8f3465	-0.2796966
88	0xbe35efc4	-0.17767245
89	0xbd9ce6c4	-0.076612025
90	0xbe8450c5	-0.25842872
91	0xbe2f912d	-0.17145224
92	0xbe2918ce	-0.16513368
93	0xbe61744f	-0.22017024
94	0xbebfc0b4	-0.37451708
95	0xbe0f3702	-0.13985828
96	0xbcc48315	-0.023988286
97	0xbe7f16cc	-0.2491104
98	0xbe0edb3c	-0.13950819
99	0xbed42a48	-0.41438508
100	0xbea2945e	-0.3175382
101	0xbeac0860	-0.3360014
102	0xbe95ce2f	-0.29258868
103	0xbe0ccf9a	-0.13751069
104	0xbe5334c5	-0.20625599
105	0xbb3ae98b	-0.002852055
106	0xba23d126	-0.0006249122
107	0xbdff6526	-0.124704644
108	0xbec10a5b	-0.37703213
109	0xbea90100	-0.33008575
110	0xbde26d6a	-0.11056025
111	0xbeafb8a7	-0.34320566
112	0xbeca0044	-0.39453328
113	0xbec374ca	-0.3817504
114	0xbd9ff3a9	-0.07810146
115	0xbe006ee4	-0.12542301
116	0xbe814c35	-0.25253454
117	0xbe8001a2	-0.25001246
118	0xbe87818d	-0.26466027
119	0xbead0064	-0.3378936
120	0xbe19ba20	-0.15012407
121	0xbe8f5470	-0.27994108
122	0xbd8d1938	-0.06889576
123	0xbd0ca76e	-0.03433936
124	0xbeb34004	-0.35009778
125	0xbe89f7bf	-0.26946828
126	0xbeb28a71	-0.34871247
127	0xbeab37f2	-0.3344112

decoder.0.weight f4 [1, 384]
0	0xbdf012c4	-0.11722329
1	0x3e35e8cd	0.17764588
2	0x3f37cc44	0.7179606
3	0xbf334177	-0.70021766
4	0xbe5d7039	-0.21624841
5	0x3e941681	0.2892342
6	0x3da636d9	0.0811593
7	0x3ddaf955	0.106920876
8	0x3e01d08a	0.12677208
9	0xbf0c48de	-0.54798687
10	0x3e082c3a	0.13298121
11	0x3f8794ef	1.0592326
12	0x3e3dbb9e	0.18528602
13	0x3f0845aa	0.532313
14	0xbe2b1820	-0.16708422
15	0x3f7be9b5	0.98403484
16	0xbf09793d	-0.5370062
17	0x3f3f89ae	0.7481946
18	0xbea4031b	-0.3203362
19	0xbf2136a4	-0.62974
20	0x3e3eb204	0.18622595
21	0xbddcbc42	-0.10778095
22	0xbed965db	-0.42460522
23	0xbeb92e67	-0.36168215
24	0xbe8aad38	-0.2708528
25	0x3f15408d	0.5830162
26	0x3dbea6d4	0.09309164
27	0xbde7475a	-0.11292906
28	0x3f27e2cb	0.65580434
29	0xbf8122fb	-1.00888
30	0xbee64008	-0.44970727
31	0xbda6c649	-0.08143289
32	0x3e3dfaab	0.18552653
33	0xbef7471c	-0.4829644
34	0xbf213e5d	-0.62985784
35	0xbcbdb2f1	-0.023156615
36	0x3e07c916	0.13260302
37	0x3ddf4109	0.10901076
38	0x3de028ca	0.1094528
39	0x3fbb97eb	1.4655737
40	0x3db81bb6	0.089896604
41	0xbf51cf37	-0.8195681
42	0x3c71b731	0.014753149
43	0x3f1bb012	0.60815537
44	0x3da55a75	0.08073894
45	0x3f8da729	1.1066638
46	0x3f13fdb0	0.5780897
47	0x3e0047d6	0.12527403
48	0x3c8e6088	0.017380014
49	0xbf2f2a0e	-0.68423545
50	0x3f5c28dd	0.8599985
51	0x3ee83dab	0.4535955
52	0x3eb678ba	0.35638982
53	0x3ead66c4	0.33867466
54	0x3f8be8bf	1.0930403
55	0x3fa125a9	1.2589618
56	0x3f2d9b21	0.6781483
57	0xbd75b78a	-0.05998949
58	0xbe47277b	-0.19448654
59	0x3e177767	0.14791642
60	0x3ded9880	0.11601353
61	0x3e3aee9f	0.18255089
62	0xbf82c27a	-1.02156
63	0xbdf3383c	-0.1187596
64	0x3e14e3b9	0.14539994
65	0x3fbd7dd7	1.4804028
66	0xbf58ac33	-0.84637755
67	0x3eb86ef1	0.36022142
68	0x3e099a7f	0.13437842
69	0x3f1a73f3	0.60333174
70	0xbedb7326	-0.4286129
71	0x3f3ba408	0.73297167
72	0xbf832699	-1.0246154
73	0x3f09fa9d	0.5389803
74	0x3ed2da84	0.4118234
75	0x3f1c54c8	0.61066866
76	0x3f311f1e	0.69188106
77	0x3d958476	0.073006555
78	0x3d0489cb	0.032357972
79	0xbf79f49c	-0.9763887
80	0x3ea03d56	0.31296796
81	0xbf73e6e8	-0.9527421
82	0x3f6a2b01	0.9147187
83	0x3eaa0fdb	0.33215222
84	0x3ee0fef2	0.43944508
85	0x3cac42b4	0.0210279
86	0x3da8ae6f	0.082363956
87	0xbd6b5a9b	-0.057459455
88	0x3f67c847	0.90539974
89	0x3b4ef19f	0.0031577123
90	0x3e172f7b	0.14764206
91	0xbe85431b	-0.2602776
92	0x3d1ba37c	0.037997708
93	0x3e89c4da	0.26907998
94	0xbee6d18e	-0.45081753
95	0xbe876e57	-0.2645137
96	0x3ed08133	0.4072357
97	0x3db6b38a	0.08920963
98	0x3dd5f006	0.104461715
99	0x3ebbd849	0.3668845
100	0x3edfab4d	0.4368538
101	0x3e258504	0.16164023
102	0x3e3cd1b6	0.18439373
103	0x3e9fae76	0.3118779
104	0xbe3c0caf	-0.18364213
105	0xbf4e3d40	-0.8056221
106	0x3f90e214	1.1318994
107	0x3fd95cce	1.6981447
108	0xbe6dad77	-0.23210703
109	0xbf0d04d7	-0.5508551
110	0xbeb66785	-0.35625854
111	0x3bf2c618	0.0074088685
112	0x3e8671ee	0.26258796
113	0x3d9373cd	0.071998216
114	0x3e34d733	0.17660217
115	0xbeae5996	-0.34052724
116	0x3d945947	0.07243591
117	0x3e2a0c26	0.16606197
118	0x3eac49e0	0.33650112
119	0x3d4b87d1	0.04969007
120	0x3f827ca9	1.0194293
121	0x3e088389	0.13331427
122	0xbf1a853a	-0.6035954
123	0x3cece51b	0.02891784
124	0x3dfa348e	0.12217055
125	0x3ea3e47f	0.32010266
126	0xbcfc3590	-0.03078726
127	0xbe5d270d	-0.21596928
128	0xbf69215f	-0.91066545
129	0x3c3abcad	0.011397523
130	0x3e098b14	0.1343196
131	0x3f17061f	0.58993715
132	0xbf1c5770	-0.6107092
133	0xbcb56d3a	-0.02214681
134	0x3e204b37	0.15653692
135	0xbf0e9e60	-0.5571041
136	0x3f33b690	0.70200443
137	0xbda629ec	-0.08113465
138	0x3dc5dcbb	0.096612416
139	0x3f638b96	0.88884866
140	0x3d9124a7	0.07087069
141	0x3f63abaf	0.88933843
142	0xbf7ca959	-0.98695904
143	0xbd3c9f5d	-0.04605042
144	0xbf38dc2a	-0.72210944
145	0xbe909ab9	-0.28243044
146	0x3ecae873	0.3963047
147	0xbf6aab1a	-0.9166733
148	0x3c268a4d	0.010164809
149	0x3e02ed71	0.12785889
150	0xbcc2105f	-0.023689447
151	0xbf61597f	-0.88027185
152	0xbf1b967d	-0.607765
153	0x3d4ab827	0.049492028
154	0x3eb7a167	0.35865328
155	0xbf075718	-0.5286727
156	0x3fa93ed1	1.3222295
157	0x3ede2b1f	0.43392274
158	0x3b836c25	0.0040106946
159	0xbebc7aaf	-0.3681235
160	0x3dc04512	0.09388174
161	0x3b0d379d	0.002154804
162	0x3f41e3c8	0.7573819
163	0xbf59f08a	-0.8513266
164	0x3f284987	0.65737194
165	0xbeb778a3	-0.35834226
166	0x3f826437	1.0186833
167	0xbe952b53	-0.29134616
168	0x3d97aae0	0.07405639
169	0x3d8da348	0.06915909
170	0x3e17abca	0.14811626
171	0xbd757bce	-0.059932522
172	0x3de4bc9e	0.111687884
173	0x3e0025e5	0.12514456
174	0x3d5149f9	0.051095936
175	0x3f3850b7	0.7199816
176	0xbebf8d2e	-0.374124
177	0x3ea12c5c	0.31479156
178	0xbd446235	-0.04794522
179	0x3da17b32	0.07884826
180	0xbf97998e	-1.1843736
181	0x3ea63d95	0.32468858
182	0x3c195b62	0.009360166
183	0x3d3ee0be	0.04660105
184	0xbf802842	-1.0012286
185	0xbd2f9b78	-0.042872876
186	0xbb95a8cc	-0.0045672413
187	0x3f010fe6	0.50414884
188	0x3f4a6bb1	0.79070574
189	0xbd8f5f78	-0.07000631
190	0xbef6d1f1	-0.48207048
191	0x3f53ff2c	0.82811236
192	0xbf378785	-0.7169116
193	0xbcccc79e	-0.024997529
194	0x3d996d1a	0.074915126
195	0x3f4fdaac	0.8119304
196	0x3f1a279a	0.6021668
197	0x3f5e781b	0.86902016
198	0xbf465fe5	-0.77490073
199	0xbea7c490	-0.32767153
200	0xbe70526c	-0.23468941
201	0x3dca343d	0.09873245
202	0x3cf2971a	0.029613066
203	0x3f5c2224	0.85989594
204	0xbee21a06	-0.4416048
205	0xbd552395	-0.052035887
206	0xbee3dff6	-0.44506806
207	0x3facaff1	1.3491193
208	0x3bfd2d58	0.0077263527
209	0x398e90a9	0.0002719213
210	0x3f873f3d	1.0566174
211	0xbe94fe60	-0.29100323
212	0x3fb966ad	1.4484459
213	0xbec0c5bb	-0.37650856
214	0xbc099663	-0.008397671
215	0xbf54cb59	-0.83122784
216	0x3e41bbad	0.18919249
217	0x3da00a03	0.078144096
218	0x3f271f19	0.65281826
219	0x3d08241e	0.03323757
220	0xbdb6d162	-0.08926655
221	0xbe9f37e1	-0.3109732
222	0x3e8e6556	0.27811688
223	0x3dbfa8b2	0.09358348
224	0x3c0960e5	0.008384918
225	0xbd225361	-0.039630298
226	0x3e1da3b2	0.15394476
227	0xbe85eb47	-0.26156065
228	0xbaf3c0e0	-0.001859691
229	0x3cbd3e02	0.023100857
230	0xbc466401	-0.012108804
231	0xbf509248	-0.8147321
232	0xbf42f3fe	-0.7615355
233	0x3c0d1f89	0.008613476
234	0xbd06cdc6	-0.032911085
235	0xbf5b2310	-0.85600376
236	0xbee1cd8c	-0.44102132
237	0x3fc8005c	1.562511
238	0xbc85b32d	-0.01632079
239	0x3db1a5c8	0.086741984
240	0x3db583cf	0.08863031
241	0x3d191077	0.037369218
242	0x3e0763ef	0.13221715
243	0x3f475d0e	0.77876365
244	0xbf891bc7	-1.0711602
245	0xbf21da89	-0.63224083
246	0xbdfbe616	-0.12299745
247	0xbcb064f8	-0.02153252
248	0x3deaf443	0.114723705
249	0xbf219fbf	-0.6313438
250	0xbf80ed21	-1.0072366
251	0x3e9bfa70	0.30464506
252	0x3e829ce0	0.2551031
253	0x3b4bd7b2	0.0031103906
254	0x3c038694	0.008027691
255	0xbe243db9	-0.1603917
