saved_models/model_11.pkl (torch_old, 281078 bytes, 7 tensors)

convs.0.weight f4 [128, 20, 5]
00000000: f824 c7bb bb42 3cbd 5c56 8dbd 29a4 7f3e
00000010: 1d7f abbe 6d91 b4bb 7221 adbe ed2e 2abe
00000020: 5f93 68be 5e72 203d d487 59be c2bf 833d
00000030: 36c2 c23d ddd4 f13d 3807 8f3d 594d 9fbe
00000040: ec0f 95bc 5928 c7bd dee1 643d 5e76 35be
00000050: 41c0 d13c ed72 10be 8d5b 35be d245 e1be
00000060: 6124 dbbe d46c d93d a0bf b7bd b576 89be
00000070: 8702 44be c1f4 70b9 b669 153e 2d6d 4abd
00000080: ff14 44be a353 1ebe 3fd6 00be 92af 0dbe
00000090: 19e9 10bf d8f7 14bd e63e 033e 647d 0dbf
000000a0: f3d4 51be 3bfa 853e 8148 a9be 8c56 f53d
000000b0: 15b3 fcbe 3607 763e 986a 103e 5b65 57be
000000c0: c34a bcbe 3352 38bd b9de 7a3e 2d7b 023d
000000d0: d9a7 4bbe 9394 4a3d 7a68 1abe 1ca5 84bd
000000e0: 3158 c6be ec95 acbd 17b4 06bd 7081 fd3d
000000f0: 445c 363e 6872 bbbd cf40 4fbd bcb2 93be
00000100: 528c 51be 7e5d 353e 626b 78be 6109 c3be
00000110: b6e0 a1be fd30 2abe dd6b e73e 4a16 073e
00000120: 56f0 0fbf 1b83 343d 373c 53bd 6ad1 99be
00000130: 76d2 d73c afec cabc 18ff 1f3e 0524 b73c
00000140: 14ed 263d cd9e e63c 6440 593e c61e 24be
00000150: 6153 5b3e df28 cb3b f737 e8be f0fc 813e
00000160: 4e78 ddbe 91e5 edbe 3057 593c 4566 023e
00000170: 6515 87be 199e 75be 1a35 cebe 006c 1a3e
00000180: 95f9 c8bc fcf7 5e3c 2b9f 523e 1b6a a1bc
00000190: 4c5e 3dbe ab66 afbd 2c2f d33d de5d 19be
000001a0: 0d5e 353d 9c93 11bf def3 513c 04b8 fa3c
000001b0: c73f 01bf 0fab 133c b68b 92bd e8b3 09bd
000001c0: 7f67 adbe 99ac 16bd 8419 12bf 46ca 00bf
000001d0: a990 a9bc 67b4 b43c 4901 893e fb9d 70be
000001e0: 3522 02bf 3054 a13e 7bb7 08be a6d3 f13e
000001f0: 25e6 b83e 9266 a9be 97d2 0d3e 6fbc 52bd
00000200: 0c17 a1bd 9738 153c a3db 973e 8e77 c9bd
00000210: e8c2 02bd 6e4b 313e cfdc 3bbe 90ff 953d
00000220: 5e4f acbe a1d3 1d3d 8a39 d6bd b9b0 59be
00000230: 4047 b7be 166f 85be bba3 e23e b611 843e
00000240: 5512 b03d a179 afbc 7ded cfbd 8a28 153e
00000250: 0060 473d f817 a23c 9488 febd 9178 74bd
00000260: 480e cabd 7adf 67be 61da 293d 24bc 3abe
00000270: 34b8 1d3e 8527 14bc e3d7 59be 1aa2 9e3e
00000280: 6468 2cbe fc71 e63d 0961 8fbc 0f84 3b3e
00000290: a93f 213d 9838 f4be a179 a1be bf22 afbe
000002a0: 9bd7 b9bc 0d87 42bd da20 883e 2e31 71bd
000002b0: 89ed 8f3e 8c4a 263e 3b61 efbb b137 ccbe
000002c0: 0128 7ebe 8fdc 1d3d fda8 3abe 24d6 bbbe
000002d0: 5b00 a7be 106f 4bbe 75bc 423d 5211 05bb
000002e0: 6857 10bf 3e4e 8a3e f643 e1be 3ede 103e
000002f0: d084 cdbd ba57 90bd 1867 23be 7666 023e
00000300: 8b5d 94be 9d58 803d 205f b33d cded 123e
00000310: a2af 0abe 54ca d23c 4c73 633e 75fb ed3d
00000320: dd15 5bbd c3e2 0a3d 6c07 45be 7e2b d73d
00000330: 9a4a 793d 2d5f f13d 6ee4 9ebd c69a 5bbe
00000340: f471 99bc f6f3 8fbe a419 6ebe bb47 64be
00000350: 7464 c2bd ba1e 8f3d 1d46 87bd 2e86 46be
00000360: c96f 3ebe 08b4 84be 4244 95bd 1834 fdbd
00000370: 8721 6a3c 787e edbd e9e5 ac3e 0ce7 e6bc
00000380: 535d bdbc 0d80 83bd 6e90 1a3b aa45 be3b
00000390: b82f 333d fe0e 41be 0b70 44be 7413 f4bd
000003a0: ad0a fb3a 45c1 cebd 5cbb 47be 5717 1abe
000003b0: ab3c 9cbe 1cbb a2bd 361e 203e 39b1 4fbe
000003c0: 3ba3 1a3b f272 5b3d 9f04 9d3d 762f be3d
000003d0: e0f3 dbbd e374 b33d 9183 1ebc 72cf 49be
000003e0: b3c6 463d 1714 82bd f880 e6bc c541 9c3d
000003f0: 77d2 86be 9dc1 bfbd feba 63be a601 273d
-0.006077405 -0.045962077 -0.06901237 0.24964966 -0.33495417 -0.0055105 -0.3381458 -0.16619463
-0.22712468 0.03917157 -0.2124322 0.06433059 0.09509699 0.118081786 0.06983799 -0.311137
-0.018196069 -0.097244926 0.055879466 -0.17720935 0.02560437 -0.1410634 -0.17710705 -0.4399858
-0.42801192 0.106164604 -0.089720964 -0.2684838 -0.19141589 -0.00022979362 0.14591107 -0.049420524
-0.19148634 -0.15461592 -0.12581728 -0.13836506 -0.5660568 -0.036369175 0.12816963 -0.55269456
-0.2049139 0.26167473 -0.3306313 0.11979398 -0.4935538 0.24026188 0.14103162 -0.21034758
-0.3677579 -0.045000266 0.24499024 0.03185575 -0.19888248 0.049458098 -0.15078917 -0.064768046
-0.3873916 -0.08427033 -0.03288659 0.12378204 0.17808634 -0.09152681 -0.050598916 -0.288473
-0.20463684 0.17711446 -0.24259713 -0.38093093 -0.31616753 -0.1662025 0.4519948 0.13192096
-0.562261 0.044070344 -0.051571097 -0.30042583 0.026345473 -0.024771063 0.15624654 0.022356043
0.04075344 0.028151894 0.2121597 -0.16027364 0.21418525 0.0061999406 -0.45355198 0.25388288
-0.43255848 -0.46464208 0.013265416 0.12734325 -0.2638351 -0.2398609 -0.40274888 0.15080261
-0.024533072 0.013608929 0.2056853 -0.019703915 -0.18493003 -0.08564504 0.10311732 -0.14977214
0.044279147 -0.5686586 0.01281449 0.030605324 -0.5048794 0.0090129515 -0.07155554 -0.033618838
-0.33868024 -0.036785696 -0.57070184 -0.50308645 -0.020698862 0.022058679 0.26758793 -0.23497765
-0.50833446 0.31509542 -0.13351242 0.47231787 0.36113086 -0.33086067 0.13849865 -0.051449236
-0.07865724 0.00910773 0.29659757 -0.09837256 -0.03192416 0.1731393 -0.1834595 0.07324135
-0.33654302 0.038531903 -0.104601935 -0.2125882 -0.35796547 -0.26061314 0.4426554 0.25794762
0.085972466 -0.021420302 -0.10152719 0.14566246 0.048675537 0.01978682 -0.12428394 -0.059685294
-0.09866005 -0.22643843 0.041468028 -0.18235832 0.15402299 -0.009042625 -0.2127376 0.3098305
-0.16836697 0.112522095 -0.017502325 0.18312095 0.03936735 -0.47699428 -0.31538108 -0.34206197
-0.022685817 -0.047492076 0.26587564 -0.058884792 0.28110912 0.16239375 -0.007305292 -0.3988624
-0.24819948 0.03854042 -0.18228526 -0.36686814 -0.3261746 -0.19866586 0.047543008 -0.0020304513
-0.5638337 0.2701282 -0.43997163 0.14147279 -0.100350976 -0.070479825 -0.15957296 0.12734398
-0.28977618 0.06266902 0.08758378 0.14348526 -0.13543561 0.025731243 0.22211951 0.11620227
-0.053487647 0.033907663 -0.19241112 0.10506342 0.06086216 0.117857315 -0.07758413 -0.2144576
-0.018731095 -0.28115815 -0.23251969 -0.22292988 -0.09491816 0.069882825 -0.0660517 -0.19387123
-0.1859733 -0.25918603 -0.0728841 -0.12363452 0.01429022 -0.115963876 0.33769158 -0.028186344
-0.02311579 -0.06420908 0.0023584622 0.0058066444 0.04374668 -0.18853375 -0.19183366 -0.11917773
0.0019152962 -0.10095457 -0.19505066 -0.15047966 -0.30515036 -0.079458445 0.15636525 -0.20282449
0.0023595828 0.053576417 0.07666897 0.09286396 -0.10739875 0.08762529 -0.009674923 -0.1970804
0.048529338 -0.06351488 -0.028137669 0.07629732 -0.26332447 -0.09363101 -0.222393 0.040773056

convs.0.bias f4 [128]
00000000: 6552 86ba 34a3 81bd e8c4 12be d399 73be
00000010: f7e5 cfb9 dc56 bcbd d070 8fbe 93eb 79be
00000020: 1c67 43be ffaa 03be 371a 21be e051 9bbe
00000030: bf36 7fbe 2c3b c8bd 20e5 3fbe 2981 c6bc
00000040: 46ce 16be d464 83be fd3b 6bbe 28cc 23bd
00000050: 69c4 c3bd d1e3 1abd 52e0 5ebd d69f 81be
00000060: abfe 3bbc 66b4 65be 4d37 3ebe 650e c9bd
00000070: c61b 2abe bdfc 44bd e459 14be 17e0 25ba
00000080: 73c9 82be f0d8 b3bd 2b17 8dbc 54e8 89be
00000090: f97e 17be 97eb 8dbe a04c 67be dca5 82be
000000a0: bdd8 a7be 50b3 d0be 06c9 43be 503e 52be
000000b0: 1db8 80be 9551 78be 49df ebb9 f45e b9bd
000000c0: 5aa2 7dbe 4c1a 97bc 5731 f3bd 6e2c 8abe
000000d0: ef24 60be 8d9f 08be 96df 2bbe c7f0 4ebe
000000e0: 6bac 1dbe 7a9b 82be 5da3 5dbe 9870 46be
000000f0: 89bf 9bbe c3a1 5ebd eb9d 42bd dd4b 80bd
00000100: f9ae 13be 2c6d bdbe 056e 87be 0c35 eebd
00000110: cc6e 91be fc76 2abe 9959 46be 599f aebc
00000120: b982 2bbe 7360 24be 43d0 12be b146 74be
00000130: 2a9c 79be 3aa4 2ebe f56f 5bba 130b 1bbe
00000140: ecfa 92bd 534b 4abe 9013 cebd 92e6 53be
00000150: 85ee 99b9 3662 c5bd 4b70 f3bd e98c 17be
00000160: 5070 62be 6cd4 4abe 03f0 5bbb a032 cabd
00000170: 312c d1be a950 16be 1c54 82be 684f 4bbe
00000180: 1baf d9bd 505e bfbe bd2c adbe 2cab a7be
00000190: 2f5c 93be 641a 22be f309 93be c72c 3bbe
000001a0: ef18 6abe cd3e 1cbe bc5a cabd a68d 71be
000001b0: f92e c1bd 10bf 03be 07dc 46be f830 7abe
000001c0: f81d aabc 39f1 44be 8db3 9dbd 6bec 74be
000001d0: faef 62be 7405 f6bc c026 02be 26ce 74be
000001e0: d102 dbbd 4cc5 83bd 8ba3 b2be 5af2 56be
000001f0: b0ac 02be f935 9ebd b0c1 acbe cd66 93be
-0.0010247944 -0.06329957 -0.14332926 -0.23789148 -0.00039653454 -0.091962546 -0.28015757 -0.2440627
-0.19082302 -0.12858199 -0.15732656 -0.30335903 -0.24923228 -0.09776911 -0.18739748 -0.02423151
-0.14727125 -0.25662863 -0.22972102 -0.03998962 -0.09558947 -0.03781492 -0.054413147 -0.25317258
-0.011474292 -0.22432098 -0.18575783 -0.09817199 -0.16612157 -0.048092593 -0.14487416 -0.00063276425
-0.2554432 -0.08781612 -0.017222961 -0.26935065 -0.1479453 -0.27718803 -0.22587824 -0.25517166
-0.32782546 -0.40761805 -0.19119653 -0.20531583 -0.25140467 -0.24249871 -0.00044989053 -0.09051314
-0.24768963 -0.018445157 -0.11874645 -0.26987022 -0.21889089 -0.13342114 -0.1678451 -0.20209037
-0.15397803 -0.25509244 -0.2164435 -0.19378889 -0.30419567 -0.054353487 -0.047513884 -0.0626447
-0.14422216 -0.36997354 -0.26451126 -0.11631212 -0.28404844 -0.16646951 -0.19370116 -0.021316217
-0.16749085 -0.16052417 -0.14337258 -0.23855092 -0.24375978 -0.17054835 -0.000837087 -0.15140943
-0.07176766 -0.19755296 -0.10062325 -0.20693424 -0.00029360145 -0.09637873 -0.118866526 -0.14799847
-0.22113156 -0.19807595 -0.0033559806 -0.09872937 -0.40854028 -0.14679207 -0.25454795 -0.1985451
-0.10629102 -0.37376642 -0.33823195 -0.3274778 -0.28781268 -0.1583038 -0.28718528 -0.182788
-0.22861074 -0.15258332 -0.098805875 -0.23589191 -0.094327874 -0.12865853 -0.19419871 -0.24432743
-0.020766243 -0.19232644 -0.07700262 -0.23918311 -0.22161856 -0.030031897 -0.12710094 -0.23906764
-0.106938966 -0.06434116 -0.34890398 -0.20990887 -0.12761188 -0.07725138 -0.33741522 -0.28789368

convs.1.weight f4 [128, 20, 9]
00000000: d54d bb3c 21f2 7bbd 251f 43bc c51e d3bc
00000010: 4999 503d f238 5b3d c08a 283c e69f 20be
00000020: 5f60 843c 9acf f3bc a2dd f43d 8a8d dd3d
00000030: 4899 603d ef5c 263d a30e 14bc 2be4 c5bd
00000040: 02c9 04be a1f8 833e bef3 6abe 95a7 b53d
00000050: b5d3 e5bd 6304 0bbd 1e8a 07be ff6f 02be
00000060: 19d7 dbbd 5518 20be 6134 873d 61ec 2dbe
00000070: d98c 1c3e 4870 6b3d 39f2 243d 67df d7bd
00000080: 7a58 0cbe da4f 2ebe 5a10 4fbe 40be 25be
00000090: 2933 1c3d 40d3 fbbd 1cf6 fb3d 4342 513e
000000a0: bd92 0bbe c3a3 12be f835 d8bd 5224 5f3e
000000b0: 6848 523e 6577 263d 4392 b6bc 3df4 f53b
000000c0: c2b1 cd3d 8c0f 31bd 035a f1bd 5c51 26be
000000d0: cd3d 16be ea5b 1d3e fc7c 67bc 7051 393e
000000e0: f42d 523d 5246 b23d b152 11be 800a a6bd
000000f0: 8fe4 78be 0dbc a7be 7403 d1bc 160a 08be
00000100: 1cbb 4abd c9a7 5dbd a6cc 293e 2365 08bd
00000110: 085a 003c bf4d 5cbd d51a b3bd 3ac6 c9bc
00000120: 2256 31bd bf73 983d f479 3ebe 724b a63d
00000130: c3da 5b3e f15d 1abe dd5f 57be 7c2b aabe
00000140: aca5 ee3d 119c 0bbe 0a4b ea3d cd12 2ebd
00000150: ce73 54bd 310f c63b 9ed2 0f3d e358 753d
00000160: e7f7 67bd 702f 88bd be4e 34bd 7166 003d
00000170: f665 72bd 0221 83bd 46eb 9bbd ba35 5dbe
00000180: 35a9 1fbe ee62 4638 eab3 f43d 00d1 b0bd
00000190: 057a 723c 9724 96bd 26fa 613d c1dc 063b
000001a0: ec98 d2bc 3031 19be 7567 98be edfd bc3a
000001b0: d555 17be f432 1f3d 2f33 24be a63e 2cbe
000001c0: 98bf f5bc 16a1 18bd 12c9 12bc 9f4a d1bd
000001d0: f13a e2bd db1c 093d 9fff a0ba ebef ebbd
000001e0: 0a1e 4bbd 2657 c9bd 8438 d9bd 4a79 143d
000001f0: 95c0 be3d 2a27 2f3e 3709 cabd 4b6b 9c3d
00000200: 7bbb 3b3d 1ad9 c43d aabf d4bb 6e4f aa3d
00000210: 47af 053c 8f16 02be 283f 1e3e 5cba 48be
00000220: 12db c5bd c91d 84bd 85d4 553d 520e 2e3d
00000230: 6f5c 353d e4ce a7bd e635 45be bc06 363e
00000240: 14b3 33be 1a87 26be 2428 7a3d 50d8 58bd
00000250: b13b 1bbe 1201 babd d002 9c3d 5dac 29be
00000260: 9ab8 bf3c a813 bd3d 3976 a3be 0555 85bd
00000270: 8b99 f33d c62e 93bd 0e57 69be 20fe 203e
00000280: 87d5 9abd 2546 cc3d 50b9 9e3d edba ad3d
00000290: a361 b1bb 5b94 46bd 8612 20bd 51c1 1dbe
000002a0: e21a d9bd ebb1 a4bd d29a ce3b 63ed 0abe
000002b0: 6427 943c a860 ccbd 3773 2abe 7ad1 663c
000002c0: c0a5 473b 5db7 063e 8955 b3bd f916 1cbd
000002d0: e011 50bc ec78 22bc 86f9 aebd e922 4e3c
000002e0: e84b 0dbd 7697 0fbd 7323 8ebd 7f2e 63bd
000002f0: 339a 20bd 08a1 6fbd 559c 9ebc 9fbe 71bd
00000300: bbcf 7e3a 6fef 1dbd 6fd4 d7bb b7ec 54bd
00000310: 18c5 c13c c892 34bd 997c 013d 52cd 933d
00000320: 8f27 1ebc 9bb9 bf3c 6744 09bc 10b5 bbbd
00000330: c57a 0fbd 5078 80bd 90e4 e6bc b926 89bd
00000340: a5a4 8bbd 887d 9fbd c782 75bd 5294 8339
00000350: 385a bdbc 7a57 0fbd 33d5 12be 5046 b9bd
00000360: 4b3d 05bc 2eb1 43bc e089 c8bd 3e6f 38bd
00000370: 22d1 763d 944a 3c3c edc9 48bd e6c6 0abd
00000380: ac93 89bd a81c 7ebd 4d31 f7bc e9c5 2abd
00000390: 6b5a 02bb 192c 14bd d463 08bd e24c a43c
000003a0: aa6f b9bc 65ae 57bd 2d3c ff3c f71d 84bd
000003b0: b21d cbbd 3dff 1abd 395c 8ebd ca4a 423c
000003c0: 1b85 4bbd 3908 64bd 27e2 75bb 20cb 9fbd
000003d0: eae3 43bd 4bc1 01be d71f 3c3c 75d7 1f3c
000003e0: efde 143d 44a2 c7bb b86c 22bd 05d0 9bbc
000003f0: 58d1 503d c948 4c3d 9f9d 84bd 35e6 77bd
0.022864262 -0.06151021 -0.011909281 -0.025771508 0.050927434 0.053521104 0.010286987 -0.15685996
0.016159235 -0.029762078 0.119563356 0.10818012 0.05483368 0.040615972 -0.009036693 -0.0966266
-0.12967303 0.25775626 -0.22944543 0.08869854 -0.112220205 -0.03393973 -0.13236281 -0.12738036
-0.10734386 -0.15634282 0.06601787 -0.16984703 0.15288104 0.057480127 0.040270064 -0.105406575
-0.13705626 -0.17022648 -0.20221081 -0.16185856 0.038134728 -0.12296152 0.12302801 0.20435433
-0.13630195 -0.14320283 -0.10557169 0.21791199 0.20535433 0.040641207 -0.02228654 0.007505922
0.1004367 -0.043227717 -0.117847465 -0.16241974 -0.14672013 0.15367094 -0.01412892 0.18097472
0.051313356 0.08704819 -0.141917 -0.081074715 -0.24305938 -0.3276066 -0.025514342 -0.13285097
-0.049494848 -0.05411509 0.16581973 -0.033299576 0.007833965 -0.053785082 -0.08745352 -0.024630655
-0.043295033 0.07443952 -0.18601209 0.08119859 0.2147017 -0.15074898 -0.21032663 -0.332363
0.11652693 -0.13633753 0.11440094 -0.0424984 -0.051868252 0.0060442914 0.03511297 0.059899222
-0.056632902 -0.06649673 -0.044020407 0.031347696 -0.05917927 -0.0640278 -0.07613234 -0.21602526
-0.15591891 4.7299014e-05 0.119483784 -0.086336136 0.0147996 -0.07331198 0.0551702 0.0020578357
-0.025707684 -0.1496017 -0.2976643 0.0014418937 -0.14778836 0.038866952 -0.1603515 -0.16820773
-0.029998586 -0.037263 -0.008959072 -0.10219311 -0.110463984 0.033474784 -0.0012283212 -0.1152037
-0.049589194 -0.09831075 -0.106064826 0.036248483 0.09314076 0.17104784 -0.09865039 0.07637652
0.045833092 0.09611721 -0.0064925747 0.08315931 0.008159465 -0.12703918 0.1545378 -0.1960234
-0.09660925 -0.064509936 0.052204628 0.042494126 0.044277605 -0.08193758 -0.19258842 0.17776006
-0.17548782 -0.16262475 0.061073437 -0.052940667 -0.15159489 -0.090822354 0.07617724 -0.16569658
0.023403455 0.09232265 -0.31926134 -0.06510357 0.1189452 -0.07186656 -0.22787115 0.15721941
-0.07560258 0.099743165 0.07750189 0.08482919 -0.0054132505 -0.048481327 -0.039080165 -0.15405776
-0.106008306 -0.08041748 0.006305077 -0.13567118 0.01808519 -0.09979373 -0.16645513 0.014088029
0.0030463785 0.13155885 -0.08756549 -0.038107846 -0.012699574 -0.009916525 -0.085436866 0.012581565
-0.034496218 -0.035056554 -0.06940355 -0.055464264 -0.039209556 -0.05850318 -0.019361654 -0.05901968
0.00097202853 -0.03855842 -0.0065866034 -0.05198356 0.023653552 -0.044085294 0.031612966 0.07216896
-0.009652986 0.023403933 -0.008378125 -0.09165394 -0.03502919 -0.06272948 -0.028185159 -0.06696839
-0.06818513 -0.07787615 -0.059939172 0.00025096774 -0.023114309 -0.034995534 -0.14339142 -0.09046614
-0.008132289 -0.011944098 -0.097919226 -0.045027964 0.06025804 0.01149239 -0.049020696 -0.03388109
-0.06717619 -0.062039047 -0.030174876 -0.041692648 -0.001989032 -0.036174867 -0.03329833 0.020056192
-0.022636253 -0.05265655 0.031156624 -0.06451028 -0.09917773 -0.03784107 -0.06951184 0.011858651
-0.049687486 -0.055671904 -0.003751883 -0.07802415 -0.047824778 -0.12671392 0.011482201 0.009755959
0.03634542 -0.0060923416 -0.039654464 -0.01902009 0.050980896 0.0498741 -0.06475376 -0.060522277

convs.1.bias f4 [128]
00000000: 93ca 3bbb 1e69 cbbe bdac ccbd 8ab9 b2bc
00000010: 4382 7abe 0b2f a1be 84e3 d2bd 99f1 0abe
00000020: a039 3bbe 8e70 c1be c1b2 7fbe 348d bebb
00000030: 00f5 c2be e7ae c4be a74c 7dbe ae9e 30be
00000040: 6dec ceba 0ffa 4cbe 661d 2abe 9d10 8bbe
00000050: 0e4e 1fbe cee7 58bd 6187 a5be 95bc b5be
00000060: 644e 85be cda3 63be 0f53 8eba eb72 3abe
00000070: 9203 83be 3aa6 47be d038 61be 4562 00be
00000080: 4d1c 1bbe 96ea bbba 2a04 3cbe 423b 84bd
00000090: e4d5 78bd a2fd 86be 13b7 45be d8b7 05bd
000000a0: 68b4 36bd 718e bebe f457 13be 7077 22be
000000b0: 37bd 70be 8185 85be b6c0 29be b5fd 08be
000000c0: 866c f1bc b572 46be 72f8 0fbe 2b2a ebbd
000000d0: 44f5 d0bb ed62 15bd 3392 7ebe ef0e 52be
000000e0: 701e 21be d795 71be acc8 cabe 2c3c 9abc
000000f0: cf45 36be df17 7cbe fedd 233d 0ae5 d1bd
00000100: 2175 7bbd edf3 95be c2a3 31bd 42ce 0fbe
00000110: 2ca1 a8be 5a78 a6bd 218f 0fbe b89b 90bc
00000120: a2ab 16bd f256 a0be 0f01 c0be 120d edbd
00000130: ff4e cabd 6ada 65be ee78 26bd 32d6 2fbc
00000140: 84f4 6abe 8a57 60be 5d51 6ebd 677d 9fbe
00000150: 0d49 99be 71d3 12bd 9125 34be b4b7 8dbe
00000160: 04e4 45be f27c 56be 3385 0ebe 40bc 6cbe
00000170: 9c5d 4cbe 52c7 78be 96ab 04be e693 a9be
00000180: 8f39 9dbe 9959 dfbe 7334 34be 7513 e4bd
00000190: 0505 babe d586 91be 85f8 bfbe ac33 f6bd
000001a0: 7812 d1bd 55cb 3dbe 95da 97be 3e03 68be
000001b0: 9ddd 7dbe 501f 7bba 4a9b 99be 6c8f 3dbe
000001c0: 5ccd bbbe dbf7 0ebe f188 5abe 0b23 d6bc
000001d0: 6604 27be 5bd9 ccbd 973c 6cbe 6b1f 9bbe
000001e0: 983e dcbd ec76 93bd c168 a0be 434c 47be
000001f0: a3f2 0bbd 8441 92be 346d 27be 7d3c 7bbd
-0.002865468 -0.39728636 -0.09993885 -0.021816988 -0.24463753 -0.31481203 -0.102973014 -0.13568725
-0.18283701 -0.37781185 -0.24970533 -0.0058151726 -0.38077545 -0.3841469 -0.24736272 -0.17248031
-0.0015787013 -0.20017265 -0.16612777 -0.27161112 -0.15557119 -0.05295544 -0.32329848 -0.3549544
-0.2603637 -0.22230454 -0.0010858494 -0.182079 -0.2558866 -0.19497004 -0.21994328 -0.12537487
-0.15147515 -0.001433688 -0.18360963 -0.06456615 -0.060750857 -0.2636538 -0.19308119 -0.03264603
-0.044605643 -0.3721805 -0.1438902 -0.15865874 -0.2350968 -0.26078418 -0.1657742 -0.13378032
-0.029470693 -0.19379695 -0.14059618 -0.11482652 -0.006376894 -0.036471296 -0.24860458 -0.20513509
-0.15734267 -0.23592316 -0.39606225 -0.01882752 -0.17800067 -0.24618481 0.04000663 -0.10248764
-0.061391 -0.29287663 -0.043369062 -0.14043525 -0.32935464 -0.08128424 -0.14019443 -0.017652377
-0.036784776 -0.31316334 -0.37500808 -0.115747586 -0.098783486 -0.224466 -0.04064267 -0.0107322205
-0.22944838 -0.21908394 -0.058183063 -0.31150362 -0.29938546 -0.035846177 -0.17592455 -0.27679217
-0.19325262 -0.209461 -0.13917999 -0.23118687 -0.19957584 -0.24294785 -0.1295608 -0.3312065
-0.30707976 -0.43623045 -0.17598133 -0.11136524 -0.36331955 -0.2842318 -0.37494293 -0.120215744
-0.10208601 -0.18534596 -0.29658952 -0.22657487 -0.2479157 -0.0009579556 -0.3000129 -0.18511742
-0.36680114 -0.13961737 -0.21341302 -0.026139757 -0.16310272 -0.10002395 -0.23069988 -0.30297408
-0.10754126 -0.07200417 -0.3132992 -0.19462685 -0.034166943 -0.2856561 -0.16350251 -0.061336983

convs.2.weight f4 [128, 20, 13]
00000000: e438 3dbc c867 c4bd 9b6d 7bbc 5f42 3cbe
00000010: 7941 813c da08 4abc 0078 94bd 8cc3 f8bd
00000020: 08e4 d33d 9c06 27bd 141a 723e 20f4 ae3c
00000030: 7ee9 b2bd 84e6 75bc b832 16be d87c b83d
00000040: c0ef 1ebe d30a 093e 214c cfbc 8c31 11be
00000050: 8dc7 aebd 9437 38bd 571b 543c 323d 32be
00000060: f384 c13d cd52 a2bd b49a 4bbd 8493 67bd
00000070: 3a99 5f3d 5a82 113e 06e4 d83c 68c6 133c
00000080: ecaf ac3b 5a7b af3d 3401 e5bd a138 3bbb
00000090: e689 99bd 1627 ccbd 01a5 023d bef9 113e
000000a0: fb93 1bbe 5342 ebbc c4ab fe3d e4c4 16be
000000b0: bbab 0cbd cf90 e63d c11c 6a3e 8ff5 133d
000000c0: 9b63 a43b f2b9 0bbe ef0f 51be 1dfe 663c
000000d0: bdb1 34be 6cbb e1bd 2d80 ef3d 8eab d53c
000000e0: c2ba f63d c3c0 9fbd bcf2 bf3d adcf 2ebe
000000f0: bb46 85be a415 54bd a401 aebd 0371 5fbe
00000100: d4bf 2d3e 6741 37bd 50c0 debd 5828 e33b
00000110: b9fa f0bc 8f34 19bc 697f 4dbc 89df 58be
00000120: 711d 12be 79be c0bc e136 733d 6dd6 0d3d
00000130: 4707 f43d 4979 593d c027 24be 9a6d 97bd
00000140: 3af2 3abd 9f7d b43d c266 f73d ff63 c6bd
00000150: df62 5b3b 3796 b63d 0836 9ebd 79c5 1ebd
00000160: ce40 bd3c def1 903d c080 7a3c 8d9e 3a3e
00000170: 7f63 1bbe 78b2 343e e9a2 dcbd de6c 15bd
00000180: a424 303e f48f d0bd 6288 ddbd a4c8 1d3c
00000190: ddd0 e0bd 0489 9b3d e345 8fbe f3b7 153d
000001a0: 0748 0cbe 8f9c b13c 8434 e23c be01 3bbe
000001b0: 06f2 ecbd 30c7 3bbd 2ebb 92be 6375 863d
000001c0: 1ac5 3dbe c0c1 31be 6a9a 003e e82a dcbc
000001d0: 0a29 37bc 3329 093c 6a84 283e b720 3bbe
000001e0: fdc6 c43d 0f71 60be f5fc 99be 3cf6 bb3d
000001f0: 2efc 92be bfcb a43c fc42 66bc dfe6 8fbc
00000200: c80f 813d 0ff4 5cbd b4e1 14be 9245 ba3d
00000210: 112d 8dbd cd2c 9fbc e97b bebd a8e7 b0be
00000220: a892 aa3d 49df bfbd 6b45 aebd a5be a03d
00000230: 4c1b b53c 8526 a23d fedc c3bd 2721 e0bd
00000240: f210 10be 376d b93d 861c a2bd 68db d83d
00000250: 3405 083d 96bd b4bd c076 e1bd 6cf3 b63d
00000260: 464e a0bc e04d 4cbd a7bd 323d a3d6 1c3d
00000270: 81d1 cbbd 9a08 813d c23b 04be d7ea c4bc
00000280: a1f4 a8bd 176b 4cbd 6d58 603d 838f 10bd
00000290: 4dc4 89bd 72a6 1d3e fb92 61bd 9cbe 793d
000002a0: aaa0 8dbd f79a 13be ffd1 d83c f096 a93c
000002b0: abb2 3dbd 9e84 253c 2170 01bd b81c bbbd
000002c0: f2f3 a3bd 53b0 473e 94d7 14bd a8a1 d5bd
000002d0: 8063 babb f47f 39be 1d9b f0bc f145 3bbe
000002e0: 74a7 0dbe 44fc 603d 982d 603c 38a9 09be
000002f0: ebb6 cdbc ad0e 2a3e 5f1c 00be 22a0 73be
00000300: d772 25be 690f a6bd c405 9e3b e2d9 ecbb
00000310: 3c79 cfbd 302f 12bd 3e7f 0fbe 0928 b03b
00000320: 3bbe 5dbd fc3e 46be 0c13 203d 6f44 0c3c
00000330: 0e18 a5bd 56e1 063e ccf8 d23c 5707 c83a
00000340: 9b02 81bd bafc 9bbd 209c 8b3d 2133 5bbe
00000350: 1536 1b3d 7024 32be 70b3 ebbd c47a 8c3d
00000360: 6b08 f43d 0016 c83c da21 7b3d 6455 30bd
00000370: 42fe 5fbc 469c a8be 8e6d 9bbe fd58 613e
00000380: 617f f4bd b8f0 1b3e e172 5dbe fc43 4abd
00000390: a1d1 16be e917 e73c edcc 77bd 507a b839
000003a0: eb0a aabe d71e 15be 39f6 b1be cd07 68be
000003b0: 7748 333e 2466 09be 9742 353d 18cf f2bd
000003c0: 187f 843a 5fb9 8ebd 8b55 143e 6a0c 4fbe
000003d0: 0ec0 093e 617b d0bd e6f5 28be 0149 87bd
000003e0: f21b f23d eb93 20bd fdee 083d 9a4b 6a3d
000003f0: 7689 a6be 2644 aa3d 6ee2 85be 0bde aebd
-0.011549208 -0.09590107 -0.015345956 -0.18384694 0.01577829 -0.012331212 -0.07249451 -0.121466726
0.10346228 -0.040777788 0.2364276 0.021356642 -0.08735941 -0.0150085725 -0.14667785 0.09008187
-0.15521145 0.13383035 -0.025304856 -0.14179057 -0.08534155 -0.04497488 0.012945971 -0.17406157
0.09449186 -0.07925949 -0.049708083 -0.056537166 0.054589488 0.14209881 0.026475918 0.009019472
0.005269995 0.08568449 -0.1118187 -0.002856769 -0.07497005 -0.099683926 0.03189564 0.14255425
-0.15193169 -0.02871815 0.124351054 -0.14723545 -0.034343462 0.11258089 0.22862531 0.036122855
0.0050167567 -0.13645151 -0.20416234 0.014098671 -0.17645927 -0.11022076 0.116943695 0.02608278
0.1204734 -0.07800438 0.0937247 -0.1707141 -0.26030526 -0.05177845 -0.08496407 -0.21820454
0.16967708 -0.044740107 -0.108765244 0.0069322996 -0.029416429 -0.00935091 -0.012542584 -0.21179022
-0.14269044 -0.023528324 0.05937851 0.03462832 0.119154505 0.053094182 -0.16030788 -0.07393952
-0.04564116 0.08813023 0.12080146 -0.096870415 0.003347568 0.0891537 -0.077251494 -0.038762543
0.02310219 0.070773825 0.015289485 0.18224545 -0.15174673 0.17646205 -0.1077326 -0.036480777
0.17201477 -0.10183707 -0.108170286 0.009630356 -0.109773375 0.07594493 -0.27983007 0.03655238
-0.13699351 0.021681098 0.027612932 -0.18262383 -0.115696 -0.045844257 -0.28658432 0.065653585
-0.1853222 -0.17359066 0.12558904 -0.026875928 -0.011179218 0.008371639 0.16456762 -0.18274198
0.096082665 -0.21918128 -0.30075803 0.09177825 -0.28708023 0.020116685 -0.014054056 -0.017566143
0.06301838 -0.05394369 -0.14539224 0.09095301 -0.06893361 -0.019430542 -0.09300978 -0.3455174
0.08328754 -0.0936876 -0.08509334 0.078488626 0.022107743 0.07917503 -0.09563635 -0.10943823
-0.14068964 0.09054034 -0.07915597 0.105887234 0.033208087 -0.08825223 -0.11008978 0.08933148
-0.019568574 -0.049878955 0.043637898 0.03829063 -0.09952069 0.06300469 -0.12913421 -0.024037762
-0.08249784 -0.049906816 0.05477183 -0.035293113 -0.067268945 0.15395525 -0.055071812 0.060972795
-0.0691541 -0.14414583 0.026467321 0.020701855 -0.04631297 0.010102419 -0.031601075 -0.09136337
-0.08005513 0.19500856 -0.036338404 -0.10431224 -0.005688131 -0.18115216 -0.029370839 -0.182884
-0.1383341 0.05492808 0.013682745 -0.13443458 -0.025111636 0.16607161 -0.12510823 -0.23791555
-0.16157089 -0.08108408 0.0048224647 -0.007228122 -0.101305455 -0.035689533 -0.14013383 0.0053758663
-0.054136496 -0.19359964 0.039080665 0.008561238 -0.08061229 0.13171896 0.025753401 0.0015260977
-0.06299325 -0.07616563 0.06816888 -0.21406223 0.037893374 -0.17396712 -0.11508834 0.06859353
0.11915668 0.024424553 0.06131158 -0.043050185 -0.01367146 -0.32931727 -0.3035702 0.22006603
-0.11938358 0.15228546 -0.21625854 -0.04938124 -0.14728405 0.028209643 -0.060498167 0.00035186345
-0.33211455 -0.14562546 -0.34758165 -0.22659226 0.17508112 -0.1341787 0.04425296 -0.11855906
0.0010108678 -0.069689505 0.14485757 -0.2021958 0.1345217 -0.10179783 -0.16500053 -0.06605721
0.118217364 -0.039203566 0.033431042 0.057201006 -0.3252675 0.083137795 -0.26149315 -0.08538445

convs.2.bias f4 [128]
00000000: 90e2 eeba 70b5 0b3f b199 3fbe 27ab 7ebe
00000010: 5dbc 71be 61ce 61be 3966 c2be dcda 8cbe
00000020: 9c4a 40be 19b0 14ba 6cde 8ebe 3b65 85be
00000030: 956b ebbd f4e1 04be 5be8 c2bc 07b6 1cbe
00000040: 0ac1 1ebe a4f3 22be 8388 d8bc dd7e ddba
00000050: c075 6bbe 96da 53be ac48 c0bd d157 41be
00000060: 3168 67bd 00f0 82be 5f3b 97be 9127 9fbe
00000070: 912c 21be 4847 39be 964a 90be b45c 29bb
00000080: f756 12bd 9b62 9ebe 1c61 b6be 77b4 e73e
00000090: 24a9 bebd 894a 58be 5500 54be c24b 8dbe
000000a0: e773 e4bd 9ca9 dfbb 5906 fdbd 2a15 57bc
000000b0: 81ec 9cbd 820c b0be 4257 ddbd 41b9 96be
000000c0: ea75 84bb ba76 51be a3a8 9cbd a75d bebe
000000d0: be4b 80be 5fd9 91be d658 81be d929 1dbe
000000e0: 8a2a 99bb cc36 1abe 5922 4abe 028e e8ba
000000f0: 41a8 63be e89c 9dbe aa82 23be 88d3 babd
00000100: 58bc 75be bac2 8abe e116 8ebe 783a afbe
00000110: 1c94 5bbe 4a73 38be 4d90 16be 6d93 afbe
00000120: 0e19 b5be 6d12 19be e07b 3cbe c7b8 4dbe
00000130: 4b56 93be e1ea a3bd 90b2 49be 22e7 15be
00000140: 161d b1bd bc2e 2dbe eca8 67be 59d1 8abe
00000150: 64c1 3ebd c1e6 94be bf3a 1fbe d5f0 66be
00000160: b666 1fbe 9d4c 3cba 512e 6ebe 5923 49bd
00000170: 2bb6 56be d987 4fbe ed9d b7be 6525 e9bd
00000180: 25f5 7dbc a2a4 68be 9585 81bd 5b93 c5be
00000190: 145c 4dbe 63a6 1abe 79d2 8bbe 733a f5bd
000001a0: 4f7e 25be 1e42 5dbc bda7 9bbd 9609 1dbe
000001b0: 1857 63be 6c87 9abe 7ffa 0fbd 67cd a5be
000001c0: a73d bebe 33a2 afbe 8edf 5dbd 7dc8 d3bd
000001d0: 06ec 72be 243e 6cbe 348b 6dbe 727c a4be
000001e0: 13d9 2fbe 7f3b 49be 5d17 8fbc 25e9 4bbd
000001f0: 6973 abbe e240 84be 33f8 a9be 42d6 95be
-0.001822548 0.54573727 -0.18710972 -0.24869977 -0.23607011 -0.22051384 -0.37968615 -0.27510726
-0.18778461 -0.00056719925 -0.2790407 -0.26053795 -0.11495129 -0.1297682 -0.023792436 -0.15303813
-0.15503326 -0.15913254 -0.026432281 -0.001689877 -0.22994137 -0.20688853 -0.09388861 -0.18881156
-0.05649585 -0.2557373 -0.29537484 -0.31084874 -0.15739657 -0.18093598 -0.28181905 -0.002584261
-0.035727467 -0.30934605 -0.35620964 0.4525487 -0.09309605 -0.21122183 -0.20703252 -0.2759686
-0.11154919 -0.006825639 -0.12354726 -0.0131276045 -0.07662297 -0.34384543 -0.10807659 -0.29438213
-0.0040423768 -0.20455447 -0.076493524 -0.37180826 -0.25057787 -0.28486153 -0.2526309 -0.15347995
-0.0046742605 -0.15059966 -0.19739665 -0.0017742517 -0.22232153 -0.30783772 -0.15967813 -0.09122378
-0.23997629 -0.2710169 -0.2775183 -0.34224296 -0.21443218 -0.1801273 -0.14703484 -0.34292164
-0.35370678 -0.14948435 -0.1840663 -0.20090018 -0.28776774 -0.08003784 -0.19697022 -0.14638951
-0.08648126 -0.16912359 -0.22623032 -0.27112845 -0.04657115 -0.290823 -0.15549754 -0.22552808
-0.15566525 -0.0007183047 -0.23259856 -0.049105976 -0.20967929 -0.20266666 -0.35862675 -0.113840856
-0.015500342 -0.22719052 -0.06324307 -0.38588986 -0.20054656 -0.15102534 -0.27309015 -0.11974039
-0.16161464 -0.013504533 -0.07600353 -0.15335688 -0.22201192 -0.30181444 -0.035151 -0.32383272
-0.37156412 -0.34303436 -0.054168276 -0.103409745 -0.23722848 -0.2307058 -0.23197633 -0.32126194
-0.17172651 -0.19651602 -0.017467195 -0.04978289 -0.33486488 -0.25830752 -0.33197173 -0.29265028

decoder.0.weight f4 [1, 384]
00000000: e37d 93be de2f 023f 5e61 04be 366b dcbc
00000010: 10f2 c13e 70c8 d33d 69a8 8c3e 1d08 0a3f
00000020: 2b64 493e 9e2c 843f 4061 3bbe 8c61 2bbe
00000030: 212b 49bf b601 2ebe 9ac6 7e3e 5ed9 493e
00000040: 2dac e03d c0c3 f03d ab02 4d3c 5104 a53d
00000050: 7422 473e 5a47 4fbd 1850 c6be 33d3 843e
00000060: 930d 513e eff3 943f c015 23bf 1ce8 00be
00000070: 9760 313e e731 23be 4a15 503e b03f 8bbe
00000080: a365 d43e 9662 19bf 0419 0d3e b6a1 263e
00000090: ae02 74be c269 20bf e59c ce3d fb5a 303f
000000a0: 59ef 233e 18cd e13c f3f4 303e 2082 b4be
000000b0: 3c4d 023d f20d 6cbd 9a8e 673e abaa ce3e
000000c0: 3e93 87be 18bd c63d de18 f83d da3b 9abf
000000d0: e89d b0be 63d2 003e e22f b53a 36f2 0bbf
000000e0: 2269 103f 8037 9dbd b571 ae3e 1a52 863f
000000f0: d923 74be c79a 1cbf 3f95 063f 1cf5 1b3d
00000100: 7df8 a0bd 48de 62be 080c 20bf 8956 ab3e
00000110: d5c8 f53e e9a6 8e3d 3a08 45be b341 2d3e
00000120: 0f76 d3be 8356 a1bf 3025 833f 9103 123f
00000130: 9e66 4dbe 6ebc 7a3f 4c09 0dbf 00ab 43bd
00000140: f601 fcbd cd48 d3be 419c aebd 0ba7 8b3f
00000150: faf7 9b3f 9de8 e4bd 63c5 423e 0879 5dbf
00000160: d045 183e 19fb 813f 61e1 413e 51f5 edbd
00000170: a8c4 dd3c 2835 0cbe 9ee6 463c beed a23d
00000180: 3292 213f 1189 443c e413 283a 4d85 fb3e
00000190: c969 6cbe fe24 753f 9ca9 a1be b2d5 2b3f
000001a0: 31af 113e 5b06 dc3e 6a16 0cbf 05fa 11be
000001b0: a392 a03d f547 993d 8552 b03f 2598 6e3f
000001c0: 682c ce3e 41db bf3e 2901 be3e 28bc 193e
000001d0: 6a81 86bb 840c 11bf 7853 03be 4c14 ed3b
000001e0: fb77 70be f552 b23e 542c 773f 9958 233f
000001f0: 4835 d63e 6939 32bf 810a 8abe 4188 283e
00000200: 97d2 e9be 16ea abba 17d7 f6be 8214 24bf
00000210: a040 5dbd 74ac 6c3d 5e7a 3abe 8aa9 a7bf
00000220: c2f8 123f c2e5 9bbb bbf9 fe3c 3b1a bd3e
00000230: ba8c 9ebe b354 793f 90ae 343c dd18 2e3f
00000240: 2110 06bf 9d5d 18bf 44e5 4fbc 48a6 e5bb
00000250: 4532 b03d b2bd 033e b10a e43d 43cd 7fbe
00000260: 9221 a93f 5853 1fbe 5085 abbe 9c10 eb3f
00000270: 33c8 d93d ad1b 543f fc19 2a3b 7be7 323f
00000280: 7915 e53e 18c3 43bf cd93 1abf 68f8 dfbe
00000290: 1df6 053e bd51 aabd e5e1 ebbe a46f 96bd
000002a0: 76bc 8a3d 74ec 3a3d 4fa3 083e f90d 193e
000002b0: 77c7 c9be 02d7 9cbc 5982 eebd ad7d 133e
000002c0: e39d bb3e ccbc 2cbf 0634 8ebe 3cfb 423b
000002d0: af6d 1b3e 5e00 b2be 4085 debe f5b7 b7bc
000002e0: fd6f 20bf 0d46 403e a195 9cbe 9daa 423f
000002f0: 3516 2a3c 5486 93bd bd8b 65be 7ab8 123f
00000300: 544d 7abd 29c5 043d 1146 16bf 21be fb3e
00000310: e3a6 69bd 43f9 3c3e d8a3 2dbf 0fbe 2f3e
00000320: 98d4 0bbf 1233 01bf 98d7 3b3d 44fc 503f
00000330: e978 33bf 9466 b6bd 15ef 6abd 03e1 bb3f
00000340: 2dfb d23d e001 6dbf 1034 b1bd 33d4 e73d
00000350: cca2 d3bd 55ad 463e 386e 263d 4800 6fbd
00000360: 3331 4c3d 69eb 34bf c581 543e 4cdf 96bc
00000370: 2428 673f f995 47be 2bc9 b4bd fa68 4dbe
00000380: e1dd a5be 9eb5 89be 7d7c 6e3b eea8 b4be
00000390: d7ec 083d c091 f7bd a9a6 54bd 4552 563d
000003a0: 3257 fd3b 8416 0bbc 4b18 44bf 212e 123d
000003b0: 73b9 c43d c07a 8d3e aed2 7abe 563d e03e
000003c0: bdd9 393d f39b 3abf ec7f f83d d566 e53d
000003d0: 6f67 b9bb 6714 8c3e b4c2 71be f086 fb3b
000003e0: 5774 50bf e8d4 f03e 6ef7 e23f e458 d33e
000003f0: 5b88 0f3f c8c8 433c 0acc 65bf fc69 d43d
-0.2880698 0.5085429 -0.12927768 -0.02690659 0.37879992 0.10340965 0.27472237 0.5391863
0.19667117 1.0326116 -0.18298817 -0.1673643 -0.78581434 -0.1699284 0.24880448 0.19711825
0.1097034 0.11756086 0.012512843 0.08057464 0.19446737 -0.050605156 -0.38732982 0.25942382
0.20415334 1.1636943 -0.6370506 -0.12588543 0.17322002 -0.15937005 0.20320621 -0.27197027
0.41483793 -0.59916055 0.13779074 0.16272625 -0.23829147 -0.62661374 0.10088519 0.68888825
0.16009273 0.027563617 0.1728094 -0.35255527 0.031811938 -0.057630487 0.22612992 0.40364584
-0.26479524 0.097040355 0.12114118 -1.2049515 -0.34495473 0.12580256 0.0013823474 -0.5466646
0.5641042 -0.076766014 0.34071127 1.0493805 -0.238418 -0.6117367 0.5257148 0.03807555
-0.078598954 -0.22155106 -0.6251836 0.3346446 0.48004785 0.06965429 -0.1924142 0.16919594
-0.4130101 -1.2604526 1.0245724 0.5703669 -0.20058677 0.9794377 -0.5509231 -0.0477705
-0.123050615 -0.4126648 -0.08525897 1.0910352 1.2185051 -0.1117718 0.1902061 -0.86512804
0.14870381 1.0154754 0.18933631 -0.11619056 0.027071312 -0.13692153 0.012139944 0.07955502
0.631137 0.01199557 0.00064116553 0.49125138 -0.23087229 0.9575957 -0.31574714 0.6712295
0.14226986 0.429736 -0.547217 -0.14255531 0.07840469 0.07484428 1.3775183 0.93200904
0.40268254 0.37471965 0.3711026 0.15013182 -0.004104783 -0.5665972 -0.1282481 0.0072350856
-0.23483269 0.34828916 0.96552014 0.63807064 0.41837525 -0.6961885 -0.2696114 0.16458227
-0.4566848 -0.0013116028 -0.48210976 -0.6409379 -0.05401671 0.05778165 -0.18210742 -1.3098614
0.57410824 -0.004757614 0.03112494 0.36934075 -0.3096674 0.97394866 0.011027947 0.6800669
-0.5236836 -0.5951784 -0.0126889385 -0.0070083477 0.08603338 0.12865332 0.11134852 -0.24980645
1.321337 -0.15559137 -0.33500147 1.8364444 0.10633888 0.8285473 0.002595543 0.6988446
0.44742945 -0.76469564 -0.60381776 -0.43744206 0.13082166 -0.083163716 -0.4607078 -0.073455125
0.06774227 0.045635656 0.13343547 0.14946736 -0.39409992 -0.019145492 -0.116459556 0.1440341
0.36643896 -0.6747558 -0.27774066 0.0029751798 0.1517856 -0.34765905 -0.43461037 -0.022426585
-0.6267088 0.18776722 -0.30582908 0.76041585 0.010381271 -0.072033554 -0.22416587 0.5731274
-0.061108902 0.03241459 -0.5870066 0.49168494 -0.05704392 0.18454461 -0.6782813 0.17162345
-0.5462127 -0.5046855 0.045859903 0.81634927 -0.7010637 -0.08906284 -0.057356913 1.4678043
0.10301814 -0.92580986 -0.08652508 0.11319771 -0.103337854 0.19402058 0.040632457 -0.058349878
0.049851608 -0.7067171 0.20752628 -0.018417023 0.90295625 -0.19490804 -0.08827432 -0.20059577
-0.32395843 -0.26896375 0.0036390119 -0.35285133 0.033428993 -0.120883465 -0.051916752 0.052324552
0.0077313418 -0.008489255 -0.7659957 0.035688523 0.09605684 0.27632713 -0.2449443 0.43796796
0.045373667 -0.7289421 0.12133774 0.11201254 -0.005658082 0.27359316 -0.2360943 0.007675998
-0.8142752 0.47037435 1.773176 0.41278756 0.56067437 0.011949725 -0.89764464 0.103717774
