saved_models/model_03.pkl (torch_old, 281078 bytes, 7 tensors)

convs.0.weight f4 [128, 20, 5]
00000000: 6323 31bc 30b8 88bd 2467 f03d 5062 f0bd
00000010: 96ff 213e 605b 913d 7f17 71be 9c98 31be
00000020: 2ce3 67be f665 0e3e c793 8bbe 338f b2bd
00000030: b5a1 d73d ef1a cdbd 01e0 40bd b53b ce3c
00000040: a49f a4be 8818 93be 8169 233d d66a 3f3e
00000050: 5f73 c93d 12da aa3e 6c05 f03c a851 3bbd
00000060: 6583 e33d 60e4 943d 9f57 4c3e 5435 f7bd
00000070: e39f 433e 94c6 49be 9ab3 6fbe 0d41 c13d
00000080: f14f 29bc dec5 57ba ade7 65bc 20c1 d0be
00000090: ea41 06be 8d08 c1bd e7f1 0a3d 8a60 dbbd
000000a0: 0091 6a3d dd51 383d 7ba6 a03e 8c6f 873c
000000b0: f31a 8ebe 8498 37be 7d10 cd3d 81de 11bc
000000c0: e544 05bf af71 763e 8bfc b4be f837 7ebc
000000d0: 8096 ce3b bf79 ce3c 0035 14bd 66a5 cf3d
000000e0: 9500 11bd c191 c2bd 4a37 4cbe 65ed 02be
000000f0: 5569 18bf 3801 113d 5461 b3bc 3bda afbd
00000100: 6dac 57be 32fc 533e 0b17 d6be 2bba 0bbe
00000110: 403a 4f3d 104b abbd 68ca 2fbd ffc2 f03c
00000120: 3603 2cbe 42ec 8ebe 1e55 dd3e 0a66 c8be
00000130: cfc8 343e 5625 fabd bcc9 0ebe 8800 bfbd
00000140: 2276 7ebe 028b 333c 9595 57be 06b7 62be
00000150: 0cad ae3c 70cf a3bc 4d2b 9bbe 7065 303e
00000160: 68d9 bcbd 513a 89be d76f 073d df9a 65be
00000170: 1329 793d 9ac9 00be 5a47 7abd 4be6 84be
00000180: de8e 2f3e 89b6 ec3d fdcc e0be d480 94bd
00000190: e999 20be 82bd 5fbd 42d4 6fbc 2aea 8d3d
000001a0: 8d04 d1bc d60b 043e 1e65 a5bd cf46 7fbe
000001b0: 66f8 f3bd d6ab 873e 6632 0dbe 5d30 9fbc
000001c0: 07aa 383d 5cac 60bc 6225 7fbe 4d9d afbe
000001d0: 80e0 b63d 3b36 533d 4ed5 373e 3bd2 74bd
000001e0: a693 4f3e 5faa 47be a3e3 e83d 82a2 96bd
000001f0: 2cbc 823e 8834 6cbe 1bf5 4fbe 5076 1dbe
00000200: f642 0dbe b4c9 1a3e a496 85be 05d5 003e
00000210: 0c24 47bd ee84 aebd 2aec 1a3d fc3c e9bd
00000220: 5572 113d 3eaf 47be 4b59 6c3e 7bdf 0abe
00000230: 1c1d 75bd 0682 6cbd fd74 573d 9024 503c
00000240: f622 cd3d e7f5 32be 1ce9 40be d119 3dbd
00000250: afc4 b4bd 2423 0f3c 6efb 41bd 0bbe a43d
00000260: 1043 a9bd 935f a3be fb3b 8dbd fd21 1fbe
00000270: f2a4 b8bd ca77 ad3d 491c 5ebd 4050 1bbe
00000280: 2ca6 dbbc ae26 2abe e8c3 cdbc dca6 993b
00000290: ae0d 06be 1c6d 74be 8782 f1bd d5e1 f4bd
000002a0: cbaa 91be bf7e 3d3c 2743 2cbe ca37 5bbe
000002b0: f2f1 063e a3a4 30bd 51ee 863e 4cf1 4abe
000002c0: 21de 253d 363b 3e3d cfad 8b3d 3f39 a43d
000002d0: cb6a 0ebd 41f0 a23d 7b87 c93d 8189 0c3d
000002e0: f28c d0bd a12b edbd a8ce cd3d 6f18 ad3d
000002f0: 0f21 82bd f43e 933e b20e edbd 92bf 74bc
00000300: 6734 cf3b ddd3 22be b765 003e 4b12 3a3d
00000310: 34aa 60bd fd42 30be 813a 50be 87b5 24be
00000320: 531a e9bc 3853 5ebd 0c3f 37be 90f9 1c3e
00000330: 6130 19bb 9728 82be b619 163c bc3d 373d
00000340: fad6 a13d 5bea 7ebe 41f9 e53d 6cfb 273e
00000350: 3a90 e03d 9e2c 04bf a79c 28be 3459 613e
00000360: fb39 febd 16dc 003c 038f 08be 831a bd3d
00000370: 63b8 3f3d 9ea7 943d 7470 c8be 3052 66bd
00000380: 483a febe 360b 843c 1698 9cbd 07de 343e
00000390: 11d6 d3bd 0c61 263e cb3d 803e 61d3 44be
000003a0: fb4b 48bd bd41 08bb af56 783e 1732 9fbd
000003b0: b39d b63d 92d2 4c3e 2a47 9abe 6a16 54be
000003c0: 32f3 36be 07dc 0abf e426 f83d 8539 05bd
000003d0: c006 a13d 61d3 2cbe c6b3 7c3e 5a72 fc3d
000003e0: a202 58bd b72e 74be 055c 933d f8e1 13be
000003f0: cbfc f5bd 5914 88be b4bd 00be 3ce1 babd
-0.0108116595 -0.06675756 0.117384225 -0.117375016 0.15820155 0.070975065 -0.2354412 -0.17343372
-0.22645253 0.13906083 -0.27261183 -0.08718719 0.1052889 -0.10014903 -0.047088627 0.025174955
-0.32153046 -0.28729653 0.03989554 0.18693098 0.098364584 0.333695 0.02929946 -0.04573217
0.11109046 0.072701216 0.199553 -0.120707184 0.1910396 -0.19704658 -0.23408356 0.094362356
-0.010334001 -0.00082310836 -0.014032287 -0.40772343 -0.13111082 -0.09425459 0.033922102 -0.10711773
0.05726719 0.044999946 0.31377015 0.016532682 -0.27754936 -0.17929274 0.100129105 -0.008903147
-0.5205825 0.24066804 -0.35348925 -0.015516274 0.006304562 0.025204537 -0.036183357 0.10138969
-0.035400946 -0.095004566 -0.19942966 -0.12785871 -0.59535724 0.035401553 -0.021896996 -0.08586546
-0.21061869 0.20701674 -0.41814455 -0.13645236 0.05059266 -0.083639264 -0.04291764 0.029389856
-0.167981 -0.27914625 0.43229002 -0.3914035 0.17654727 -0.122141525 -0.13944143 -0.09326273
-0.24849752 0.010958435 -0.21053155 -0.2214013 0.02132275 -0.019996375 -0.30306473 0.17226195
-0.092211545 -0.26802304 0.033065643 -0.2242236 0.060830187 -0.12576905 -0.061103202 -0.2595695
0.17144343 0.11558253 -0.43906394 -0.072511345 -0.15683712 -0.054624088 -0.014638009 0.06929429
-0.025514865 0.1289514 -0.08075927 -0.24929355 -0.119126126 0.26498288 -0.13788757 -0.019432241
0.045084026 -0.013712969 -0.24916604 -0.34299698 0.08929539 0.05156539 0.17952463 -0.059770804
0.20271167 -0.19498585 0.11371543 -0.07355215 0.2553419 -0.23066914 -0.20308344 -0.15377164
-0.13795075 0.15116006 -0.26091492 0.1258126 -0.04861836 -0.08521448 0.03782288 -0.11388585
0.035509426 -0.19500443 0.23080938 -0.13561814 -0.059842214 -0.057741188 0.052601803 0.01270403
0.10016434 -0.17476617 -0.18838924 -0.0461672 -0.08826577 0.0087364055 -0.047358923 0.0804406
-0.08264744 -0.31908855 -0.06896206 -0.15540309 -0.09015836 0.084701136 -0.054226194 -0.15167332
-0.026812635 -0.16616318 -0.02511783 0.0046890806 -0.13091156 -0.23869747 -0.11792474 -0.119571365
-0.28450617 0.011565863 -0.16822492 -0.21408 0.13178232 -0.04312576 0.26353696 -0.1981861
0.04049504 0.046443187 0.06820261 0.08018731 -0.034769814 0.07955981 0.09840294 0.03431082
-0.10183133 -0.11580587 0.10049182 0.08451926 -0.06353962 0.28758967 -0.115750685 -0.014938252
0.0063233855 -0.15901132 0.12538801 0.0454276 -0.05484982 -0.17213054 -0.20334817 -0.16084872
-0.028454935 -0.054278582 -0.17895144 0.15329576 -0.0023374783 -0.25421593 0.009161403 0.04473661
0.07902332 -0.24894087 0.11229182 0.16404504 0.10965009 -0.5163058 -0.16466008 0.22006685
-0.12413403 0.007864973 -0.13335805 0.09233572 0.046806704 0.07258533 -0.39148295 -0.056230724
-0.4965384 0.016118627 -0.076461956 0.17662822 -0.10343564 0.16247958 0.25047144 -0.1922126
-0.048900586 -0.0020791136 0.24251817 -0.07773226 0.089167975 0.20002201 -0.3013242 -0.20711675
-0.17866209 -0.54241985 0.12116793 -0.032525558 0.078626156 -0.1687751 0.24677953 0.12326498
-0.052736886 -0.23845945 0.07195286 -0.14441669 -0.12011107 -0.26578024 -0.12572366 -0.09124991

convs.0.bias f4 [128]
00000000: 42e0 97ba 586f 75bb 345e b4b9 606d 71bd
00000010: 7e17 07bd 1e1e 9cbd ffd9 aabc 0bcb 0ebb
00000020: dcb6 d7bd c77c c0bb 3104 3fbd 57f0 bfbd
00000030: a773 03bd 9ba3 eebd 8dd9 6bbd 88e2 fcbc
00000040: 247d 36bd 03d0 56be 41c6 e1bd 3766 8bbd
00000050: 720f 73bc a7f5 d9bc f309 e4ba 586e 08be
00000060: 3898 47bc 9136 94bd b06f 06be 2e41 19be
00000070: c491 8bbd f869 f1bb e472 fabc e25f 28bb
00000080: 3fdc a4bc c6a2 ccb9 cf50 b1bd 83ef d9bd
00000090: 7d58 e6bb 1ca2 e7bd 90af f7bc 6388 f9b8
000000a0: c87d 2fbe bdbc 34be 524c 11bd 118d 02bd
000000b0: 8111 05bd 3a08 02bd c3d1 73ba 623a 5abd
000000c0: fea9 02be d413 a0ba 1e19 6ebd 7f04 86bc
000000d0: 0908 53bd 3927 71bc c2a2 99bb d0f1 85bc
000000e0: 128a 28bd 322d 81bc ed0e 09be a4fc 3bbd
000000f0: 792c 4dbe 909e 33bc f664 42bd d53c 91bd
00000100: 1dc9 4cbd 5c5d 3abe 9441 cfbd 074d c1bc
00000110: c697 86bd d817 5fbd 8a63 99bd c954 24be
00000120: 792e 91bc 4d87 46be 2c01 82ba 2573 e4bb
00000130: a6f9 dbbd 5f46 06bd 71de bdb9 94e3 01bc
00000140: 2fa3 b0bd e90e 07bd e6ef 3ebd ea44 72bd
00000150: e43e a5bd 7fdb 8fbb 71bf c4bc d7b0 10bd
00000160: 0934 bdbd 621f 1cbe e0a7 dbbc a773 ddbc
00000170: f1e2 73bd 54d8 f5bb b666 b8bd 071f b0bd
00000180: 13f9 f7bd 3ac5 3abe a50f 89bd 518e 17bd
00000190: 1fbe dfbd f025 9abb 82fb 36bd f82f 97bd
000001a0: 0dba f9bd 6367 c5bd cf2d afbc 138f 8ebd
000001b0: 5fd4 c0bd e963 0cbd 0dec ccbd f18c 7fbb
000001c0: b1e8 92bd 4731 40bc a95e a8bd a976 8ebd
000001d0: 859e d2bc 818c 36bd 8f80 35bc 4329 a3bd
000001e0: d226 67bd 1af6 15bb 407c f7bd 1710 063d
000001f0: b20b 5bbd 2bb2 bfba 0f31 aabd 6973 b6bd
-0.001158722 -0.00374504 -0.00034402462 -0.0589422 -0.03298139 -0.07622932 -0.020855902 -0.0021788504
-0.105329245 -0.0058742496 -0.046634857 -0.09372013 -0.032092717 -0.11652299 -0.05758052 -0.030869737
-0.044552937 -0.20977788 -0.11024142 -0.06806605 -0.014835225 -0.026606394 -0.0017397985 -0.13323343
-0.012182288 -0.0723697 -0.13128543 -0.1496627 -0.06814912 -0.007367369 -0.030572362 -0.0025691916
-0.020124553 -0.00039031188 -0.08657991 -0.10641386 -0.0070295916 -0.11310217 -0.030235082 -0.00011898649
-0.17137825 -0.17650123 -0.035473175 -0.031872813 -0.032487396 -0.031746127 -0.0009300971 -0.053278334
-0.1276016 -0.001221294 -0.058129422 -0.016359566 -0.051521335 -0.014718824 -0.0046885917 -0.016350657
-0.0411473 -0.015768621 -0.133846 -0.045895234 -0.20036496 -0.010963097 -0.047459565 -0.07091681
-0.049996484 -0.18199676 -0.1011993 -0.0235963 -0.06571917 -0.0544661 -0.07489689 -0.16047968
-0.017722355 -0.1938755 -0.0009918562 -0.006971734 -0.10740976 -0.032781955 -0.0003621462 -0.007927794
-0.08624875 -0.032973204 -0.046615504 -0.059147753 -0.08068636 -0.0043901796 -0.024017068 -0.035324898
-0.092384405 -0.15246347 -0.026813447 -0.027032686 -0.0595426 -0.007502595 -0.090039656 -0.08599668
-0.12108054 -0.18239298 -0.06692437 -0.037000958 -0.109249346 -0.0047042295 -0.04467345 -0.07382196
-0.121936895 -0.0963886 -0.021384148 -0.06960883 -0.094155066 -0.03427497 -0.100059606 -0.003899392
-0.071732886 -0.011730499 -0.0822118 -0.069562264 -0.025710354 -0.04456759 -0.011078014 -0.079668544
-0.056433506 -0.0022882284 -0.12084246 0.03273019 -0.05347795 -0.0014625242 -0.083101384 -0.089087315

convs.1.weight f4 [128, 20, 9]
00000000: 9c5e 0fbe 59d7 d43a 3298 90bd 2d38 263b
00000010: 906b c6bd 0473 a6bd 07fe 803d 3b09 f5bd
00000020: 01e3 afbd 07fc 9fbd 47e0 243d eac0 ab3d
00000030: 5377 e8bd cd05 483d 7514 acbd c6f6 933d
00000040: db68 043e d171 34bd 590f 84bc b17b aabc
00000050: 64d0 6fbb 6600 b6bd 3d4d 92bd 3251 a9ba
00000060: 8653 c9bc da92 98bd a4c4 21be e5ae 6abd
00000070: e1fb 5f3c 1559 2cbc 366f e1bc 5d36 82bd
00000080: b890 66bd 1c41 403c 7935 a73d 376c efbb
00000090: 9e42 033e d2bd fc3d e19a 153e 5f7f 06be
000000a0: 5457 35be ef6e 683c 4fdf 243e 2a9b 403e
000000b0: 4be3 05be a2c8 d83d 5d50 3cbe 1725 583d
000000c0: 785c abbb 02a7 163d 5c0a 093c 9b45 bebc
000000d0: 669b 4fbd 7c6f c7bb bbff 873c c83a c6bd
000000e0: a3f4 26bd 9318 083d 72ea c73c a1c5 313d
000000f0: 4e5b 76bd 1b16 2c3d 55bd 07bd a122 be3c
00000100: c599 f3bc a621 8bbd 1744 68bc 9e0d 23be
00000110: c648 7c38 e4a7 f33d a27a 4cbe 4f7a 5abd
00000120: 4c5a f7bd 7f88 47be bc3d 2e3d 4be8 613d
00000130: 2734 b13d 87a8 b1bd 9e07 923d 8024 5abc
00000140: 7a43 00bd 604c 3c3d 6ae7 88bd d4ff 58bc
00000150: d1e6 ccbc b5ff 02be 9d80 c53b e73c c2bd
00000160: 2958 1fbd e229 8c3d 01fa 993d f975 d2bd
00000170: 082f e0bd 30e9 6fba d0be a4bc fcdf 18bd
00000180: c38d 36bd 9b96 45be e35e 46bd 38fe a1bb
00000190: c9e4 45be af88 cfbc 3952 aabd 2244 94bb
000001a0: e206 e5bd 52d8 c6bc 6490 30bc f808 90bd
000001b0: 6eba 313d 7d24 043d c42d cebd f333 d43d
000001c0: f34c 9a3c 2883 9c3c 19ce b6bc 982e 33be
000001d0: c0ca f8bc f0b6 4bbd 5c75 7abe ae5b b5bd
000001e0: 3abf 633d b2b1 b33d a2b0 6cbe 43f8 95bc
000001f0: 3f9a 6fbd 73d0 7a3c 2ed6 8c3e f4db ecbd
00000200: a3b7 6d3c f364 fd3d 7cd3 8bbd 57d3 093e
00000210: ecf4 50be 0592 40be 2afd 523d ea01 2abb
00000220: dd4e 09bd 24b1 42bd 3dd3 093c af51 7f3c
00000230: ddb7 bb3d c8fb 18be f083 8bbd 9bb4 a4bd
00000240: 263e 17bc 2269 25be 6ed0 073e 89f4 ae3d
00000250: b5f8 ff3d 069d cb3d e75f 193c 0f6c 25be
00000260: d23a 01bc 229a 853b da3c f43d d98b 933e
00000270: 2da1 73bd 31aa 123e 3e2b d4bb a53d 16be
00000280: 56aa a33e cdf2 30be bd90 4dbc 649e a4bd
00000290: 9ece 07bd 13da ff3c b32c 013d 4046 38bd
000002a0: 8438 86bc 5dbe aebd d2b6 8dbd c60e 8d3c
000002b0: 55ee 05bd 38cb c53c a2fd 093d 60b9 88bd
000002c0: 1697 0cbe b1cc c73c 2a4d ecbc 3498 8dbd
000002d0: 3dba 89be 1e65 db3d f295 dcbd a1d7 94bc
000002e0: 747d 57bc e3f6 e2bc d5ce 2bbe 8e11 aabd
000002f0: 60c6 eabd ebe6 dcbd 974b b2bd 4e73 d4bd
00000300: 5782 903e aa26 96be 8199 663e 207d 643d
00000310: 2932 3f3e b0d1 a0bd 84a4 0a3b 81ca d83c
00000320: b0dd 9fbe 5781 44bd 7b2e adbe b7ac 0cbe
00000330: a53e 09be 97af 173e a5a1 37be 1b2d 5cbe
00000340: 637b 323c 4b76 0e3d 67ac 14be 0015 0ebe
00000350: 2231 46be 6523 39bc 118a 25be 9a28 843d
00000360: 6e7b fa3d 118e 113e 7ec3 8ebe 195c f53d
00000370: 54f8 8f3e 35e0 b53e bac9 babe 32e2 e5bc
00000380: 03a6 e23d befc 5e3d ebc8 09bd e0df a1bd
00000390: c2a0 603d c4f9 4bbe 185f e63c 8aa7 953d
000003a0: d6a9 ffbd 514a 6abe 7875 b0be 6a4b 20be
000003b0: 41fa 4abc 3393 20be 7904 3ebe a259 113e
000003c0: ae12 4d3e d008 df3d 6669 953d dbd5 58be
000003d0: 8332 5cbd 8e15 2ebe 2bdb 5abe ef8b 05bd
000003e0: f578 8cbe 85ee 6ebe afd0 453d 727b 973e
000003f0: 2522 e3be 3ffd edbd 32b6 943d 9909 ffbe
-0.14000934 0.0016238495 -0.07060279 0.0025363073 -0.09688485 -0.08127406 0.06298452 -0.11964651
-0.085882194 -0.07811742 0.04025295 0.08386405 -0.11350884 0.048833657 -0.08402339 0.07224803
0.12930624 -0.044053856 -0.0161206 -0.020810934 -0.0036592716 -0.08886795 -0.07143638 -0.0012917875
-0.02457596 -0.07449885 -0.15797669 -0.0572957 0.013670892 -0.010519286 -0.02751885 -0.06358025
-0.05629036 0.011734273 0.08164496 -0.0073066014 0.12818381 0.12340893 0.14609863 -0.13134526
-0.17709094 0.014186605 0.1610081 0.1880919 -0.13074987 0.10585143 -0.18390031 0.052769747
-0.005229529 0.036780365 0.008364286 -0.02322655 -0.05068531 -0.006086288 0.016601434 -0.096791804
-0.040760648 0.03322656 0.024403784 0.043401364 -0.06014567 0.04201327 -0.033139545 0.023209872
-0.029736409 -0.06793527 -0.01417639 -0.15923163 6.0149257e-05 0.11897257 -0.19968656 -0.0533393
-0.1207777 -0.19485663 0.042539343 0.055153172 0.086525254 -0.08674722 0.07130359 -0.013314366
-0.03131435 0.045971274 -0.06684764 -0.013244588 -0.025012406 -0.12792857 0.006027295 -0.094842725
-0.038902435 0.06843926 0.075183876 -0.10276408 -0.109464705 -0.0009151874 -0.020110518 -0.037322983
-0.04456879 -0.19295733 -0.048430335 -0.0049436353 -0.19325556 -0.02533373 -0.08316464 -0.0045247236
-0.111829534 -0.024273071 -0.010776613 -0.07032961 0.043390684 0.03226136 -0.10067323 0.10361471
0.01883552 0.019105509 -0.022315072 -0.17498243 -0.030370116 -0.04973501 -0.24458832 -0.08855377
0.05560229 0.08774127 -0.23114255 -0.018306857 -0.05849671 0.015308487 0.27507156 -0.1156539
0.014509114 0.1237277 -0.06827447 0.13459526 -0.2040593 -0.18805702 0.051510967 -0.0025941082
-0.033522476 -0.047532216 0.00841218 0.01558344 0.091659285 -0.14939797 -0.068122745 -0.0804226
-0.009231126 -0.16153386 0.13263103 0.08542735 0.12498609 0.09942059 0.009361244 -0.16154502
-0.007887559 0.004077212 0.11925669 0.28817633 -0.05947988 0.14322735 -0.0064748814 -0.14671953
0.31965894 -0.17280121 -0.012546715 -0.08038023 -0.03315603 0.031231916 0.03153677 -0.04498887
-0.01638437 -0.08532403 -0.06919636 0.017218959 -0.032697994 0.024144754 0.03368915 -0.066759825
-0.1372951 0.024389597 -0.028845388 -0.06913796 -0.268999 0.10712646 -0.10770787 -0.018169226
-0.013152469 -0.027705615 -0.16778119 -0.083041295 -0.11463618 -0.107862316 -0.08705824 -0.10373555
0.2822444 -0.29326373 0.22519495 0.05578339 0.18671478 -0.07852495 0.0021155188 0.026463749
-0.31223822 -0.04797491 -0.33824524 -0.1373776 -0.13402803 0.14813076 -0.17932756 -0.21501581
0.0108936755 0.03478078 -0.14518891 -0.13875198 -0.1935468 -0.011299943 -0.1616595 0.06453057
0.122305736 0.1421435 -0.27883524 0.11980457 0.28119147 0.3552262 -0.3648203 -0.02806196
0.110668205 0.054440252 -0.033638876 -0.07904029 0.05484081 -0.19919497 0.028121516 0.07307346
-0.124835655 -0.22879912 -0.34464622 -0.15653768 -0.012388767 -0.15681152 -0.18556394 0.14194348
0.20026657 0.10890353 0.07295494 -0.2117533 -0.05375911 -0.1700041 -0.21372668 -0.032604154
-0.27436033 -0.23333175 0.04829472 0.2958637 -0.44361988 -0.116205685 0.072613135 -0.4981201

convs.1.bias f4 [128]
00000000: de93 833d aa04 11be bcbf 8abd f8c1 24bc
00000010: 3593 95bd b308 21bd 9e5b 97bd 215c 283d
00000020: f67e 90bd c6da 5abd 516c 24be 1750 d7ba
00000030: e130 d2bd 8739 38be c18b 3bbd f114 52bd
00000040: 6be2 16bd c29a 55bd 3a0b e1b9 009b 2cba
00000050: f51a 6abc 7e08 4dbd 1947 51be 380e 8cbd
00000060: 246d 13bd c152 19be 93b8 c8ba cb2a 85b9
00000070: 44aa fbbd e2fd bebd 56ec a0bd fafc 68bc
00000080: 8f69 2fbb 8c74 1dbb 22ef 25bd d0af 0ebd
00000090: be58 03be a635 30be 717e ccbd a3dc b1bb
000000a0: 8924 72bc 1e57 58be b812 92bd 94ce 82bd
000000b0: 03e4 aabd 6b81 b0bd 731e 4dbd e94c 4fbc
000000c0: 18c3 abbd d54f e0bc f715 cc3c 5323 fabd
000000d0: b1a8 a5bd e309 62bd 4394 a7bd 233d bbbc
000000e0: 10f7 8ebd 3cb7 fdbd 93b9 80bd 909b 8fbd
000000f0: e388 2cbd cdb0 a5bd 027e 7dba 01ea c9bc
00000100: af25 86bd 4fe3 08bd 1670 84bd aba1 9fba
00000110: bb1e d8bd bcc3 49bd f417 b0bd 4b8c 5b3b
00000120: a141 adbb b00c 50bd 9d60 23be 00aa 3cbe
00000130: c6ff d7bd 897a 09bd ccff 21bd 0095 2abb
00000140: 4f57 febc 6ccd a9bc e1b8 18be b47f 05be
00000150: dfcd fcbd 04bc 853d 09b4 44be be46 4ebe
00000160: 76b7 8cbd 0629 ef3b b535 e0bd 9cc3 27bc
00000170: b7e2 e6bd 4a5e 43bc 87a5 8abd d798 49be
00000180: e884 fbbd b1a4 cdbd 61d6 b1bd 95c7 94bd
00000190: 99b1 15be 5729 f3bc a0b1 a8bd 8522 55bd
000001a0: dafa 90bc b8b2 c7ba 88cc a3bd 48ec 01be
000001b0: 559f e5bc 2069 63bb a84f 12be f234 18bc
000001c0: 4bc6 f9bd 27e9 97bd 42c3 54bd 58d1 1e3c
000001d0: 0374 3ebd 4243 6bbd d1f9 e0bd 95a2 08be
000001e0: 1532 afbd 96d4 08bc 0090 3fbe d272 77bd
000001f0: 2343 a8bc 2e9c 833c 94cd 12bd c516 88ba
0.06424688 -0.14161935 -0.06774852 -0.010056011 -0.07303468 -0.039314937 -0.073905215 0.041103486
-0.07055466 -0.053431295 -0.16056944 -0.0016427067 -0.10263229 -0.17990695 -0.045787577 -0.051289503
-0.036837023 -0.05214954 -0.0004292371 -0.0006584376 -0.014288654 -0.050056927 -0.20437278 -0.068386495
-0.035992756 -0.14972974 -0.0015313796 -0.0002539962 -0.12288335 -0.09325768 -0.078575775 -0.014220471
-0.0026765799 -0.0024025766 -0.040511258 -0.034835637 -0.12826821 -0.17207965 -0.09985054 -0.0054279133
-0.0147792185 -0.21126983 -0.071324766 -0.06387058 -0.08344271 -0.086184345 -0.050077867 -0.012652614
-0.083868206 -0.027381817 0.024912817 -0.12213769 -0.08088816 -0.05518521 -0.081825756 -0.0228563
-0.06980717 -0.12388465 -0.062853955 -0.07012093 -0.042122733 -0.08090363 -0.0009669961 -0.024647715
-0.06550156 -0.033419903 -0.06466691 -0.0012178918 -0.10552736 -0.049258932 -0.08598319 0.003350037
-0.0052873646 -0.05079335 -0.15954824 -0.18424225 -0.10546832 -0.033564124 -0.039550588 -0.0026028752
-0.031047491 -0.020727836 -0.14914276 -0.13036996 -0.12343954 0.06530002 -0.19209303 -0.20144174
-0.0687093 0.0072985915 -0.10947744 -0.010239508 -0.11273711 -0.011924336 -0.06769853 -0.1968721
-0.12281209 -0.10041178 -0.08683468 -0.0726463 -0.1461853 -0.029682798 -0.08237004 -0.052034874
-0.01769774 -0.0015235757 -0.079979956 -0.1268779 -0.028030077 -0.003470011 -0.14288199 -0.009289967
-0.121960245 -0.07417517 -0.051944025 0.009693466 -0.046497356 -0.05743719 -0.10985149 -0.1334327
-0.08554474 -0.008351466 -0.18707275 -0.060412236 -0.020539826 0.016065683 -0.035840586 -0.0010382762

convs.2.weight f4 [128, 20, 13]
00000000: c7ee 96bd ce13 83bd ad90 c8bb fb13 4d3d
00000010: 2303 9c3d 6398 543c d54c fc3d 809c a33c
00000020: 4a0a 27be b0fa 5dbd 5490 4abe 61cd 86bc
00000030: 8386 a2bd a689 5fbc dbfd 66bd a5b0 c5bc
00000040: c0b1 15be 2156 06bd 6fb8 0d3e b4d5 e63c
00000050: 4d64 b73d 4e28 b73b 5f28 5dbd 3247 bebd
00000060: ef42 833d 8138 98be ff89 7f3d b28f 20be
00000070: 1190 edbc e86e 1b3c 9dc6 4ebe 163c de3d
00000080: 272a edbd 5b6a 173e 3516 2c3d 3a00 87bd
00000090: ad09 3cbe 4e42 943d 340c 81bd 9921 10be
000000a0: 9621 eebd 50ff 99bd 61ce 6f3d 5838 fcbd
000000b0: 2584 50bd 0a14 82bd df4b 24bd 9572 f2bc
000000c0: 09c0 a2bd e042 20be 320a 49bd 7115 2f3e
000000d0: 7220 3e3d 272f 1f3e 0f5d 61bd 7955 35be
000000e0: ff61 a0bd b12c af3c d564 d8bd 30cf 2e3d
000000f0: fbdf 033e 4c42 b1bd 93d3 f2bd b6ff 23ba
00000100: 6d51 1a3d b5d3 afbc 591f 28be 03e9 42bd
00000110: 097e ff3b 6b21 eb3d 01b1 f73c 52c3 443d
00000120: 16cf f43c ea02 61bd dc9c 09be dcf3 49be
00000130: e503 603c 115e 1cbe 3ad4 0dbd a96c 09be
00000140: d701 0ebe c051 f2bd 0ae8 c23c 8efc 273e
00000150: 1a33 ac3c 5e27 c93c 580d ba3b 2944 2dbb
00000160: 7301 4abe 9018 ae3d 2de0 39bd 0dfd 85be
00000170: 78a7 4ebe 8ca5 bbbb f960 393e 8d73 2b3e
00000180: 5bb1 92bd 7c06 8e3e 45bd 843d cce7 953c
00000190: 8a10 a3bd d233 abbc 4d00 46bd baf4 7fbd
000001a0: c58e f13d 7e45 09be 2520 423e d3e9 18be
000001b0: 0a89 94bc 67fe 143e 8b52 023e 8444 9a3d
000001c0: c0ca e93c 2406 1abe 772e 8cbe da8e c93d
000001d0: fa4e a73d 7581 5cbd 86cd 343e d797 04bd
000001e0: ecc1 e2bd a270 31be 6f9d 6cbe 639d 9a3d
000001f0: 8663 44be ab1b edbd 0af9 dfbd 4f16 40be
00000200: 7234 2ebe f5c6 8ebd 7fe3 31bd d14b a03c
00000210: d974 183c d59e fb3d ff63 c9bd 9a77 0dbe
00000220: 26ab be3d 3688 1fbe de16 42bc 9271 e9bc
00000230: 7ed5 4dbe 0f2f e4bd 61ec f2bd 7728 d2bd
00000240: c481 7ebe 4fe3 15be 3d6f 14bd 519c ccbd
00000250: cccd 333e 208a 803d 95ee 1b3d 44e1 673c
00000260: a56c 62bd 74f7 30be 40fe 89bd c496 75be
00000270: ae21 19be cd00 bebc f48e 27bd c3fd adbd
00000280: a18f 023e 7c0d aabd 728e 80bb 7509 78bd
00000290: 2f91 a93d c87d c8bc fb30 fbbd 7053 ccbc
000002a0: d2ff bdbd 1819 a13d 570c 543d d20e 2ebd
000002b0: 3c41 143e 275e cd3d 71e7 79bc 9f9c d53d
000002c0: 220b 61bd d1c8 1c3d d888 6dbe f0bb 013d
000002d0: 4421 5abb 40ef 54bb 137d 71be b116 14be
000002e0: 648c db3d 29f1 87bd a233 153c bc3f ff3d
000002f0: 8335 ab3d 79ab dd3d 852a 72bd f432 17be
00000300: aff5 82be 9bc7 02be a176 06bd b650 353b
00000310: c6cb 72bd 9b9c b6bc d66f fd3d 69cd aabd
00000320: 727e 8f3d 5c49 a4bd 41e6 bf3d 0d27 d1bc
00000330: 6802 f1bd 3b24 f9bd 6b12 363c d5d8 843d
00000340: f3dd 643d b771 1bbd d193 0ebe c9c3 06bd
00000350: ad0c 39bd 795f 343e 41a7 0ebd 6be1 343e
00000360: 9813 4bbe c43a b93d ef5d 66be b0c3 b13d
00000370: 50be 79bd bbf7 ab3c f342 0bbe 85de 353e
00000380: 14b8 99bd b787 bf3d f2d9 c73d 6eb0 c23d
00000390: 4ab9 3e3c 6b7d 77bd c2b3 66bd 18f4 883e
000003a0: f0ef 8a3d a366 00be f284 083e 8606 52bd
000003b0: da13 333e b7b9 86bd d3c4 d03d c70d c43c
000003c0: 1433 953d 1511 c93d d96d f13c 6da3 edbd
000003d0: 93dd a13d bcf0 fabd 8e97 91bd a961 71bd
000003e0: 3fa9 973d eeb9 2dbd d36d f7bd 6ac6 02bd
000003f0: 51cb 3fbe 4897 313e 3fd3 18be 3e94 01be
-0.07369762 -0.06400262 -0.0061207623 0.050067883 0.07617786 0.012975785 0.12319342 0.019972086
-0.16312519 -0.054194152 -0.1978162 -0.016455354 -0.07935812 -0.013643658 -0.05639444 -0.024132082
-0.14618587 -0.032796983 0.13839887 0.028178073 0.08954678 0.0055895215 -0.05399358 -0.09290923
0.06409251 -0.2973061 0.062387463 -0.15679815 -0.02899936 0.009486891 -0.20192952 0.10851304
-0.115803055 0.14786665 0.042013366 -0.0659184 -0.18363066 0.07239209 -0.06301156 -0.14075316
-0.116275 -0.075194 0.058546428 -0.12315434 -0.050907273 -0.063514784 -0.04011142 -0.029595653
-0.07946784 -0.15650511 -0.04908199 0.17098023 0.04641766 0.15545331 -0.05502039 -0.17708386
-0.07831191 0.021383615 -0.10566107 0.04267806 0.1287841 -0.08655223 -0.11856761 -0.00062560604
0.03767531 -0.021463254 -0.16418208 -0.0475855 0.007797007 0.11480983 0.03023577 0.048037834
0.029883903 -0.05493442 -0.13438743 -0.19721931 0.0136728035 -0.15270258 -0.034626223 -0.13420357
-0.1386789 -0.11831999 0.023792285 0.16404936 0.02102046 0.024554905 0.00567786 -0.0026438332
-0.19727115 0.08500779 -0.045379806 -0.26169625 -0.20181072 -0.005726522 0.18103398 0.16743298
-0.07162734 0.27739322 0.06481413 0.018299006 -0.07962139 -0.020898733 -0.04834013 -0.06248925
0.11794809 -0.13405415 0.18957575 -0.14932947 -0.018131752 0.14550172 0.127268 0.075325996
0.028539062 -0.15041405 -0.273792 0.098417 0.081693605 -0.053834397 0.17656526 -0.03237137
-0.11072144 -0.17328122 -0.23106931 0.075495504 -0.1917859 -0.11577543 -0.10936172 -0.1875851
-0.17012194 -0.06971542 -0.043429848 0.019567402 0.009305202 0.12286154 -0.09833526 -0.13815156
0.09309988 -0.15579304 -0.011846272 -0.028496537 -0.20100972 -0.11141788 -0.11861492 -0.10261624
-0.24854189 -0.14637493 -0.036238898 -0.099907525 0.17558974 0.06276345 0.038069326 0.014152829
-0.055279393 -0.17281896 -0.067379475 -0.23983294 -0.14954254 -0.023193741 -0.040907815 -0.08495667
0.12750103 -0.08303353 -0.003923231 -0.060555894 0.08279645 -0.02447404 -0.12265202 -0.02494213
-0.092773095 0.078661144 0.05176958 -0.042494603 0.1447801 0.10027724 -0.015252934 0.10430264
-0.054942258 0.03827745 -0.23196733 0.03167337 -0.0033283988 -0.0032491237 -0.23582868 -0.14461781
0.10720137 -0.066377945 0.0091065485 0.12463328 0.08359816 0.108237214 -0.05912258 -0.14765531
-0.25578067 -0.12771456 -0.032827977 0.0027666516 -0.059276365 -0.022291472 0.12374847 -0.0833996
0.070065394 -0.08021805 0.09370089 -0.025531316 -0.11768037 -0.121651135 0.01111279 0.0648667
0.05587573 -0.037950244 -0.13923575 -0.03290156 -0.045178104 0.17614545 -0.034827475 0.17664115
-0.19831693 0.09044412 -0.2249677 0.086799026 -0.06097251 0.02099215 -0.13599758 0.17760666
-0.07505813 0.093520574 0.09758367 0.095063075 0.011640856 -0.060422342 -0.056323774 0.2674873
0.06784046 -0.12539153 0.13331965 -0.051275752 0.17488042 -0.06578391 0.10193791 0.02393235
0.07285133 0.09817711 0.029471325 -0.116034366 0.0790359 -0.12252948 -0.07108985 -0.058931027
0.07405328 -0.042413644 -0.12081494 -0.031927504 -0.18729903 0.17342865 -0.14924334 -0.12654206

convs.2.bias f4 [128]
00000000: 0c99 72bd ac5a 353d 4570 68bd a483 1abc
00000010: c6e0 f2bc 53ab 81bd bdc8 afbd cadd 0abe
00000020: e292 ecbc 27d5 1fbd 55be b0bd 882f f8bc
00000030: 484d a4bc a300 23ba 344c bb3d a7d0 5b3d
00000040: 9ff8 53bd 07a3 78bd 4e87 0ebd 62f9 a1ba
00000050: 982a aebd b2a2 14bc 8428 e9bc 1def 81bd
00000060: f255 8fbc 05a2 89bd 7b6a 41be ff80 74be
00000070: 3e82 0abe 98a1 12bd 6f4f 05be 3ab9 b0bc
00000080: 1581 f4bc d191 eabc 130e 4ebe 78e7 acba
00000090: 134e 2bbc f018 bfbd 9b2c e3bc 32e0 15be
000000a0: 2bd7 debc be69 68bc ec96 7abd 0b99 babb
000000b0: a6f3 98bd c4e9 54be c177 fc3b 8262 5dbd
000000c0: f4ac 44bc 82cd 44ba 54a6 0d3c fa29 d4bc
000000d0: e219 c1bd 40aa b6bd cd98 17bc 715e f4ba
000000e0: 0619 febc 795f afbd f159 8dbc 3436 8ebc
000000f0: 00b3 9fbc 523b 74bd 28ad d9bd 2a3c 95bc
00000100: 457e 58bd 7580 97bd cb93 a4bd 3c40 1abe
00000110: 8231 04bb 5804 1cbd 8758 213d 9772 09be
00000120: 86e1 bebc d6cc 67bd ecbf 8c3b 1e16 19bd
00000130: ecc0 3fbe 50a1 bebd c5f8 8abd bede b7bd
00000140: b191 3eba d727 27ba 6aae 00be a031 55bd
00000150: 3449 76bd b174 17be b5ba c2ba 1e4e 8bbd
00000160: 4822 45bd 5712 22bc 3a00 e4bd c70a 87bd
00000170: 4998 00be a85e ffbd c0b9 98bd 568a a4b9
00000180: 920c 59bc e77b 1abd 3e7c 4f3d 190e a0be
00000190: 1b36 1bba d057 a3bd 6f72 00bc 5d6a cc3d
000001a0: 6bb3 7bba 129e bfba 046d b53d 83d5 84bc
000001b0: 82fe a8bd 0692 8abd 2a9d 76bd 29d2 07be
000001c0: 9595 1abe c79b 29be 67f6 d1bc a9aa 8fbc
000001d0: 8b24 07bd 9722 cdbd 81eb 6fbd f5d8 12be
000001e0: 95ba 66bc ec7e dbbd 48c1 a23d 5b48 0bbd
000001f0: 0abb 84be 31e7 f0bb 5fc9 80bd 74ec a3bb
-0.059227988 0.044275925 -0.056747694 -0.0094308 -0.029648196 -0.063315056 -0.0858321 -0.13561168
-0.028878633 -0.039021637 -0.08630053 -0.030296102 -0.020056382 -0.00062180514 0.09145394 0.053665783
-0.051750775 -0.06070235 -0.034797005 -0.0012357647 -0.08504218 -0.009071993 -0.028461702 -0.06344435
-0.017497037 -0.06720356 -0.18888275 -0.23877333 -0.13526246 -0.03579864 -0.13018583 -0.021572698
-0.029846707 -0.028633984 -0.20122556 -0.0013191542 -0.010455626 -0.09330928 -0.02773123 -0.14636305
-0.02720221 -0.014185367 -0.061179087 -0.0056945137 -0.07468347 -0.207923 0.0077047055 -0.054049022
-0.012004126 -0.00075074297 0.008645613 -0.025898922 -0.09428765 -0.08919191 -0.009252739 -0.0018643868
-0.031017791 -0.08563132 -0.017254801 -0.01735983 -0.019494534 -0.059626885 -0.1062873 -0.018217165
-0.052854795 -0.07397548 -0.08036002 -0.15063566 -0.002017111 -0.03809008 0.039391067 -0.13422619
-0.023300897 -0.05659183 0.00429534 -0.03737461 -0.18725938 -0.09308112 -0.0678573 -0.089780316
-0.00072696345 -0.0006376481 -0.12566534 -0.05204928 -0.060128406 -0.14790608 -0.0014856668 -0.06802009
-0.048128396 -0.009892068 -0.11132856 -0.065938525 -0.12558092 -0.12469226 -0.07457304 -0.00031383586
-0.013247626 -0.03771582 0.050655596 -0.31260756 -0.0005920843 -0.07975733 -0.007839783 0.09981225
-0.00096016255 -0.0014619252 0.08858684 -0.016215092 -0.082516685 -0.06766133 -0.060208477 -0.13263763
-0.15096124 -0.1656333 -0.02563019 -0.017537432 -0.032993834 -0.10016363 -0.058574203 -0.14340575
-0.014082571 -0.10717568 0.07947022 -0.03400455 -0.2592395 -0.007351779 -0.062884085 -0.0050025526

decoder.0.weight f4 [1, 384]
00000000: 05c6 c53e 0197 acbe 7935 f33e 1c32 70bd
00000010: 61bd 80be 14f2 0d3e 5507 c73e 057e f83e
00000020: 38b7 86bd c112 57be 80f6 513f 1724 b9bd
00000030: 5da9 c9bd 638f 203e 1b85 9cbd 384e db3d
00000040: 445d 403e 380e 54be 7c03 62bd a490 f7bd
00000050: dc9f 9cbe 13a4 75bd 2607 6b3e 7e37 07be
00000060: a712 cc3d 5481 4e3e c9d5 ffbd 838a 2cbf
00000070: 5fbe c83e 2b7e 1dbe d2df 12bf cb17 f43d
00000080: 138b be3d 0e71 dc3e 655b 843d eb90 0a3f
00000090: ff6f 003f f89f f7bc 259e e53e 53aa 0d3e
000000a0: 018e 86bd 48f3 69be ec6e 24be ce7c 35bd
000000b0: 672c 103e 5b9b 0d3e a6f2 38be 17e3 633d
000000c0: 604c 0abe 6807 183e 358a 34be d36c 403e
000000d0: 9e15 f1bd 85fa 9a3d 9981 053f 6ee5 b43d
000000e0: a200 3cbd 1259 65bd 736d 10bf ee55 9dbd
000000f0: 0a87 d33d 3a2f da3d 14b3 36bd 3821 923d
00000100: 4e61 103e 15eb b73d f6c5 d8be 385c 1b3e
00000110: b99b 7a3e a861 463e 2154 97bd 718c 1e3e
00000120: 5ab6 56be 2e5f 1b3e 9c2a e0be 5751 e33e
00000130: 7384 2abd 9a8d 053f ee44 4f3e 4140 a63e
00000140: 973f 0a3d 46ce 3abe 9c2e 213e c86a 00be
00000150: 36b2 663d 274d d33e d270 fc3e d9dd 083e
00000160: 704b 2cbe 25a9 af3d 5cff d4bd 96a4 433c
00000170: 2e72 843d 525f e83e a061 8e3e d8e3 8fbe
00000180: c6f5 e6bd b40d 3b3d 7606 873d 49c3 10be
00000190: 979a e93e 76c7 a73d 49bf 1b3e e05f 98be
000001a0: 755b 443e 8b9a 1abe fa9e 223e 3e1e 3abf
000001b0: b101 f6bd 2aff 873d b66d 553d 6137 13bf
000001c0: abed 3dbd 4943 f8bc 6b0b e33e 1cd8 083e
000001d0: da0c 253e 33d5 913d 5b06 813e 671c 1e3e
000001e0: 8be6 2fbd e126 9b3e d54d 033f 9990 b13d
000001f0: 5353 4abd cd77 693e cae5 2e3d 0b2e d73d
00000200: de3a c1be 9e5a 36bf ae2b 54bf 03e1 a33d
00000210: 32f3 cc3e 87a7 64bd d999 d03d 32c1 0bbe
00000220: 4f59 8b3f d5af 1abf bf90 87be 419a 6fbf
00000230: b41e debd 8571 23bf 2a04 dfbd 2f11 b83e
00000240: 4a6b d83e 126c 9e3e 07a5 2d3f 0347 983e
00000250: afb4 223e df45 06be d2c5 8c3e 6108 d23e
00000260: e5c5 4a3f 5b02 d6bd 15b6 27bf 5d4e 623e
00000270: d7ba eebd 7999 453f 611b fdbe 6b28 c83f
00000280: 4c5e 2cbe 1604 1d3f a6a4 043f 9861 13be
00000290: b1e0 54be c11e 9fbd f72c 38bf f343 a53e
000002a0: 62e3 cbbd 7035 373f fb2f 463d 3365 973e
000002b0: be9a 0ebe 0096 6dbe b6ed 823e 9008 7ebe
000002c0: 40b1 593d cc97 bbbd 8e2c eabc 3298 7fbe
000002d0: fbf4 64be 1a4e 16bf 0c70 613e b5c9 563e
000002e0: 680f a73e 9ef2 e3be 22c1 1d3f 6f40 2ebf
000002f0: ac75 f43d e820 6bbf 3653 ebbe 7de4 293e
00000300: 9a43 8c3f 3405 4abe dbfb 033f 0449 693e
00000310: d6b9 18bb a29b 303e 0575 5abf 8469 33be
00000320: 2847 aa3f 752d 13bf ce33 30be 5d8e 6a3d
00000330: 458c 943e af27 163f 5d99 a33f 5810 213f
00000340: 23d6 c7be ae20 a73d 7786 87be 7402 cf3d
00000350: 5fe0 ebbd 5a49 30be 7cad bc3e 7734 92be
00000360: 8c0b babe 78ae 2c3e 27ba 623f ec53 f43e
00000370: 28b5 efbe bcf6 0d3f 2ae3 2b3d 79c5 02bf
00000380: 8352 733e bb56 e0bd 38df 963d 9e82 07bf
00000390: 25d4 61be 17b1 a3be 7a5f 27bf 9b8a fd3c
000003a0: ecff 2d3e 9c22 0e3f f4fa c23e 6876 f8bd
000003b0: ef8e 393d 4522 4bbf 6f5f bf3d 6f69 e83d
000003c0: 199b b2be ec4a bebe 5450 b13e b289 cc3e
000003d0: f3c2 eabe d50b da3d 5657 61be 9030 be3e
000003e0: 1a62 f0be 2139 133e bf7f 8abe 842e 723e
000003f0: 9223 b9be 1513 41be 867e 97be 8594 02bf
0.3862764 -0.33708957 0.47501734 -0.058641538 -0.25144485 0.13861877 0.3887278 0.48533645
-0.06577915 -0.21003248 0.82016754 -0.09040087 -0.098467566 0.15679698 -0.07642575 0.107082784
0.18785578 -0.20708549 -0.055179104 -0.12088135 -0.30590713 -0.059970926 0.22951946 -0.13204762
0.09964495 0.20166522 -0.12491948 -0.6739885 0.39207742 -0.1538016 -0.5737277 0.11918601
0.0930387 0.43055004 0.064627446 0.5412738 0.5017089 -0.030227646 0.44847217 0.13834505
-0.06570054 -0.2284671 -0.16057938 -0.044308476 0.14079438 0.13828795 -0.18061313 0.05563649
-0.13505697 0.14846575 -0.17630847 0.18791513 -0.11771701 0.07567314 0.52150875 0.08832823
-0.04589904 -0.055993147 -0.56417006 -0.076824054 0.10328491 0.10653539 -0.044604376 0.07135242
0.14099619 0.08980385 -0.42338532 0.15171897 0.24473466 0.1937319 -0.07389093 0.15483262
-0.20967999 0.15173027 -0.43782508 0.44397995 -0.04163022 0.5216919 0.20241138 0.32470897
0.03375205 -0.1824275 0.15740436 -0.12540734 0.0563223 0.412698 0.49304825 0.13365878
-0.16825652 0.08577184 -0.104002684 0.011941096 0.064670905 0.45385224 0.27808857 -0.28103518
-0.11277346 0.045667365 0.06593029 -0.14136995 0.45625755 0.08192341 0.15209688 -0.29760647
0.19175513 -0.15098016 0.15880957 -0.72702396 -0.12012041 0.066404656 0.05210658 -0.57506377
-0.046369236 -0.030305522 0.4434465 0.13363689 0.16118184 0.07120743 0.2520016 0.15440522
-0.042944472 0.303031 0.5129064 0.08670158 -0.04939587 0.22799607 0.042699613 0.10506829
-0.37740225 -0.7123202 -0.8287915 0.08001902 0.40029293 -0.05582383 0.10185594 -0.13647917
1.088663 -0.6042455 -0.2647762 -0.9359475 -0.108457 -0.6384509 -0.10889466 0.3595061
0.42269355 0.30941826 0.67829937 0.29741678 0.15889238 -0.13112591 0.27494675 0.41022018
0.79208213 -0.10449668 -0.6551221 0.22100206 -0.116567306 0.77187306 -0.4943495 1.5637335
-0.16832846 0.6133436 0.51813734 -0.14392698 -0.20788838 -0.07769538 -0.7194361 0.32278404
-0.09955479 0.71565914 0.0483856 0.29569396 -0.13926217 -0.23201752 0.25571984 -0.24807954
0.053147554 -0.09159812 -0.028585698 -0.24960402 -0.22359078 -0.58712924 0.22015399 0.20975383
0.32628942 -0.4452104 0.6162282 -0.6806707 0.11936507 -0.91847086 -0.45961922 0.16591068
1.095813 -0.19728547 0.51556176 0.2278176 -0.0023304126 0.17246869 -0.8533481 -0.1752072
1.3302965 -0.57491237 -0.17207262 0.057264674 0.29013267 0.586543 1.2781178 0.62915564
-0.3903056 0.0816053 -0.26469776 0.1010789 -0.11517405 -0.17215481 0.36851108 -0.28555652
-0.36336935 0.1686343 0.88565296 0.47720277 -0.468179 0.5545461 0.041964687 -0.5108257
0.23761944 -0.109540425 0.07366794 -0.5293368 -0.22053583 -0.31971046 -0.6538006 0.030949881
0.16992158 0.5552156 0.38082087 -0.12131959 0.045302328 -0.79349166 0.093443744 0.11348235
-0.34883955 -0.37166536 0.34631598 0.39948803 -0.4585186 0.10646788 -0.22005972 0.37146425
-0.46949846 0.14377262 -0.27050588 0.23650557 -0.3615995 -0.18854935 -0.29588717 -0.5100787
